cnn.tflite (tflite, 6984 bytes, 6 tensors)

model_1/output_0/Conv2D i1 [10, 1, 1, 4]
127 110 95 58 16 127 41 31
-66 62 -113 127 -80 49 48 -127
-106 91 -6 127 127 -73 -45 71
-11 111 -127 24 16 -127 -94 -87
-16 24 -117 -127 -78 -15 127 13
00000000: 7f6e 5f3a 107f 291f be3e 8f7f b031 3081
00000010: 965b fa7f 7fb7 d347 f56f 8118 1081 a2a9
00000020: f018 8b81 b2f1 7f0d

model_1/21/Conv2D i1 [4, 3, 3, 4]
85 -118 -31 -2 -71 48 -121 -73
-101 38 125 127 37 123 -123 36
94 48 -71 107 100 -113 52 62
95 -83 5 64 4 -11 47 -52
-111 -48 85 65 78 -114 55 106
-96 121 67 79 116 111 -107 77
-104 25 -67 105 -49 25 -11 -126
-45 50 91 -62 12 -32 117 -48
10 98 48 -88 -30 127 -65 -10
49 1 -103 127 -1 30 10 -25
-98 123 117 124 55 -105 95 -84
111 -60 -75 125 -29 40 87 110
-58 105 96 -99 61 101 82 49
78 -38 -73 -31 -103 -80 66 57
-70 127 40 -94 -58 119 43 67
113 90 -19 -32 82 18 20 -91
-95 -60 108 63 -15 -83 -29 73
106 73 -87 2 19 -101 -117 110
00000000: 558a e1fe b930 87b7 9b26 7d7f 257b 8524
00000010: 5e30 b96b 648f 343e 5fad 0540 04f5 2fcc
00000020: 91d0 5541 4e8e 376a a079 434f 746f 954d
00000030: 9819 bd69 cf19 f582 d332 5bc2 0ce0 75d0
00000040: 0a62 30a8 e27f bff6 3101 997f ff1e 0ae7
00000050: 9e7b 757c 3797 5fac 6fc4 b57d e328 576e
00000060: c669 609d 3d65 5231 4eda b7e1 99b0 4239
00000070: ba7f 28a2 c677 2b43 715a ede0 5212 14a5
00000080: a1c4 6c3f f1ad e349 6a49 a902 139b 8b6e

model_1/19/Conv2D i1 [4, 3, 3, 4]
-97 23 97 13 51 45 41 90
100 66 64 85 126 77 51 -4
-21 84 -46 -5 111 -69 31 46
-105 -99 -114 98 -33 127 -107 127
111 -78 -113 -51 124 117 -16 -45
-19 -88 67 -59 40 -8 26 -37
43 -84 53 -54 -83 -121 68 -29
-97 -77 7 -34 65 65 -94 17
-16 -56 -65 -47 105 80 -127 -45
-18 -48 1 -111 18 127 117 -78
-52 16 -22 -44 87 -121 -12 -7
106 -3 113 12 -52 -125 87 -14
-39 -115 -67 54 8 124 -107 70
45 19 -4 -45 43 72 111 61
-66 21 58 -22 127 57 91 -37
-101 -120 -105 -32 -77 -91 -55 -67
87 -45 114 -43 -93 63 -107 -89
-76 81 -2 -90 -15 -49 -103 66
00000000: 9f17 610d 332d 295a 6442 4055 7e4d 33fc
00000010: eb54 d2fb 6fbb 1f2e 979d 8e62 df7f 957f
00000020: 6fb2 8fcd 7c75 f0d3 eda8 43c5 28f8 1adb
00000030: 2bac 35ca ad87 44e3 9fb3 07de 4141 a211
00000040: f0c8 bfd1 6950 81d3 eed0 0191 127f 75b2
00000050: cc10 ead4 5787 f4f9 6afd 710c cc83 57f2
00000060: d98d bd36 087c 9546 2d13 fcd3 2b48 6f3d
00000070: be15 3aea 7f39 5bdb 9b88 97e0 b3a5 c9bd
00000080: 57d3 72d5 a33f 95a7 b451 fea6 f1cf 9942

model_1/17/Conv2D i1 [4, 3, 3, 4]
124 61 118 -116 126 -89 -16 35
83 -39 123 93 79 -13 -21 32
-21 4 -111 55 -9 39 -56 95
-59 91 -67 127 36 0 -28 100
117 -25 -102 27 103 -110 28 -112
19 0 -97 -84 127 -85 119 -49
12 -118 74 74 24 8 91 109
96 95 35 -62 -83 -77 -113 2
-105 58 85 52 -122 -97 -19 23
-8 57 87 123 -66 -123 -33 -106
110 60 -97 92 -65 -20 -127 -88
-87 103 -79 79 -54 -26 54 126
-119 -46 -68 110 -16 67 -35 56
16 114 84 13 114 39 -10 59
4 21 -25 -29 -23 70 -58 81
127 -3 -73 -103 -27 -55 -51 114
-53 -106 14 10 14 94 -41 -75
60 69 2 -54 -95 53 -28 -26
00000000: 7c3d 768c 7ea7 f023 53d9 7b5d 4ff3 eb20
00000010: eb04 9137 f727 c85f c55b bd7f 2400 e464
00000020: 75e7 9a1b 6792 1c90 1300 9fac 7fab 77cf
00000030: 0c8a 4a4a 1808 5b6d 605f 23c2 adb3 8f02
00000040: 973a 5534 869f ed17 f839 577b be85 df96
00000050: 6e3c 9f5c bfec 81a8 a967 b14f cae6 367e
00000060: 89d2 bc6e f043 dd38 1072 540d 7227 f63b
00000070: 0415 e7e3 e946 c651 7ffd b799 e5c9 cd72
00000080: cb96 0e0a 0e5e d7b5 3c45 02ca a135 e4e6

model_1/15/Conv2D i1 [4, 3, 3, 4]
19 -37 -123 -78 -41 -80 -62 12
-126 41 81 106 35 -1 -69 109
16 82 -42 45 -18 44 43 127
22 28 -49 -51 32 -89 0 -44
28 124 100 111 -33 55 -94 -62
23 -80 44 43 80 114 108 -127
88 -18 -33 -100 67 -110 -114 -122
-107 -59 96 -124 82 74 -121 0
5 -121 -124 -81 18 77 -28 123
75 -101 -115 122 105 93 127 -22
-59 -101 45 118 -94 59 -54 53
-13 73 -27 18 -127 124 -85 -122
20 21 125 87 77 -48 -100 -35
97 87 91 -64 116 113 -108 -71
-91 -53 122 -121 -47 -127 4 55
103 -110 18 56 -7 -107 -90 89
40 -29 112 43 98 101 61 -67
-121 -78 80 84 -76 -121 -40 4
00000000: 13db 85b2 d7b0 c20c 8229 516a 23ff bb6d
00000010: 1052 d62d ee2c 2b7f 161c cfcd 20a7 00d4
00000020: 1c7c 646f df37 a2c2 17b0 2c2b 5072 6c81
00000030: 58ee df9c 4392 8e86 95c5 6084 524a 8700
00000040: 0587 84af 124d e47b 4b9b 8d7a 695d 7fea
00000050: c59b 2d76 a23b ca35 f349 e512 817c ab86
00000060: 1415 7d57 4dd0 9cdd 6157 5bc0 7471 94b9
00000070: a5cb 7a87 d181 0437 6792 1238 f995 a659
00000080: 28e3 702b 6265 3dbd 87b2 5054 b487 d804

model_1/13/Conv2D i1 [4, 3, 3, 3]
-125 -97 73 43 -127 -47 10 -38
21 -70 -22 49 -96 -95 122 69
-36 42 8 -65 -94 -126 32 21
96 120 49 -82 -13 -127 120 -50
66 103 119 -107 84 100 -122 9
39 51 -96 7 -85 104 86 -50
64 -46 41 22 -120 -13 90 -127
-110 -79 3 -2 -56 108 112 -102
-75 80 63 -12 47 -76 45 -30
-39 -115 74 90 61 5 -47 -92
-87 28 127 60 28 -4 122 27
74 45 -104 87 -62 -72 95 -19
-93 -43 -15 67 24 52 -103 49
81 92 -17 105
00000000: 839f 492b 81d1 0ada 15ba ea31 a0a1 7a45
00000010: dc2a 08bf a282 2015 6078 31ae f381 78ce
00000020: 4267 7795 5464 8609 2733 a007 ab68 56ce
00000030: 40d2 2916 88f3 5a81 92b1 03fe c86c 709a
00000040: b550 3ff4 2fb4 2de2 d98d 4a5a 3d05 d1a4
00000050: a91c 7f3c 1cfc 7a1b 4a2d 9857 c2b8 5fed
00000060: a3d5 f143 1834 9931 515c ef69
