fb_b_r144.tflite (tflite, 823832 bytes, 58 tensors)

model_1/750/Conv2D i1 [896, 1, 1, 160]
00000000: 032b 0603 0aed cd27 02c0 0dde 26f1 34d4
00000010: 3210 ed6c f67c 9502 f4e9 3733 042d cd31
00000020: f4f4 c306 2a12 0418 24e9 07f2 d3db de2e
00000030: c6bc db30 ec5e 0ccb e4e3 ba13 b82e d623
00000040: 0f81 5518 4ee1 b7e7 19f3 ddf5 170e f310
00000050: dcf2 f160 70fa 33c9 e9c4 ed07 e71e 1d1b
00000060: 23f2 06d9 dace 2dc6 f316 05f6 40c5 f600
00000070: fa0d 041c d93e 220a 0ae8 0739 480c 28e9
00000080: 00fc 0d06 bffc 1a06 e1f0 09dc 13bc e716
00000090: 0a96 2ef6 df35 ab0d b157 530a 333e eed0
000000a0: 07fa fe23 1639 bda8 1918 0515 e2ee 1603
000000b0: d2fc 1c2f a5e2 173f 2b25 091d 8c1c d3ec
000000c0: 471a 68df d79d fde5 d02a af84 151b e307
000000d0: 0f08 ddc4 7fd3 1931 0ae2 5002 1f13 c624
000000e0: 14c7 e734 e70a fd57 11c9 3903 e81f 0d3f
000000f0: 149f 23ea 18f9 1809 0a04 cfe2 0fca e848
3 43 6 3 10 -19 -51 39
2 -64 13 -34 38 -15 52 -44
50 16 -19 108 -10 124 -107 2
-12 -23 55 51 4 45 -51 49
-12 -12 -61 6 42 18 4 24
36 -23 7 -14 -45 -37 -34 46
-58 -68 -37 48 -20 94 12 -53
-28 -29 -70 19 -72 46 -42 35
15 -127 85 24 78 -31 -73 -25
25 -13 -35 -11 23 14 -13 16
-36 -14 -15 96 112 -6 51 -55
-23 -60 -19 7 -25 30 29 27
35 -14 6 -39 -38 -50 45 -58
-13 22 5 -10 64 -59 -10 0
-6 13 4 28 -39 62 34 10
10 -24 7 57 72 12 40 -23
0 -4 13 6 -65 -4 26 6
-31 -16 9 -36 19 -68 -25 22
10 -106 46 -10 -33 53 -85 13
-79 87 83 10 51 62 -18 -48
7 -6 -2 35 22 57 -67 -88
25 24 5 21 -30 -18 22 3
-46 -4 28 47 -91 -30 23 63
43 37 9 29 -116 28 -45 -20
71 26 104 -33 -41 -99 -3 -27
-48 42 -81 -124 21 27 -29 7
15 8 -35 -60 127 -45 25 49
10 -30 80 2 31 19 -58 36
20 -57 -25 52 -25 10 -3 87
17 -55 57 3 -24 31 13 63
20 -97 35 -22 24 -7 24 9
10 4 -49 -30 15 -54 -24 72

model_1/747/Conv2D i1 [160, 1, 1, 480]
00000000: 05f8 c6fb d407 e702 f1e5 487e f839 042e
00000010: e321 fae2 f4ad bf4c 3919 fbdb d1fc fad9
00000020: 181b 1e1c c0f3 12eb 5f58 03c2 0524 303f
00000030: 113b f97f 4d60 1cf4 1710 2b4e 26cd e6ce
00000040: d20a 3a0d 22e6 a908 2317 49f3 2ee9 c000
00000050: e0d8 0f3e e4ea f228 ec33 57f8 254d ea01
00000060: 8f25 3a02 0ac7 0ac3 be36 4d64 31b9 e518
00000070: 0319 0b05 bd33 ff5e 163f fa15 0de5 081c
00000080: 5331 5828 a25c c9e4 d3df 0f46 2ae8 bdf7
00000090: 1ebd ddff f945 986d f598 78e9 e8b0 d017
000000a0: b7f8 08ff f7e3 f35b 949c fc2f ec4c 32e2
000000b0: e1e7 5809 0918 ba4e 4a0c 16ab 2743 72fe
000000c0: 05b8 55d3 ce36 176b 0bb0 18e0 e0f1 d839
000000d0: 04fd fee0 f6da 035a ffff cc3c fb81 f6dc
000000e0: 111e e818 0cf0 fb1e 2803 0421 f50b 3304
000000f0: 2145 4e91 ecc8 2bdf d426 d937 0a16 df43
5 -8 -58 -5 -44 7 -25 2
-15 -27 72 126 -8 57 4 46
-29 33 -6 -30 -12 -83 -65 76
57 25 -5 -37 -47 -4 -6 -39
24 27 30 28 -64 -13 18 -21
95 88 3 -62 5 36 48 63
17 59 -7 127 77 96 28 -12
23 16 43 78 38 -51 -26 -50
-46 10 58 13 34 -26 -87 8
35 23 73 -13 46 -23 -64 0
-32 -40 15 62 -28 -22 -14 40
-20 51 87 -8 37 77 -22 1
-113 37 58 2 10 -57 10 -61
-66 54 77 100 49 -71 -27 24
3 25 11 5 -67 51 -1 94
22 63 -6 21 13 -27 8 28
83 49 88 40 -94 92 -55 -28
-45 -33 15 70 42 -24 -67 -9
30 -67 -35 -1 -7 69 -104 109
-11 -104 120 -23 -24 -80 -48 23
-73 -8 8 -1 -9 -29 -13 91
-108 -100 -4 47 -20 76 50 -30
-31 -25 88 9 9 24 -70 78
74 12 22 -85 39 67 114 -2
5 -72 85 -45 -50 54 23 107
11 -80 24 -32 -32 -15 -40 57
4 -3 -2 -32 -10 -38 3 90
-1 -1 -52 60 -5 -127 -10 -36
17 30 -24 24 12 -16 -5 30
40 3 4 33 -11 11 51 4
33 69 78 -111 -20 -56 43 -33
-44 38 -39 55 10 22 -33 67

model_1/744/depthwise i1 [1, 3, 3, 480]
00000000: 0b09 cf02 5ef9 187f 0aaa d195 1ef1 27fa
00000010: d151 ab89 fc13 e81b 8148 8170 1fe4 9c1b
00000020: f41e 5bd4 814e 7f22 44fe 7fa3 0f1a e87f
00000030: e647 ca56 9016 ef81 5037 1549 69f6 cf81
00000040: 42e0 c2c8 6b33 33c1 02b1 7f57 387f 7f96
00000050: e47f e0e3 e9bd 4281 b5d6 1225 81be f200
00000060: 3efa f817 9934 1118 55c2 503d 98fd c1a2
00000070: 3f2f e0f3 2909 fec6 6de0 81a4 b920 5456
00000080: ea7f f398 d8c3 e93c 1ee5 be3b df00 c65a
00000090: 0e3a c87f d9ee 214c dd41 2f2f 9010 c6cc
000000a0: bab2 fd9d 43e7 acb8 8140 81d7 0e6a c10f
000000b0: 17f4 d7c3 8127 00bf 444e f8f0 21ce ff7f
000000c0: 7f49 2623 c204 bd3b 5d3b 17e0 1ced 20d6
000000d0: 7cad 7fdd 9b42 7ff3 f126 031d bce5 71d3
000000e0: c4e0 3103 e0ef 26fa 3f28 00d5 fe38 43d5
000000f0: b2d4 8179 c081 cf42 7fda 8181 6191 817f
11 9 -49 2 94 -7 24 127
10 -86 -47 -107 30 -15 39 -6
-47 81 -85 -119 -4 19 -24 27
-127 72 -127 112 31 -28 -100 27
-12 30 91 -44 -127 78 127 34
68 -2 127 -93 15 26 -24 127
-26 71 -54 86 -112 22 -17 -127
80 55 21 73 105 -10 -49 -127
66 -32 -62 -56 107 51 51 -63
2 -79 127 87 56 127 127 -106
-28 127 -32 -29 -23 -67 66 -127
-75 -42 18 37 -127 -66 -14 0
62 -6 -8 23 -103 52 17 24
85 -62 80 61 -104 -3 -63 -94
63 47 -32 -13 41 9 -2 -58
109 -32 -127 -92 -71 32 84 86
-22 127 -13 -104 -40 -61 -23 60
30 -27 -66 59 -33 0 -58 90
14 58 -56 127 -39 -18 33 76
-35 65 47 47 -112 16 -58 -52
-70 -78 -3 -99 67 -25 -84 -72
-127 64 -127 -41 14 106 -63 15
23 -12 -41 -61 -127 39 0 -65
68 78 -8 -16 33 -50 -1 127
127 73 38 35 -62 4 -67 59
93 59 23 -32 28 -19 32 -42
124 -83 127 -35 -101 66 127 -13
-15 38 3 29 -68 -27 113 -45
-60 -32 49 3 -32 -17 38 -6
63 40 0 -43 -2 56 67 -43
-78 -44 -127 121 -64 -127 -49 66
127 -38 -127 -127 97 -111 -127 127

model_1/741/Conv2D i1 [480, 1, 1, 80]
00000000: aa0c 05ce e93e ca06 10f3 d801 30d2 97f2
00000010: 1201 f0d7 a64b f0ba 0709 33c0 ff26 1540
00000020: d8b1 2a1b 4722 d1db 3ad9 2321 f1cc 00b4
00000030: 9c5d b00e b02f 3bf2 06fc 81b4 bac5 f0f4
00000040: 14c2 16fc 3a2e 0004 16c6 fc1c 240a d8e8
00000050: abd0 3915 0af2 145c df2a cd28 c5cc 13ea
00000060: e29b a7bb 0976 060c 4475 e027 da2c bce7
00000070: f93d 3395 bbbd 0cd1 81d3 171b ea38 cde9
00000080: 4779 0bdf 1fc6 0910 fd36 2fd4 0bf0 fb2e
00000090: 38d0 4318 e6af e900 3cf0 3e02 e240 34cb
000000a0: 52ac dc7f 5200 fc33 2bf3 40ce f7be e9c5
000000b0: 0424 b8e8 dc20 2647 2a30 e525 352c 3fee
000000c0: fee1 0249 0853 43ea 091e 2705 0633 fbbf
000000d0: 4eea eef8 36ea cec3 0bc0 21dc 293f 26f6
000000e0: 0561 c3f6 f1c2 0109 cfd4 e6ee 071f 0399
000000f0: ccd1 132c c64c 04d3 d5ed 0efb 3937 3509
-86 12 5 -50 -23 62 -54 6
16 -13 -40 1 48 -46 -105 -14
18 1 -16 -41 -90 75 -16 -70
7 9 51 -64 -1 38 21 64
-40 -79 42 27 71 34 -47 -37
58 -39 35 33 -15 -52 0 -76
-100 93 -80 14 -80 47 59 -14
6 -4 -127 -76 -70 -59 -16 -12
20 -62 22 -4 58 46 0 4
22 -58 -4 28 36 10 -40 -24
-85 -48 57 21 10 -14 20 92
-33 42 -51 40 -59 -52 19 -22
-30 -101 -89 -69 9 118 6 12
68 117 -32 39 -38 44 -68 -25
-7 61 51 -107 -69 -67 12 -47
-127 -45 23 27 -22 56 -51 -23
71 121 11 -33 31 -58 9 16
-3 54 47 -44 11 -16 -5 46
56 -48 67 24 -26 -81 -23 0
60 -16 62 2 -30 64 52 -53
82 -84 -36 127 82 0 -4 51
43 -13 64 -50 -9 -66 -23 -59
4 36 -72 -24 -36 32 38 71
42 48 -27 37 53 44 63 -18
-2 -31 2 73 8 83 67 -22
9 30 39 5 6 51 -5 -65
78 -22 -18 -8 54 -22 -50 -61
11 -64 33 -36 41 63 38 -10
5 97 -61 -10 -15 -62 1 9
-49 -44 -26 -18 7 31 3 -103
-52 -47 19 44 -58 76 4 -45
-43 -19 14 -5 57 55 53 9

model_1/738/Conv2D i1 [80, 1, 1, 480]
00000000: f6ed 5b20 32ca 2d11 00eb 28f6 1901 25d8
00000010: 1410 f7bf 0c19 102c 3b20 fc4f e805 3c2a
00000020: 1307 dfc4 0115 dfeb 12f9 bce3 f423 c212
00000030: d6d6 1faa 23e1 2a32 dbd6 d600 ebf4 e8f5
00000040: d6ff bec0 5aa4 f8fc d23c ed17 dde9 1cef
00000050: e2dd c705 de0b fb04 48e4 3fe9 dab6 f4d5
00000060: ee8b d821 011d 1004 a7f7 df08 f8f4 2807
00000070: ebbb db41 0ddd ef0b d5fa e23c 2070 6552
00000080: c0a9 2c50 4524 e4f7 d23d f8de e6e7 1f0d
00000090: 0940 15f8 1ed9 d81b 202a 1b17 e3e0 49ed
000000a0: fbed de16 29dc d725 3312 1957 fde0 f252
000000b0: 1cfe fd26 25f0 0000 e3bc a60f 2c72 0317
000000c0: cb0d f6e9 d90d f812 fcf3 e416 b923 06cc
000000d0: c41b d8ec c7aa 9a12 fb12 0900 05e8 342e
000000e0: 2005 ee63 0730 072f e412 01f9 08f5 0904
000000f0: e6c7 fdcb ca08 06f6 f31a 2a00 dde7 070b
-10 -19 91 32 50 -54 45 17
0 -21 40 -10 25 1 37 -40
20 16 -9 -65 12 25 16 44
59 32 -4 79 -24 5 60 42
19 7 -33 -60 1 21 -33 -21
18 -7 -68 -29 -12 35 -62 18
-42 -42 31 -86 35 -31 42 50
-37 -42 -42 0 -21 -12 -24 -11
-42 -1 -66 -64 90 -92 -8 -4
-46 60 -19 23 -35 -23 28 -17
-30 -35 -57 5 -34 11 -5 4
72 -28 63 -23 -38 -74 -12 -43
-18 -117 -40 33 1 29 16 4
-89 -9 -33 8 -8 -12 40 7
-21 -69 -37 65 13 -35 -17 11
-43 -6 -30 60 32 112 101 82
-64 -87 44 80 69 36 -28 -9
-46 61 -8 -34 -26 -25 31 13
9 64 21 -8 30 -39 -40 27
32 42 27 23 -29 -32 73 -19
-5 -19 -34 22 41 -36 -41 37
51 18 25 87 -3 -32 -14 82
28 -2 -3 38 37 -16 0 0
-29 -68 -90 15 44 114 3 23
-53 13 -10 -23 -39 13 -8 18
-4 -13 -28 22 -71 35 6 -52
-60 27 -40 -20 -57 -86 -102 18
-5 18 9 0 5 -24 52 46
32 5 -18 99 7 48 7 47
-28 18 1 -7 8 -11 9 4
-26 -57 -3 -53 -54 8 6 -10
-13 26 42 0 -35 -25 7 11

model_1/735/depthwise i1 [1, 5, 5, 480]
00000000: c944 18d0 173b dfc2 5002 d941 0f6e 1b4b
00000010: cdff dddd 0e67 0003 2f19 f8f5 e815 5502
00000020: 7f68 33d2 2cf6 7f33 17bb 11f1 1acd 062b
00000030: 17c7 ec36 cc7e 3b03 1bc8 d21f f724 f6e7
00000040: 21d0 d255 a4c3 9212 cef9 f2a5 1332 f26e
00000050: dc35 cb05 b9c7 1781 3c33 ccd2 41cc 220e
00000060: 3a29 e397 dee1 d8d7 49f3 2bff 1b2e 1bc2
00000070: 2e73 22e1 a8e7 4512 ff5b f030 5eda 04fb
00000080: b8c8 f3d6 277e 06bc 02e8 050d 811b fe72
00000090: 4503 3052 4135 3e32 b2e4 e3f0 07fb fd98
000000a0: befa 1239 ef07 92aa cb98 12e6 41c7 f322
000000b0: d300 6b06 bcc5 02d8 8103 0672 adbe bea9
000000c0: f10f e834 77d2 c502 edb2 1759 17bc 68d8
000000d0: 4517 d3f0 19e5 29ee d516 a728 fc08 d974
000000e0: f7e0 f312 ee7f 04de 460d 816b e5a8 4655
000000f0: fefc c856 022b 7f05 7d7f 06f6 e816 43d6
-55 68 24 -48 23 59 -33 -62
80 2 -39 65 15 110 27 75
-51 -1 -35 -35 14 103 0 3
47 25 -8 -11 -24 21 85 2
127 104 51 -46 44 -10 127 51
23 -69 17 -15 26 -51 6 43
23 -57 -20 54 -52 126 59 3
27 -56 -46 31 -9 36 -10 -25
33 -48 -46 85 -92 -61 -110 18
-50 -7 -14 -91 19 50 -14 110
-36 53 -53 5 -71 -57 23 -127
60 51 -52 -46 65 -52 34 14
58 41 -29 -105 -34 -31 -40 -41
73 -13 43 -1 27 46 27 -62
46 115 34 -31 -88 -25 69 18
-1 91 -16 48 94 -38 4 -5
-72 -56 -13 -42 39 126 6 -68
2 -24 5 13 -127 27 -2 114
69 3 48 82 65 53 62 50
-78 -28 -29 -16 7 -5 -3 -104
-66 -6 18 57 -17 7 -110 -86
-53 -104 18 -26 65 -57 -13 34
-45 0 107 6 -68 -59 2 -40
-127 3 6 114 -83 -66 -66 -87
-15 15 -24 52 119 -46 -59 2
-19 -78 23 89 23 -68 104 -40
69 23 -45 -16 25 -27 41 -18
-43 22 -89 40 -4 8 -39 116
-9 -32 -13 18 -18 127 4 -34
70 13 -127 107 -27 -88 70 85
-2 -4 -56 86 2 43 127 5
125 127 6 -10 -24 22 67 -42

model_1/732/Conv2D i1 [480, 1, 1, 80]
00000000: 13ca ec2f 9d39 dc9c dd55 0a0f f7c6 92ab
00000010: 1631 bdd1 242b cc17 e6ff a20d 2ad7 023f
00000020: ec4b e4e5 bf7f 19a8 2d63 e4e2 1717 f9b7
00000030: 24ed dcee f4ce 19ed d8a7 1cb3 1b09 102a
00000040: 07d4 21b6 ceed f0a0 e1d3 2ba1 2e01 b9cd
00000050: ed40 dd0d ce31 be13 1d0f 449f c21b 21ee
00000060: 0c20 37d9 1cec eee7 11cd c700 d421 ec1f
00000070: 1b14 bf00 edfd 2bc4 064e 0245 d0dc 0712
00000080: d21a f481 c5b9 2704 08fd ed09 d137 36d8
00000090: cf24 0c10 192d fa2c 2af1 25f2 04dc 0a1a
000000a0: 18f4 edd7 bd08 e51b 3c00 c7b8 2c81 fb33
000000b0: 0fd2 4414 b9d3 fcfe b621 8839 1f0f ebe1
000000c0: 0903 10d8 f2f0 ef26 b12b 1fdc 09f8 fa11
000000d0: ddbf 21ff fae6 0be8 010f 0fc1 f9a9 1008
000000e0: bc17 0caa f504 121d f3f1 06fc b7ee 2830
000000f0: 070e 0dd6 1754 131c 81fa 031f 2ec9 e46e
19 -54 -20 47 -99 57 -36 -100
-35 85 10 15 -9 -58 -110 -85
22 49 -67 -47 36 43 -52 23
-26 -1 -94 13 42 -41 2 63
-20 75 -28 -27 -65 127 25 -88
45 99 -28 -30 23 23 -7 -73
36 -19 -36 -18 -12 -50 25 -19
-40 -89 28 -77 27 9 16 42
7 -44 33 -74 -50 -19 -16 -96
-31 -45 43 -95 46 1 -71 -51
-19 64 -35 13 -50 49 -66 19
29 15 68 -97 -62 27 33 -18
12 32 55 -39 28 -20 -18 -25
17 -51 -57 0 -44 33 -20 31
27 20 -65 0 -19 -3 43 -60
6 78 2 69 -48 -36 7 18
-46 26 -12 -127 -59 -71 39 4
8 -3 -19 9 -47 55 54 -40
-49 36 12 16 25 45 -6 44
42 -15 37 -14 4 -36 10 26
24 -12 -19 -41 -67 8 -27 27
60 0 -57 -72 44 -127 -5 51
15 -46 68 20 -71 -45 -4 -2
-74 33 -120 57 31 15 -21 -31
9 3 16 -40 -14 -16 -17 38
-79 43 31 -36 9 -8 -6 17
-35 -65 33 -1 -6 -26 11 -24
1 15 15 -63 -7 -87 16 8
-68 23 12 -86 -11 4 18 29
-13 -15 6 -4 -73 -18 40 48
7 14 13 -42 23 84 19 28
-127 -6 3 31 46 -55 -28 110

model_1/729/Conv2D i1 [80, 1, 1, 480]
00000000: e20f 0d2a 00f7 c8e5 0723 0702 1c0e dfd5
00000010: fa10 c5fd e605 16da 2fd1 0f2a 1fef c204
00000020: 05fc d913 fa23 1321 f6c8 0226 0618 ea2a
00000030: 02fa 1e07 b42c cb22 c9ef ff29 512d fc04
00000040: 1c05 fc0c f025 0f10 02dc 0426 e804 ea04
00000050: 101f dcdc 0124 0a0e c816 ee19 d9fc ea15
00000060: 0216 d1f8 0609 0ced 08ff f7c2 f8fe f11d
00000070: f10f fff9 2ed5 d9f8 e925 41f9 30ae cdf6
00000080: 04ac 25fd f7e3 de29 02f2 07e2 e32c 163a
00000090: 0ae1 32e0 eb2b de0f 0dd4 0c0b 1210 e8f1
000000a0: 13f2 dce1 f40f 043d f20b d30d 1323 10fc
000000b0: 1361 e4d4 d1f4 ffce dd0c 3bd2 03d8 2735
000000c0: 15ed 010c 080b ee19 ef0f 16f3 f4eb baf3
000000d0: f6e6 0008 f40c 170e 3de0 09e9 0b28 33f3
000000e0: 11db f3ef fecb 2ff4 11e4 f0bd 29ff eafc
000000f0: 01df 10b3 1d1a dc19 3911 feec e3e4 fc42
-30 15 13 42 0 -9 -56 -27
7 35 7 2 28 14 -33 -43
-6 16 -59 -3 -26 5 22 -38
47 -47 15 42 31 -17 -62 4
5 -4 -39 19 -6 35 19 33
-10 -56 2 38 6 24 -22 42
2 -6 30 7 -76 44 -53 34
-55 -17 -1 41 81 45 -4 4
28 5 -4 12 -16 37 15 16
2 -36 4 38 -24 4 -22 4
16 31 -36 -36 1 36 10 14
-56 22 -18 25 -39 -4 -22 21
2 22 -47 -8 6 9 12 -19
8 -1 -9 -62 -8 -2 -15 29
-15 15 -1 -7 46 -43 -39 -8
-23 37 65 -7 48 -82 -51 -10
4 -84 37 -3 -9 -29 -34 41
2 -14 7 -30 -29 44 22 58
10 -31 50 -32 -21 43 -34 15
13 -44 12 11 18 16 -24 -15
19 -14 -36 -31 -12 15 4 61
-14 11 -45 13 19 35 16 -4
19 97 -28 -44 -47 -12 -1 -50
-35 12 59 -46 3 -40 39 53
21 -19 1 12 8 11 -18 25
-17 15 22 -13 -12 -21 -70 -13
-10 -26 0 8 -12 12 23 14
61 -32 9 -23 11 40 51 -13
17 -37 -13 -17 -2 -53 47 -12
17 -28 -16 -67 41 -1 -22 -4
1 -33 16 -77 29 26 -36 25
57 17 -2 -20 -29 -28 -4 66

model_1/726/depthwise i1 [1, 5, 5, 480]
00000000: e70d 44d0 2427 b8ea 3620 f6d8 dd63 7606
00000010: e4f0 0ddb 3316 7f1c d3f4 3627 c255 fd22
00000020: 29b8 38f4 040d ef06 f60c 2f81 a6ff 0924
00000030: c561 02aa 1209 2198 1313 5526 3aac 294e
00000040: c4e4 111c 667f fcce 0bbe 2222 21e0 0815
00000050: 0709 3fcc 33ff f900 623c ebbf bb3b eb02
00000060: 0921 df04 e125 347f 2de7 f702 30ea 10be
00000070: 3571 dd6b 9eb4 fdc6 c881 471f 4d03 1223
00000080: 81f4 1b26 f7c4 bf8e f345 d9b7 b8ec 3581
00000090: 0836 a717 0b66 f29c 5733 33ff 24fd b0e6
000000a0: 167f f0a8 0ee4 f1d7 e156 6608 c518 e629
000000b0: 0d37 d4a9 81e9 077f c6ce d94d 1d25 82c1
000000c0: 5944 9acb f5bc 000e 26bc dbf3 1557 2e2d
000000d0: 7c0b fb05 0499 813b 1e91 fdbe 36ee 13ed
000000e0: 2744 6d35 e31e 9ef9 fdfe ce0d 1b1f d00d
000000f0: 2d48 1712 192a 33f5 2dde 377f 2e11 e2ba
-25 13 68 -48 36 39 -72 -22
54 32 -10 -40 -35 99 118 6
-28 -16 13 -37 51 22 127 28
-45 -12 54 39 -62 85 -3 34
41 -72 56 -12 4 13 -17 6
-10 12 47 -127 -90 -1 9 36
-59 97 2 -86 18 9 33 -104
19 19 85 38 58 -84 41 78
-60 -28 17 28 102 127 -4 -50
11 -66 34 34 33 -32 8 21
7 9 63 -52 51 -1 -7 0
98 60 -21 -65 -69 59 -21 2
9 33 -33 4 -31 37 52 127
45 -25 -9 2 48 -22 16 -66
53 113 -35 107 -98 -76 -3 -58
-56 -127 71 31 77 3 18 35
-127 -12 27 38 -9 -60 -65 -114
-13 69 -39 -73 -72 -20 53 -127
8 54 -89 23 11 102 -14 -100
87 51 51 -1 36 -3 -80 -26
22 127 -16 -88 14 -28 -15 -41
-31 86 102 8 -59 24 -26 41
13 55 -44 -87 -127 -23 7 127
-58 -50 -39 77 29 37 -126 -63
89 68 -102 -53 -11 -68 0 14
38 -68 -37 -13 21 87 46 45
124 11 -5 5 4 -103 -127 59
30 -111 -3 -66 54 -18 19 -19
39 68 109 53 -29 30 -98 -7
-3 -2 -50 13 27 31 -48 13
45 72 23 18 25 42 51 -11
45 -34 55 127 46 17 -30 -70

model_1/723/Conv2D i1 [480, 1, 1, 80]
00000000: f10b bc02 20c6 100d fe15 4c59 f206 f6e0
00000010: c339 0ad1 e0d7 ae0e e64f 184d 7ff8 0efb
00000020: 07e3 1d29 c8f6 fbde 152c 2de4 dff9 5bc7
00000030: d7f5 551a 4134 feeb 99e7 d4ee 16c6 f918
00000040: 29d7 1d1a 3e08 401a 08b8 0dc5 e0fc 13b5
00000050: 1fe6 ed19 230d 0ebc da0b 3a09 f5de f7fa
00000060: 190e 2825 e8e7 e003 23fb dbf8 c7fe d581
00000070: 0fdc 0e01 adb2 04e2 cb07 2fd4 ebfe 000b
00000080: 0af2 0eea c502 33fb 2615 d98d 13d9 ca13
00000090: ebba bf09 e75b d2ea d915 16a7 1df0 e3e0
000000a0: 1ec2 b0f6 ce4f 0233 ee40 2cd3 3e1a de07
000000b0: 1b00 d210 f60c 0f10 ac3c 17e6 d3f2 f7c7
000000c0: c6d2 b006 2bd9 090f f516 34bb f3f4 d5ff
000000d0: 120a 2c39 080d 36e7 c3f7 18f5 dbba 3d1f
000000e0: fc81 c4cd f1ee eff8 efc2 432f 1cf4 0bec
000000f0: 662c e1ea 57ce 7f6c b7f3 3185 acd9 1cbc
-15 11 -68 2 32 -58 16 13
-2 21 76 89 -14 6 -10 -32
-61 57 10 -47 -32 -41 -82 14
-26 79 24 77 127 -8 14 -5
7 -29 29 41 -56 -10 -5 -34
21 44 45 -28 -33 -7 91 -57
-41 -11 85 26 65 52 -2 -21
-103 -25 -44 -18 22 -58 -7 24
41 -41 29 26 62 8 64 26
8 -72 13 -59 -32 -4 19 -75
31 -26 -19 25 35 13 14 -68
-38 11 58 9 -11 -34 -9 -6
25 14 40 37 -24 -25 -32 3
35 -5 -37 -8 -57 -2 -43 -127
15 -36 14 1 -83 -78 4 -30
-53 7 47 -44 -21 -2 0 11
10 -14 14 -22 -59 2 51 -5
38 21 -39 -115 19 -39 -54 19
-21 -70 -65 9 -25 91 -46 -22
-39 21 22 -89 29 -16 -29 -32
30 -62 -80 -10 -50 79 2 51
-18 64 44 -45 62 26 -34 7
27 0 -46 16 -10 12 15 16
-84 60 23 -26 -45 -14 -9 -57
-58 -46 -80 6 43 -39 9 15
-11 22 52 -69 -13 -12 -43 -1
18 10 44 57 8 13 54 -25
-61 -9 24 -11 -37 -70 61 31
-4 -127 -60 -51 -15 -18 -17 -8
-17 -62 67 47 28 -12 11 -20
102 44 -31 -22 87 -50 127 108
-73 -13 49 -123 -84 -39 28 -68

model_1/720/Conv2D i1 [80, 1, 1, 80]
00000000: 36f4 fa12 ec45 cff9 05e9 2a4f 7fcc 4b04
00000010: 0ac7 0861 3b1c de31 f0cf e5dd d4e1 0709
00000020: 1b13 edf6 dcbe 25b8 0f3d e4e1 eb08 0f0f
00000030: f63a c2fe 1016 1be8 36f9 13fa f5ce f3ab
00000040: f107 e9e5 d7f3 070c 1edb edba d8fb e511
00000050: f13c 1c6d c00b 34c5 9623 ed1f 0c01 1b40
00000060: ef06 e4a8 fefc f9f1 b927 7000 4725 4710
00000070: 0546 3c38 dce4 262b c337 eb21 0d1d 0df3
00000080: 0223 f24f 062f e0d5 11ea 8169 2acc de16
00000090: 23c5 20a7 ed98 49da d213 fa11 1e0f 005e
000000a0: cd07 cb1e f41f 04c8 f6d9 3ed6 4317 d718
000000b0: 0513 cebf 1bb9 12f8 e6f3 f836 3d1a 1641
000000c0: 35e5 0520 23f6 4ad0 4c11 1506 f123 d9ae
000000d0: f87f 591c 9d03 c94a 35db 26f3 ff00 a51f
000000e0: c72e 6513 24ed fbec 40f9 edba 0cfc eb69
000000f0: 0c22 f5c9 1b26 1b9f 7fc8 230b ac05 b4da
54 -12 -6 18 -20 69 -49 -7
5 -23 42 79 127 -52 75 4
10 -57 8 97 59 28 -34 49
-16 -49 -27 -35 -44 -31 7 9
27 19 -19 -10 -36 -66 37 -72
15 61 -28 -31 -21 8 15 15
-10 58 -62 -2 16 22 27 -24
54 -7 19 -6 -11 -50 -13 -85
-15 7 -23 -27 -41 -13 7 12
30 -37 -19 -70 -40 -5 -27 17
-15 60 28 109 -64 11 52 -59
-106 35 -19 31 12 1 27 64
-17 6 -28 -88 -2 -4 -7 -15
-71 39 112 0 71 37 71 16
5 70 60 56 -36 -28 38 43
-61 55 -21 33 13 29 13 -13
2 35 -14 79 6 47 -32 -43
17 -22 -127 105 42 -52 -34 22
35 -59 32 -89 -19 -104 73 -38
-46 19 -6 17 30 15 0 94
-51 7 -53 30 -12 31 4 -56
-10 -39 62 -42 67 23 -41 24
5 19 -50 -65 27 -71 18 -8
-26 -13 -8 54 61 26 22 65
53 -27 5 32 35 -10 74 -48
76 17 21 6 -15 35 -39 -82
-8 127 89 28 -99 3 -55 74
53 -37 38 -13 -1 0 -91 31
-57 46 101 19 36 -19 -5 -20
64 -7 -19 -70 12 -4 -21 105
12 34 -11 -55 27 38 27 -97
127 -56 35 11 -84 5 -76 -38

model_1/717/depthwise i1 [1, 5, 5, 80]
00000000: fff0 6228 85aa 8bbb bfac 202c 2c69 e7c6
00000010: c108 114a 5f4e b07f 6e3f 6978 089e ec27
00000020: 683c 3ce2 fcfc 20be 15a8 e30f e2e2 5eb2
00000030: 4495 98fa ccf9 bb37 fd21 2410 ea81 c02c
00000040: 8150 03c1 1de9 4626 a7d0 0a42 c7a9 f27f
00000050: 1677 8152 0205 08b7 1f9a e204 4202 f8a6
00000060: 3aeb bc7f cb4d aa22 d00a f30d 52da efec
00000070: f155 1735 faba c8b2 f0f1 1109 0521 0224
00000080: 3f17 e21e de71 1f67 4f29 1004 ebe1 d1b2
00000090: cf38 d1fc 2cd7 e6ef 192b d12b 0cfa 7f2f
000000a0: f621 0c1d d629 f52e 26fb 7510 f0d9 b33b
000000b0: 8dce fcfc 157f 005a 5207 5323 254c 27f1
000000c0: 5fe2 3467 b808 e9b5 61c8 42c5 dba1 4cb8
000000d0: ef1c ebfa ea0a c195 d6ed e481 e400 f451
000000e0: c410 2efa 38f7 ccff 9ca2 451e eaf0 eb27
000000f0: e7a4 310a 19d7 3319 2dd0 c0d9 f013 d0c6
-1 -16 98 40 -123 -86 -117 -69
-65 -84 32 44 44 105 -25 -58
-63 8 17 74 95 78 -80 127
110 63 105 120 8 -98 -20 39
104 60 60 -30 -4 -4 32 -66
21 -88 -29 15 -30 -30 94 -78
68 -107 -104 -6 -52 -7 -69 55
-3 33 36 16 -22 -127 -64 44
-127 80 3 -63 29 -23 70 38
-89 -48 10 66 -57 -87 -14 127
22 119 -127 82 2 5 8 -73
31 -102 -30 4 66 2 -8 -90
58 -21 -68 127 -53 77 -86 34
-48 10 -13 13 82 -38 -17 -20
-15 85 23 53 -6 -70 -56 -78
-16 -15 17 9 5 33 2 36
63 23 -30 30 -34 113 31 103
79 41 16 4 -21 -31 -47 -78
-49 56 -47 -4 44 -41 -26 -17
25 43 -47 43 12 -6 127 47
-10 33 12 29 -42 41 -11 46
38 -5 117 16 -16 -39 -77 59
-115 -50 -4 -4 21 127 0 90
82 7 83 35 37 76 39 -15
95 -30 52 103 -72 8 -23 -75
97 -56 66 -59 -37 -95 76 -72
-17 28 -21 -6 -22 10 -63 -107
-42 -19 -28 -127 -28 0 -12 81
-60 16 46 -6 56 -9 -52 -1
-100 -94 69 30 -22 -16 -21 39
-25 -92 49 10 25 -41 51 25
45 -48 -64 -39 -16 19 -48 -58

model_1/714/Conv2D i1 [80, 1, 1, 288]
00000000: 17e7 f07a 1420 ee0b f74e 31c1 ee6f bd04
00000010: 3a18 1c08 3dc3 04e3 f040 12f2 e514 f9fd
00000020: be1a 1e08 20dc 3bf8 e1ee e1f5 2196 1fd7
00000030: f42f f5ef 24ad 16f9 fc05 1be9 efbd e1df
00000040: f6ee fee7 20df 461a d4d4 2bf2 1232 4bfc
00000050: ea0e e5f7 2916 e806 e90c d415 ea05 cde4
00000060: 2d62 f504 dede 6631 e63b 1186 02ad 6001
00000070: 1827 1628 fe0f fa2d f8e5 32fb d581 27f7
00000080: 9d0d 0549 da0a 1d39 f51a 61f0 fe06 f7b9
00000090: 15cb c511 2d4d 2b1c d9e4 728d 1c19 18f1
000000a0: f83b b4e2 0ee3 fa32 0707 f6f8 121f dfdb
000000b0: 3796 e2f8 bb2f e9bd 3a3b efe7 0bf9 fb3b
000000c0: 3b35 f838 2704 e225 fdf8 eef0 ba4b ae02
000000d0: defc 3a02 03b1 d3f6 170a ecda 21de 0814
000000e0: 1f4c e60d f40e ea14 ec3f 1dd9 fe27 2913
000000f0: 3ee6 f913 1fc5 d80b aace e822 4b6d ed16
23 -25 -16 122 20 32 -18 11
-9 78 49 -63 -18 111 -67 4
58 24 28 8 61 -61 4 -29
-16 64 18 -14 -27 20 -7 -3
-66 26 30 8 32 -36 59 -8
-31 -18 -31 -11 33 -106 31 -41
-12 47 -11 -17 36 -83 22 -7
-4 5 27 -23 -17 -67 -31 -33
-10 -18 -2 -25 32 -33 70 26
-44 -44 43 -14 18 50 75 -4
-22 14 -27 -9 41 22 -24 6
-23 12 -44 21 -22 5 -51 -28
45 98 -11 4 -34 -34 102 49
-26 59 17 -122 2 -83 96 1
24 39 22 40 -2 15 -6 45
-8 -27 50 -5 -43 -127 39 -9
-99 13 5 73 -38 10 29 57
-11 26 97 -16 -2 6 -9 -71
21 -53 -59 17 45 77 43 28
-39 -28 114 -115 28 25 24 -15
-8 59 -76 -30 14 -29 -6 50
7 7 -10 -8 18 31 -33 -37
55 -106 -30 -8 -69 47 -23 -67
58 59 -17 -25 11 -7 -5 59
59 53 -8 56 39 4 -30 37
-3 -8 -18 -16 -70 75 -82 2
-34 -4 58 2 3 -79 -45 -10
23 10 -20 -38 33 -34 8 20
31 76 -26 13 -12 14 -22 20
-20 63 29 -39 -2 39 41 19
62 -26 -7 19 31 -59 -40 11
-86 -50 -24 34 75 109 -19 22

model_1/711/depthwise i1 [1, 5, 5, 288]
00000000: 29d7 8111 efba 0fe7 f15f 9412 2ecf 37f6
00000010: 07eb 81d2 09f3 046b ed05 047f f32b e2d4
00000020: 2ba1 fcd1 05bb 07dc 12e3 fdf0 33d7 fab9
00000030: e30c f42d 21d8 25c5 1ed8 23cb 1d55 dc7d
00000040: 19de d213 0d23 2315 b0e6 e522 d4d5 0a27
00000050: 1b4e 414a 7f28 6140 4306 3ffe d3e9 0781
00000060: ec7f 12bc f79e 2bb4 e6ea fab3 d4cd 31b8
00000070: 38c8 68f1 51eb 171f 4721 8136 1331 d51a
00000080: 2930 e3c8 e090 e4e2 bd14 ebc8 740e 2c1a
00000090: ffe4 dc4c ce14 1ee4 67ec 3d87 b704 1c31
000000a0: dbe9 4330 5110 e624 18d3 1ff8 2ec3 b70e
000000b0: ed04 db04 28e2 7f19 2603 1eb5 1444 f2c1
000000c0: 192d 3917 d77f 14e9 4136 cc13 0107 d8fa
000000d0: 9703 021e e106 d71b 50e4 1302 25f2 0d7f
000000e0: 1b1c ff24 fa04 e9d0 0aee b100 d820 cd1f
000000f0: 231e 5ecc 24ee 3735 e90b 5412 e3f4 f9d5
41 -41 -127 17 -17 -70 15 -25
-15 95 -108 18 46 -49 55 -10
7 -21 -127 -46 9 -13 4 107
-19 5 4 127 -13 43 -30 -44
43 -95 -4 -47 5 -69 7 -36
18 -29 -3 -16 51 -41 -6 -71
-29 12 -12 45 33 -40 37 -59
30 -40 35 -53 29 85 -36 125
25 -34 -46 19 13 35 35 21
-80 -26 -27 34 -44 -43 10 39
27 78 65 74 127 40 97 64
67 6 63 -2 -45 -23 7 -127
-20 127 18 -68 -9 -98 43 -76
-26 -22 -6 -77 -44 -51 49 -72
56 -56 104 -15 81 -21 23 31
71 33 -127 54 19 49 -43 26
41 48 -29 -56 -32 -112 -28 -30
-67 20 -21 -56 116 14 44 26
-1 -28 -36 76 -50 20 30 -28
103 -20 61 -121 -73 4 28 49
-37 -23 67 48 81 16 -26 36
24 -45 31 -8 46 -61 -73 14
-19 4 -37 4 40 -30 127 25
38 3 30 -75 20 68 -14 -63
25 45 57 23 -41 127 20 -23
65 54 -52 19 1 7 -40 -6
-105 3 2 30 -31 6 -41 27
80 -28 19 2 37 -14 13 127
27 28 -1 36 -6 4 -23 -48
10 -18 -79 0 -40 32 -51 31
35 30 94 -52 36 -18 55 53
-23 11 84 18 -29 -12 -7 -43

model_1/708/Conv2D i1 [288, 1, 1, 48]
00000000: 0f0a e424 3121 7fde de5d e958 f304 2f0a
00000010: f7e9 101a f6f3 e706 1afe bf08 39f3 1f08
00000020: 2bf0 18fc ed30 3244 10f4 ff14 df07 d908
00000030: 8203 d653 ed38 1038 6c34 d254 ff05 16ef
00000040: 0e3f c235 1a00 12de f8e8 fa1c a0fc db17
00000050: eaed c105 1406 cdb3 1626 e4dc 8133 2843
00000060: 01f2 6fdd 1952 def2 0ed9 1817 f2e1 dbce
00000070: f5ef 05fa e413 37f2 564f e407 fbe4 f5ee
00000080: 102b 1508 657f 674d a4e8 38cb 1f22 f8ec
00000090: 08b2 3335 1407 16ce c82f eaac d487 bdc8
000000a0: 4f37 bef6 661c befa 38de 510b f4fd 0d7f
000000b0: 27fa b8cb f5e8 e3dc bced f19a 04ef 18f7
000000c0: b427 3a31 e10d fece e6e9 e50d d5f9 cb18
000000d0: f931 240f ec1d d703 d250 00f0 961c 7f47
000000e0: bf37 bf16 deb3 bce6 3b07 46ac f202 23d2
000000f0: 7ff8 eee4 f865 dfb3 130c 4adf 08fd de13
15 10 -28 36 49 33 127 -34
-34 93 -23 88 -13 4 47 10
-9 -23 16 26 -10 -13 -25 6
26 -2 -65 8 57 -13 31 8
43 -16 24 -4 -19 48 50 68
16 -12 -1 20 -33 7 -39 8
-126 3 -42 83 -19 56 16 56
108 52 -46 84 -1 5 22 -17
14 63 -62 53 26 0 18 -34
-8 -24 -6 28 -96 -4 -37 23
-22 -19 -63 5 20 6 -51 -77
22 38 -28 -36 -127 51 40 67
1 -14 111 -35 25 82 -34 -14
14 -39 24 23 -14 -31 -37 -50
-11 -17 5 -6 -28 19 55 -14
86 79 -28 7 -5 -28 -11 -18
16 43 21 8 101 127 103 77
-92 -24 56 -53 31 34 -8 -20
8 -78 51 53 20 7 22 -50
-56 47 -22 -84 -44 -121 -67 -56
79 55 -66 -10 102 28 -66 -6
56 -34 81 11 -12 -3 13 127
39 -6 -72 -53 -11 -24 -29 -36
-68 -19 -15 -102 4 -17 24 -9
-76 39 58 49 -31 13 -2 -50
-26 -23 -27 13 -43 -7 -53 24
-7 49 36 15 -20 29 -41 3
-46 80 0 -16 -106 28 127 71
-65 55 -65 22 -34 -77 -68 -26
59 7 70 -84 -14 2 35 -46
127 -8 -18 -28 -8 101 -33 -77
19 12 74 -33 8 -3 -34 19

model_1/705/Conv2D i1 [48, 1, 1, 144]
00000000: 0a0a 0f0d 2bf6 1507 0cc4 01eb e513 0d4d
00000010: 0707 e525 47ef 0a22 d7a6 1717 f0b9 fe34
00000020: fce6 3304 6037 5838 1318 eef4 18f4 09f6
00000030: e0f4 c42a 2f0c b30c e427 3119 0427 12c5
00000040: 29ef 03db e34e 10fe 27cf e010 4b0d f4bb
00000050: d29b 1fe8 1500 030a f7e1 0ed3 40ff 121f
00000060: 20f2 35db f30f 2d13 e708 0de8 090e 1f0a
00000070: d8d9 dceb b928 e32a bc7f 0c1f 1909 0e0f
00000080: 1421 6805 05f8 de1c 21fe f915 34ea 0e1e
00000090: 4a15 ceef 298d ff17 c0ec 55c3 fadb a72e
000000a0: e70c 0911 284f 98ee 4f02 f104 7014 3fa1
000000b0: 0cfb e312 d72e a804 2fe1 f1a9 0cf6 f9ed
000000c0: c704 3503 f7e5 407f 471c d006 b9d7 eaa2
000000d0: 3874 58dc e1f8 aeeb 2b05 0dd8 f10d 4205
000000e0: bdcb e875 08bd db79 ca07 de03 1185 050e
000000f0: 131e d0f7 d852 3053 283c ede2 9a3f 216a
10 10 15 13 43 -10 21 7
12 -60 1 -21 -27 19 13 77
7 7 -27 37 71 -17 10 34
-41 -90 23 23 -16 -71 -2 52
-4 -26 51 4 96 55 88 56
19 24 -18 -12 24 -12 9 -10
-32 -12 -60 42 47 12 -77 12
-28 39 49 25 4 39 18 -59
41 -17 3 -37 -29 78 16 -2
39 -49 -32 16 75 13 -12 -69
-46 -101 31 -24 21 0 3 10
-9 -31 14 -45 64 -1 18 31
32 -14 53 -37 -13 15 45 19
-25 8 13 -24 9 14 31 10
-40 -39 -36 -21 -71 40 -29 42
-68 127 12 31 25 9 14 15
20 33 104 5 5 -8 -34 28
33 -2 -7 21 52 -22 14 30
74 21 -50 -17 41 -115 -1 23
-64 -20 85 -61 -6 -37 -89 46
-25 12 9 17 40 79 -104 -18
79 2 -15 4 112 20 63 -95
12 -5 -29 18 -41 46 -88 4
47 -31 -15 -87 12 -10 -7 -19
-57 4 53 3 -9 -27 64 127
71 28 -48 6 -71 -41 -22 -94
56 116 88 -36 -31 -8 -82 -21
43 5 13 -40 -15 13 66 5
-67 -53 -24 117 8 -67 -37 121
-54 7 -34 3 17 -123 5 14
19 30 -48 -9 -40 82 48 83
40 60 -19 -30 -102 63 33 106

model_1/702/depthwise i1 [1, 5, 5, 144]
00000000: 26d0 d6fd efea 7608 4ba9 8104 bd28 fd2e
00000010: 34e3 17f1 016c f3f8 ec40 463c fcd4 e15b
00000020: 28e8 2817 5f9e 06da dff6 d0db 0908 9e29
00000030: 14c1 7f07 f41b 51ea 8116 0bed c61b fe35
00000040: d1c6 3f81 0308 19ed 7fc3 4a1d 4ec8 5dc5
00000050: 5e58 ba09 86d8 b3f2 cc2f 1af6 ecfc 2d97
00000060: 130d 1512 bfb4 0efd dd57 a923 fef8 bf0f
00000070: 77e8 d4a5 c905 faf5 e2fc 4b11 003f cc81
00000080: 64d5 dceb 97b8 24f2 17f7 e339 132d 3ce8
00000090: 84cd 7f7f 0902 62e8 eb00 0b5e 30b2 f9d6
000000a0: 40ee 12eb b812 81da e0f2 d1db 4df8 8d08
000000b0: 2e14 4841 31f0 c1bc d191 0698 d481 3ff2
000000c0: b89c 0a41 0f7f 5d81 3e00 42f0 55e7 606a
000000d0: 0d62 bdf1 3e1a 0ba1 d90c 1334 f5e1 4d1e
000000e0: 6906 7f0e b9d6 e60c 14eb 4e7e d27a d628
000000f0: 813a 2258 e417 0af9 e93f 25b8 e3ec 0413
38 -48 -42 -3 -17 -22 118 8
75 -87 -127 4 -67 40 -3 46
52 -29 23 -15 1 108 -13 -8
-20 64 70 60 -4 -44 -31 91
40 -24 40 23 95 -98 6 -38
-33 -10 -48 -37 9 8 -98 41
20 -63 127 7 -12 27 81 -22
-127 22 11 -19 -58 27 -2 53
-47 -58 63 -127 3 8 25 -19
127 -61 74 29 78 -56 93 -59
94 88 -70 9 -122 -40 -77 -14
-52 47 26 -10 -20 -4 45 -105
19 13 21 18 -65 -76 14 -3
-35 87 -87 35 -2 -8 -65 15
119 -24 -44 -91 -55 5 -6 -11
-30 -4 75 17 0 63 -52 -127
100 -43 -36 -21 -105 -72 36 -14
23 -9 -29 57 19 45 60 -24
-124 -51 127 127 9 2 98 -24
-21 0 11 94 48 -78 -7 -42
64 -18 18 -21 -72 18 -127 -38
-32 -14 -47 -37 77 -8 -115 8
46 20 72 65 49 -16 -63 -68
-47 -111 6 -104 -44 -127 63 -14
-72 -100 10 65 15 127 93 -127
62 0 66 -16 85 -25 96 106
13 98 -67 -15 62 26 11 -95
-39 12 19 52 -11 -31 77 30
105 6 127 14 -71 -42 -26 12
20 -21 78 126 -46 122 -42 40
-127 58 34 88 -28 23 10 -7
-23 63 37 -72 -29 -20 4 19

model_1/699/Conv2D i1 [144, 1, 1, 48]
00000000: 3103 1810 0c19 e624 b7e6 09d4 28e1 58a8
00000010: f8fa 11e1 cebb 3729 b7b1 31e4 23eb 0718
00000020: 8111 d2c1 053a 2eaf fdf3 2211 1cf4 0629
00000030: 5a34 6b17 0ada 4634 061c 0b25 f2c6 d00c
00000040: 07d7 49f7 cc22 261e ef08 45a3 32d2 4238
00000050: 2b51 33df dc29 2c20 fafa 811d d346 0deb
00000060: d210 11e3 196b 9847 e037 3f39 b1e0 1a52
00000070: eff3 20e2 6243 a3e7 3ef2 2ac8 34c5 06e3
00000080: 9749 1aca ff51 ea32 1805 f338 5581 1ef5
00000090: 4cfd 330d bdfe e114 27df 25e6 0d1d 4139
000000a0: fc23 e7f0 e725 e5fb d2ed 0a2c e8fa 07ed
000000b0: dd81 10d0 2ff1 22dc 9aee ecfc e8ee fcf9
000000c0: 0d30 da4c 53a8 2b41 e944 ec65 2bf4 efc0
000000d0: c11e d30c dc09 2044 26da d4bf 6bb8 e82a
000000e0: 48e6 8139 d802 2cfe 3e09 dad9 ef7a 0024
000000f0: cc9e 267f dfcf 15c6 dab8 3030 140c 2e0e
49 3 24 16 12 25 -26 36
-73 -26 9 -44 40 -31 88 -88
-8 -6 17 -31 -50 -69 55 41
-73 -79 49 -28 35 -21 7 24
-127 17 -46 -63 5 58 46 -81
-3 -13 34 17 28 -12 6 41
90 52 107 23 10 -38 70 52
6 28 11 37 -14 -58 -48 12
7 -41 73 -9 -52 34 38 30
-17 8 69 -93 50 -46 66 56
43 81 51 -33 -36 41 44 32
-6 -6 -127 29 -45 70 13 -21
-46 16 17 -29 25 107 -104 71
-32 55 63 57 -79 -32 26 82
-17 -13 32 -30 98 67 -93 -25
62 -14 42 -56 52 -59 6 -29
-105 73 26 -54 -1 81 -22 50
24 5 -13 56 85 -127 30 -11
76 -3 51 13 -67 -2 -31 20
39 -33 37 -26 13 29 65 57
-4 35 -25 -16 -25 37 -27 -5
-46 -19 10 44 -24 -6 7 -19
-35 -127 16 -48 47 -15 34 -36
-102 -18 -20 -4 -24 -18 -4 -7
13 48 -38 76 83 -88 43 65
-23 68 -20 101 43 -12 -17 -64
-63 30 -45 12 -36 9 32 68
38 -38 -44 -65 107 -72 -24 42
72 -26 -127 57 -40 2 44 -2
62 9 -38 -39 -17 122 0 36
-52 -98 38 127 -33 -49 21 -58
-38 -72 48 48 20 12 46 14

model_1/696/Conv2D i1 [48, 1, 1, 48]
00000000: 462d e8b8 9bf6 090f ef41 ac22 e33f b3fd
00000010: 4d0f e74e 07d6 92b7 1bb4 5049 d712 29ca
00000020: 88e1 3243 7f98 efdb 7434 05cc 30f5 56c9
00000030: fe22 9752 181c 2a15 2a14 31aa 3924 a801
00000040: 22b9 1e0d 0ff6 21f6 dca7 0ff7 a1de ee7f
00000050: 02df ec57 89c1 e7ce 2941 9009 5954 0fe4
00000060: e3fe dac4 efc4 e9de 10e0 4833 01fa edf0
00000070: e1e6 af03 fcdf 1207 f77f 30fb d62e b040
00000080: d137 b501 1ff0 e4e3 df0a f0fa 01d8 060b
00000090: 1d56 175a c60f db7f 002e e2f1 bd44 0641
000000a0: aabd 12a2 33f0 160f 1a23 2100 c041 e833
000000b0: 39c7 ede3 020b 1902 3f24 42ce bb0d 1217
000000c0: ccde db06 dd2d 0e40 ece0 fa0c 2628 02e3
000000d0: c6df 3c06 ef14 de1b df1c 13d9 0414 1481
000000e0: 14c7 10d0 2ab9 d2f7 aa13 f728 b9b1 df2c
000000f0: d519 faef d21b ee01 19d9 d9e4 c34e d929
70 45 -24 -72 -101 -10 9 15
-17 65 -84 34 -29 63 -77 -3
77 15 -25 78 7 -42 -110 -73
27 -76 80 73 -41 18 41 -54
-120 -31 50 67 127 -104 -17 -37
116 52 5 -52 48 -11 86 -55
-2 34 -105 82 24 28 42 21
42 20 49 -86 57 36 -88 1
34 -71 30 13 15 -10 33 -10
-36 -89 15 -9 -95 -34 -18 127
2 -33 -20 87 -119 -63 -25 -50
41 65 -112 9 89 84 15 -28
-29 -2 -38 -60 -17 -60 -23 -34
16 -32 72 51 1 -6 -19 -16
-31 -26 -81 3 -4 -33 18 7
-9 127 48 -5 -42 46 -80 64
-47 55 -75 1 31 -16 -28 -29
-33 10 -16 -6 1 -40 6 11
29 86 23 90 -58 15 -37 127
0 46 -30 -15 -67 68 6 65
-86 -67 18 -94 51 -16 22 15
26 35 33 0 -64 65 -24 51
57 -57 -19 -29 2 11 25 2
63 36 66 -50 -69 13 18 23
-52 -34 -37 6 -35 45 14 64
-20 -32 -6 12 38 40 2 -29
-58 -33 60 6 -17 20 -34 27
-33 28 19 -39 4 20 20 -127
20 -57 16 -48 42 -71 -46 -9
-86 19 -9 40 -71 -79 -33 44
-43 25 -6 -17 -46 27 -18 1
25 -39 -39 -28 -61 78 -39 41

model_1/693/depthwise i1 [1, 5, 5, 48]
00000000: 0141 4e60 c2a8 16b5 8151 e0c6 16e4 c12a
00000010: 24ea 50ef d509 fc34 0581 ed3e 82c6 dc2a
00000020: 0dea b215 5f81 a4ec d67f 252f 3236 643b
00000030: f19c b916 e498 ff27 1d7f e3ac bd44 164f
00000040: e0e9 d43e f3eb 170c bbfc 43ec 38f6 f9d4
00000050: f3f9 c222 ded2 9b0c 5714 0c81 daec fac6
00000060: 58a4 2265 97c0 2208 b30c fbf1 3cee 37ea
00000070: 817f 868b cee1 e761 1623 6ab4 3ce2 0bf3
00000080: 0cd3 e837 2bb4 1a15 f5ee 0f52 41d7 23b5
00000090: 401b 2b81 7f6c 4ae8 faee c8f6 57ea 42fe
000000a0: 0edd 2bd4 d608 7f1f c129 c578 81b5 ffc7
000000b0: 8139 4320 3b03 b4e2 daa0 f209 f243 04e7
000000c0: c846 b31b 09fb e2fd cc02 b4d1 cd7b 5ff0
000000d0: 1c2f ed53 396f 0562 cce7 d9d2 b8f0 7cee
000000e0: 033a 1595 3f3f b505 1db7 0cf6 ec73 0d5f
000000f0: ee7b 321f 35b2 220a fae2 3d14 26e4 3327
1 65 78 96 -62 -88 22 -75
-127 81 -32 -58 22 -28 -63 42
36 -22 80 -17 -43 9 -4 52
5 -127 -19 62 -126 -58 -36 42
13 -22 -78 21 95 -127 -92 -20
-42 127 37 47 50 54 100 59
-15 -100 -71 22 -28 -104 -1 39
29 127 -29 -84 -67 68 22 79
-32 -23 -44 62 -13 -21 23 12
-69 -4 67 -20 56 -10 -7 -44
-13 -7 -62 34 -34 -46 -101 12
87 20 12 -127 -38 -20 -6 -58
88 -92 34 101 -105 -64 34 8
-77 12 -5 -15 60 -18 55 -22
-127 127 -122 -117 -50 -31 -25 97
22 35 106 -76 60 -30 11 -13
12 -45 -24 55 43 -76 26 21
-11 -18 15 82 65 -41 35 -75
64 27 43 -127 127 108 74 -24
-6 -18 -56 -10 87 -22 66 -2
14 -35 43 -44 -42 8 127 31
-63 41 -59 120 -127 -75 -1 -57
-127 57 67 32 59 3 -76 -30
-38 -96 -14 9 -14 67 4 -25
-56 70 -77 27 9 -5 -30 -3
-52 2 -76 -47 -51 123 95 -16
28 47 -19 83 57 111 5 98
-52 -25 -39 -46 -72 -16 124 -18
3 58 21 -107 63 63 -75 5
29 -73 12 -10 -20 115 13 95
-18 123 50 31 53 -78 34 10
-6 -30 61 20 38 -28 51 39

model_1/690/Conv2D i1 [48, 1, 1, 48]
00000000: d92b 1a54 7eeb 3fdb fe12 c614 ff29 fe9c
00000010: bd08 35e0 da11 f1d5 7cf9 baa3 e6ee b3e4
00000020: 001b 20da 9107 04fc 7f0c fe13 16fd 4903
00000030: 3209 1a37 36f7 0bc4 f050 0b40 aadb 7f2b
00000040: cd13 f2ab 1bc6 18f8 d602 2100 21f1 0ec2
00000050: f318 f413 19d7 dca8 0427 dd11 09d9 1d03
00000060: 3e2d 297a d1e2 d43d c89d 48ee 122a e940
00000070: 19b6 ea0e 1c81 4df2 40fc 2361 5939 1234
00000080: b7c2 1533 3543 f8ed dbec f8ee 41e9 1ed9
00000090: d708 0322 13a9 e6b5 df97 22b7 e2f4 fded
000000a0: f1d3 0e8e 370f 45d0 1bf3 bcd1 d3ee a1ad
000000b0: ca25 810b 1e19 05f1 ed1c f312 f026 ca2f
000000c0: f50e f23c ff13 46f4 aaff 81d3 f5e9 ea2e
000000d0: e1d2 cd2d fde1 faf1 f102 0875 2216 e553
000000e0: 28ea e90e 0cb1 c5d2 d0d9 3a6e 0569 3e1c
000000f0: 3605 3569 29a5 98c8 211d 17d5 0e00 456c
-39 43 26 84 126 -21 63 -37
-2 18 -58 20 -1 41 -2 -100
-67 8 53 -32 -38 17 -15 -43
124 -7 -70 -93 -26 -18 -77 -28
0 27 32 -38 -111 7 4 -4
127 12 -2 19 22 -3 73 3
50 9 26 55 54 -9 11 -60
-16 80 11 64 -86 -37 127 43
-51 19 -14 -85 27 -58 24 -8
-42 2 33 0 33 -15 14 -62
-13 24 -12 19 25 -41 -36 -88
4 39 -35 17 9 -39 29 3
62 45 41 122 -47 -30 -44 61
-56 -99 72 -18 18 42 -23 64
25 -74 -22 14 28 -127 77 -14
64 -4 35 97 89 57 18 52
-73 -62 21 51 53 67 -8 -19
-37 -20 -8 -18 65 -23 30 -39
-41 8 3 34 19 -87 -26 -75
-33 -105 34 -73 -30 -12 -3 -19
-15 -45 14 -114 55 15 69 -48
27 -13 -68 -47 -45 -18 -95 -83
-54 37 -127 11 30 25 5 -15
-19 28 -13 18 -16 38 -54 47
-11 14 -14 60 -1 19 70 -12
-86 -1 -127 -45 -11 -23 -22 46
-31 -46 -51 45 -3 -31 -6 -15
-15 2 8 117 34 22 -27 83
40 -22 -23 14 12 -79 -59 -46
-48 -39 58 110 5 105 62 28
54 5 53 105 41 -91 -104 -56
33 29 23 -43 14 0 69 108

model_1/687/depthwise i1 [1, 3, 3, 48]
00000000: 27ed 7fa9 bb98 e2e5 671a e5e3 be81 099c
00000010: 714a 0cc2 a822 3a43 814e 0c03 d430 180b
00000020: 02ed 7f81 12c8 c496 f73e c67f d216 3805
00000030: b900 5d81 7f30 290b e62c e60f d2c4 f052
00000040: c960 4ac5 903b c829 d23a eeb0 eb81 94ba
00000050: cdc5 9d9a 5452 28e6 d6d0 03d2 c46e 0796
00000060: ce81 ff49 6d1c cc3d bbcc f681 f504 387f
00000070: 51cb 06d5 95d6 9f23 1a7f b41b a0ed f0f4
00000080: b3ec 6778 6781 d5f3 7fda 9e05 54ba 0a81
00000090: ecf3 e49a 47fc 09f4 b836 91d4 ba0f df14
000000a0: 7f28 8146 eb7f ff35 eea1 63c1 6e3f 07eb
000000b0: 1018 3b14 fa9c eae2 2781 a6e1 432d e518
000000c0: e4e3 f6fd ba26 da26 7f7f 33b7 d5ef 7fd3
000000d0: e074 c681 4c45 e427 f91f 2f7f 7ffd 3081
000000e0: d4d4 d02d c1c0 81f6 b9f1 53c5 e315 b0e3
000000f0: 7fa3 e528 815f eb7f c496 c7fd bf32 2b21
39 -19 127 -87 -69 -104 -30 -27
103 26 -27 -29 -66 -127 9 -100
113 74 12 -62 -88 34 58 67
-127 78 12 3 -44 48 24 11
2 -19 127 -127 18 -56 -60 -106
-9 62 -58 127 -46 22 56 5
-71 0 93 -127 127 48 41 11
-26 44 -26 15 -46 -60 -16 82
-55 96 74 -59 -112 59 -56 41
-46 58 -18 -80 -21 -127 -108 -70
-51 -59 -99 -102 84 82 40 -26
-42 -48 3 -46 -60 110 7 -106
-50 -127 -1 73 109 28 -52 61
-69 -52 -10 -127 -11 4 56 127
81 -53 6 -43 -107 -42 -97 35
26 127 -76 27 -96 -19 -16 -12
-77 -20 103 120 103 -127 -43 -13
127 -38 -98 5 84 -70 10 -127
-20 -13 -28 -102 71 -4 9 -12
-72 54 -111 -44 -70 15 -33 20
127 40 -127 70 -21 127 -1 53
-18 -95 99 -63 110 63 7 -21
16 24 59 20 -6 -100 -22 -30
39 -127 -90 -31 67 45 -27 24
-28 -29 -10 -3 -70 38 -38 38
127 127 51 -73 -43 -17 127 -45
-32 116 -58 -127 76 69 -28 39
-7 31 47 127 127 -3 48 -127
-44 -44 -48 45 -63 -64 -127 -10
-71 -15 83 -59 -29 21 -80 -29
127 -93 -27 40 -127 95 -21 127
-60 -106 -57 -3 -65 50 43 33

model_1/684/Conv2D i1 [48, 1, 1, 192]
00000000: 086b e1ef 273d e3f0 0319 c658 22ec dfd0
00000010: 0c52 debd 323d 1a37 d723 2e57 1435 f2ef
00000020: d50c e001 21ea d9fc f806 2a2f 4bef 2312
00000030: f526 f73f 11e6 0aec 0427 cfe5 ecdd d3e2
00000040: d6e5 1214 e3f7 f0e6 ad1b 4bd8 f719 f007
00000050: 5117 0ef5 1bda 12ea d201 d635 1527 1d33
00000060: 5ee0 12c0 a3f8 df18 dccb 0fc5 0ef5 ec0e
00000070: 160c e3a1 fd20 ecf3 fa3a 6031 f401 812a
00000080: 272a 0dfe dff3 2b0a e604 03e9 ede0 b808
00000090: 101f ccec 1218 f3f7 2d3f b7b4 d9d7 2bf2
000000a0: 38ba 4429 3e0c c205 cff1 34c4 091b fde0
000000b0: 04e1 18cc 17ea 12ff 27fd 1bda dce1 1fe8
000000c0: d539 16b3 fb3f 63f6 021f ec12 b3c5 16f7
000000d0: 9aff d6b3 2fe7 b4e1 b408 bc24 34d9 95fd
000000e0: f91b fbe5 2817 2ebd 52e1 25b5 1111 4500
000000f0: 253e 2bb9 f55e f619 d3e6 1aee fc1b 1af1
8 107 -31 -17 39 61 -29 -16
3 25 -58 88 34 -20 -33 -48
12 82 -34 -67 50 61 26 55
-41 35 46 87 20 53 -14 -17
-43 12 -32 1 33 -22 -39 -4
-8 6 42 47 75 -17 35 18
-11 38 -9 63 17 -26 10 -20
4 39 -49 -27 -20 -35 -45 -30
-42 -27 18 20 -29 -9 -16 -26
-83 27 75 -40 -9 25 -16 7
81 23 14 -11 27 -38 18 -22
-46 1 -42 53 21 39 29 51
94 -32 18 -64 -93 -8 -33 24
-36 -53 15 -59 14 -11 -20 14
22 12 -29 -95 -3 32 -20 -13
-6 58 96 49 -12 1 -127 42
39 42 13 -2 -33 -13 43 10
-26 4 3 -23 -19 -32 -72 8
16 31 -52 -20 18 24 -13 -9
45 63 -73 -76 -39 -41 43 -14
56 -70 68 41 62 12 -62 5
-49 -15 52 -60 9 27 -3 -32
4 -31 24 -52 23 -22 18 -1
39 -3 27 -38 -36 -31 31 -24
-43 57 22 -77 -5 63 99 -10
2 31 -20 18 -77 -59 22 -9
-102 -1 -42 -77 47 -25 -76 -31
-76 8 -68 36 52 -39 -107 -3
-7 27 -5 -27 40 23 46 -67
82 -31 37 -75 17 17 69 0
37 62 43 -71 -11 94 -10 25
-45 -26 26 -18 -4 27 26 -15

model_1/681/depthwise i1 [1, 5, 5, 192]
00000000: 0bfe 3dd0 87f4 de70 4e5a f260 9bdc 1e3f
00000010: e5ea fbc8 c9c3 bff9 f789 3fbb 31fa 67f0
00000020: 40f4 d026 00ca 3721 b8f1 820c e4c9 3c25
00000030: 7f1f dcde c6c8 f72d bfb4 1b02 eaee 6610
00000040: 52df fd12 12e1 15d5 4f43 d6c3 0cf8 ffbe
00000050: 68a7 1336 2c3a e1ea 36f5 10d6 81ea 133c
00000060: c15f d9fa 0d2b 0412 640b 32af 33bc a8df
00000070: 1400 f1f1 15fe e615 2339 3fa3 f540 0ddc
00000080: 23bd 3cf3 3a00 a1ee 3e13 d7b2 182c fcf8
00000090: dfc7 08fb 33e7 aa6a eaf3 08f7 c1d0 f624
000000a0: ac1b b6f7 7fc6 caea f0f5 b810 1fee e4e1
000000b0: 1411 0f7d fbad aafe e91f 0ef9 7fd0 06b2
000000c0: 7fd2 2fff b6cd 1e9b 2efa e308 e331 29ec
000000d0: dae5 1a1a e533 cd2b 1160 1ace bc1c aeeb
000000e0: 66a0 c956 81da c4fa d12d ee1a e806 ccca
000000f0: 47ef f743 2723 b7f6 fef5 1506 20d9 b6d0
11 -2 61 -48 -121 -12 -34 112
78 90 -14 96 -101 -36 30 63
-27 -22 -5 -56 -55 -61 -65 -7
-9 -119 63 -69 49 -6 103 -16
64 -12 -48 38 0 -54 55 33
-72 -15 -126 12 -28 -55 60 37
127 31 -36 -34 -58 -56 -9 45
-65 -76 27 2 -22 -18 102 16
82 -33 -3 18 18 -31 21 -43
79 67 -42 -61 12 -8 -1 -66
104 -89 19 54 44 58 -31 -22
54 -11 16 -42 -127 -22 19 60
-63 95 -39 -6 13 43 4 18
100 11 50 -81 51 -68 -88 -33
20 0 -15 -15 21 -2 -26 21
35 57 63 -93 -11 64 13 -36
35 -67 60 -13 58 0 -95 -18
62 19 -41 -78 24 44 -4 -8
-33 -57 8 -5 51 -25 -86 106
-22 -13 8 -9 -63 -48 -10 36
-84 27 -74 -9 127 -58 -54 -22
-16 -11 -72 16 31 -18 -28 -31
20 17 15 125 -5 -83 -86 -2
-23 31 14 -7 127 -48 6 -78
127 -46 47 -1 -74 -51 30 -101
46 -6 -29 8 -29 49 41 -20
-38 -27 26 26 -27 51 -51 43
17 96 26 -50 -68 28 -82 -21
102 -96 -55 86 -127 -38 -60 -6
-47 45 -18 26 -24 6 -52 -54
71 -17 -9 67 39 35 -73 -10
-2 -11 21 6 32 -39 -74 -48

model_1/678/Conv2D i1 [192, 1, 1, 32]
00000000: 131a 1dea 29de 28f5 c020 f7e2 ea04 3114
00000010: effa f5f0 4c41 08ab 0dca aa81 f610 2cda
00000020: 1ce2 2f03 2610 08f1 1b0c a3dc f804 f3fb
00000030: 1d20 cd0b 10ef 57b5 b3e2 f17f f4d2 e0e7
00000040: 2639 f111 1c11 3afe fc3a 05fc 161c 3d02
00000050: f3e9 097f 06f4 feee e716 33d1 d9d0 dd43
00000060: e0f8 0b20 5fc5 c971 f52e bba2 22c5 1936
00000070: 11d5 06f0 ef15 f835 ac7f e5f7 13ec 22da
00000080: 3c01 083e ffa8 f3d2 f133 dbea e959 9e81
00000090: dfe8 0305 0f30 f00c f3f8 3bb2 1c07 e3f1
000000a0: ae46 22d2 ecde 3cd9 df3f d98d 047f 332a
000000b0: fabe 04c9 cd52 0dcf 2b37 17ed c0e0 ea2c
000000c0: c01c 2303 5428 c0e9 3d5d 2da5 2777 d91d
000000d0: b521 e241 da20 f1d8 e0e9 f817 e30d 81b9
000000e0: de2e 3014 e5e7 e230 0ae4 0526 e5f6 fb2d
000000f0: f913 55f8 3c1a 1881 fe24 cff5 b62f f5df
19 26 29 -22 41 -34 40 -11
-64 32 -9 -30 -22 4 49 20
-17 -6 -11 -16 76 65 8 -85
13 -54 -86 -127 -10 16 44 -38
28 -30 47 3 38 16 8 -15
27 12 -93 -36 -8 4 -13 -5
29 32 -51 11 16 -17 87 -75
-77 -30 -15 127 -12 -46 -32 -25
38 57 -15 17 28 17 58 -2
-4 58 5 -4 22 28 61 2
-13 -23 9 127 6 -12 -2 -18
-25 22 51 -47 -39 -48 -35 67
-32 -8 11 32 95 -59 -55 113
-11 46 -69 -94 34 -59 25 54
17 -43 6 -16 -17 21 -8 53
-84 127 -27 -9 19 -20 34 -38
60 1 8 62 -1 -88 -13 -46
-15 51 -37 -22 -23 89 -98 -127
-33 -24 3 5 15 48 -16 12
-13 -8 59 -78 28 7 -29 -15
-82 70 34 -46 -20 -34 60 -39
-33 63 -39 -115 4 127 51 42
-6 -66 4 -55 -51 82 13 -49
43 55 23 -19 -64 -32 -22 44
-64 28 35 3 84 40 -64 -23
61 93 45 -91 39 119 -39 29
-75 33 -30 65 -38 32 -15 -40
-32 -23 -8 23 -29 13 -127 -71
-34 46 48 20 -27 -25 -30 48
10 -28 5 38 -27 -10 -5 45
-7 19 85 -8 60 26 24 -127
-2 36 -49 -11 -74 47 -11 -33

model_1/675/Conv2D i1 [32, 1, 1, 96]
00000000: ef03 202a d91b e40f 2620 1c09 9029 6720
00000010: 1ecd ae04 15e8 fcd9 e124 07fb 209f 23d6
00000020: 49d9 c001 c0de e0e0 f84c ccff fcea 1703
00000030: 1702 c256 0f25 fa3b 0bd3 db32 cee3 05ef
00000040: 81e4 1000 b9fe 4ff2 0cfd efb4 d1cc 770c
00000050: 2b5c e540 c8bf 26d8 f4c0 c403 8536 0182
00000060: 07c9 1d0c b656 1d14 3c95 4a33 ca01 f00d
00000070: d80d ce00 095d 45b3 392d a4a7 8168 f6ea
00000080: e8b2 c7af 07ca 18c9 fabf 9709 2f02 1e30
00000090: 05f6 0d0d 0c23 cedf 3341 291a f9e2 f74f
000000a0: 3321 36e8 0aea 8c63 0507 ea00 47ae 3a12
000000b0: 04c0 e723 10d6 0498 cd07 0910 e831 b2eb
000000c0: da44 c127 1cdc 29fe 98eb 0e81 ad01 0902
000000d0: 1c1e e32d d9fe e0d6 1aef ff0c 9614 6af7
000000e0: 600f 11ea 21fd 1714 06f1 163f 9bea 48e7
000000f0: 1750 eff1 2797 d211 d778 0d00 28e1 fca7
-17 3 32 42 -39 27 -28 15
38 32 28 9 -112 41 103 32
30 -51 -82 4 21 -24 -4 -39
-31 36 7 -5 32 -97 35 -42
73 -39 -64 1 -64 -34 -32 -32
-8 76 -52 -1 -4 -22 23 3
23 2 -62 86 15 37 -6 59
11 -45 -37 50 -50 -29 5 -17
-127 -28 16 0 -71 -2 79 -14
12 -3 -17 -76 -47 -52 119 12
43 92 -27 64 -56 -65 38 -40
-12 -64 -60 3 -123 54 1 -126
7 -55 29 12 -74 86 29 20
60 -107 74 51 -54 1 -16 13
-40 13 -50 0 9 93 69 -77
57 45 -92 -89 -127 104 -10 -22
-24 -78 -57 -81 7 -54 24 -55
-6 -65 -105 9 47 2 30 48
5 -10 13 13 12 35 -50 -33
51 65 41 26 -7 -30 -9 79
51 33 54 -24 10 -22 -116 99
5 7 -22 0 71 -82 58 18
4 -64 -25 35 16 -42 4 -104
-51 7 9 16 -24 49 -78 -21
-38 68 -63 39 28 -36 41 -2
-104 -21 14 -127 -83 1 9 2
28 30 -29 45 -39 -2 -32 -42
26 -17 -1 12 -106 20 106 -9
96 15 17 -22 33 -3 23 20
6 -15 22 63 -101 -22 72 -25
23 80 -17 -15 39 -105 -46 17
-41 120 13 0 40 -31 -4 -89

model_1/672/depthwise i1 [1, 5, 5, 96]
00000000: 6bfa ea14 370c 3c1e e81f 0efe e60d 67ef
00000010: 3516 5fd1 663b 4744 12d2 4d10 46e8 7f16
00000020: d4c5 e981 bf59 a689 2b11 4fd4 2916 10f5
00000030: 2751 e4d4 5918 b010 dcd2 d6d5 3ee9 ec7f
00000040: ea81 d9fb 6bf6 2ef9 36de a3e1 f4a7 edf1
00000050: fd21 c71c e5fe 313b d2cc 03fc 11e4 1be9
00000060: 5219 5800 e7a7 a223 300d fbe8 f41c 532a
00000070: d5d7 f3b4 dc1a beb3 1103 26e4 b6f3 65f0
00000080: 3cc8 6025 6fe2 5dcf fdf7 7f19 3af7 9d31
00000090: af4b 3906 2a67 9c04 00f7 e363 b31c 9912
000000a0: d263 15fb c6f2 17c4 e2e3 b228 f287 f581
000000b0: 0dfe dd08 d713 df3d fa1e 0fcc e387 f5f6
000000c0: c741 8f2e 9627 1a08 0e42 a7d6 2fc1 de10
000000d0: ed3e f64c ccc2 ef06 5cee 5958 f1ba 0732
000000e0: c40b 4393 c4c1 3c04 37d7 3fea 2bff c396
000000f0: 624d 7f27 b108 f2cf fcee ab0d e501 56fc
107 -6 -22 20 55 12 60 30
-24 31 14 -2 -26 13 103 -17
53 22 95 -47 102 59 71 68
18 -46 77 16 70 -24 127 22
-44 -59 -23 -127 -65 89 -90 -119
43 17 79 -44 41 22 16 -11
39 81 -28 -44 89 24 -80 16
-36 -46 -42 -43 62 -23 -20 127
-22 -127 -39 -5 107 -10 46 -7
54 -34 -93 -31 -12 -89 -19 -15
-3 33 -57 28 -27 -2 49 59
-46 -52 3 -4 17 -28 27 -23
82 25 88 0 -25 -89 -94 35
48 13 -5 -24 -12 28 83 42
-43 -41 -13 -76 -36 26 -66 -77
17 3 38 -28 -74 -13 101 -16
60 -56 96 37 111 -30 93 -49
-3 -9 127 25 58 -9 -99 49
-81 75 57 6 42 103 -100 4
0 -9 -29 99 -77 28 -103 18
-46 99 21 -5 -58 -14 23 -60
-30 -29 -78 40 -14 -121 -11 -127
13 -2 -35 8 -41 19 -33 61
-6 30 15 -52 -29 -121 -11 -10
-57 65 -113 46 -106 39 26 8
14 66 -89 -42 47 -63 -34 16
-19 62 -10 76 -52 -62 -17 6
92 -18 89 88 -15 -70 7 50
-60 11 67 -109 -60 -63 60 4
55 -41 63 -22 43 -1 -61 -106
98 77 127 39 -79 8 -14 -49
-4 -18 -85 13 -27 1 86 -4

model_1/669/Conv2D i1 [96, 1, 1, 32]
00000000: 1721 0105 294d daee f6d6 5bbb ec09 e3dc
00000010: 721d 7f14 12b3 00fd 7525 fe0d 0e0a 5213
00000020: 0cf6 0fe3 be68 cef5 2c16 c81c 076f d943
00000030: 4fe2 1236 f2e4 dd10 ac7f 385a 1ec2 ba19
00000040: c4d4 0016 1af0 12bf 1529 239a f6b7 2a7f
00000050: fd49 a636 141d d6e8 45f3 bc4f c4fc 17f1
00000060: 092d eb00 810a a4d2 d09c 1861 b5cf acdd
00000070: bc13 0f06 dbeb ce17 0269 dba7 e911 fedd
00000080: 3f4e 1ba3 03b2 1ae4 a210 59e4 238d bc24
00000090: 8143 ddb6 f0f4 4fa6 0bdf 73ac 0958 b204
000000a0: 0314 6ae6 fc2d 42ec 044b f1a3 d930 d621
000000b0: e8eb d2d8 0b1a c1f7 da08 e93a cd81 f4ef
000000c0: 26fb 48c0 3f81 d207 312a 8b8e 18c7 3712
000000d0: a74d ee9e 2865 ba22 a524 53f5 ee03 9015
000000e0: 4e02 f805 0428 081b 1d17 1fee 01fe 0205
000000f0: c410 f80a 1ada 2e4a e8d4 7fd9 1efd 120c
23 33 1 5 41 77 -38 -18
-10 -42 91 -69 -20 9 -29 -36
114 29 127 20 18 -77 0 -3
117 37 -2 13 14 10 82 19
12 -10 15 -29 -66 104 -50 -11
44 22 -56 28 7 111 -39 67
79 -30 18 54 -14 -28 -35 16
-84 127 56 90 30 -62 -70 25
-60 -44 0 22 26 -16 18 -65
21 41 35 -102 -10 -73 42 127
-3 73 -90 54 20 29 -42 -24
69 -13 -68 79 -60 -4 23 -15
9 45 -21 0 -127 10 -92 -46
-48 -100 24 97 -75 -49 -84 -35
-68 19 15 6 -37 -21 -50 23
2 105 -37 -89 -23 17 -2 -35
63 78 27 -93 3 -78 26 -28
-94 16 89 -28 35 -115 -68 36
-127 67 -35 -74 -16 -12 79 -90
11 -33 115 -84 9 88 -78 4
3 20 106 -26 -4 45 66 -20
4 75 -15 -93 -39 48 -42 33
-24 -21 -46 -40 11 26 -63 -9
-38 8 -23 58 -51 -127 -12 -17
38 -5 72 -64 63 -127 -46 7
49 42 -117 -114 24 -57 55 18
-89 77 -18 -98 40 101 -70 34
-91 36 83 -11 -18 3 -112 21
78 2 -8 5 4 40 8 27
29 23 31 -18 1 -2 2 5
-60 16 -8 10 26 -38 46 74
-24 -44 127 -39 30 -3 18 12

model_1/666/Conv2D i1 [32, 1, 1, 192]
00000000: 2af1 33f5 ee3d df4d d616 faec 30e5 e52b
00000010: 6315 bf41 d810 d1cd 18f4 2439 ea01 13e1
00000020: f515 391f 2732 4e2d f220 3c0c 1512 3933
00000030: 2416 13d9 d70a 25f9 fbfd 1436 1701 23e3
00000040: 291f c944 c5ea 08d8 1e73 df11 a3f9 eaed
00000050: cef6 04e3 1ef2 de7f bf0d f4ee ebf0 0503
00000060: 213a 0119 0115 04ed facd e809 d2f5 d224
00000070: db51 db2d 272d c8ed ced5 3810 0514 0de7
00000080: 2fed f62e 162c 042a 1111 f517 0224 24c7
00000090: f9d3 c5af 02d2 2f9b da2e 1c35 e85b 2f15
000000a0: f927 10e2 34cf 012a d506 f3af df03 24c3
000000b0: f1ab 0a07 ed2d d801 0c1b ebcb efd5 fa02
000000c0: 9b3a 50fc a464 4ebc 02f4 1d5c fa71 cc3c
000000d0: 1ae0 07dc e5ff 1ff1 d618 f1fa 07d9 0c0a
000000e0: 3d77 20c3 dd13 dc2d 23d2 bff0 44fa eae9
000000f0: 38a5 3abc 0d3f eded f27f 7e3f 01f0 553c
42 -15 51 -11 -18 61 -33 77
-42 22 -6 -20 48 -27 -27 43
99 21 -65 65 -40 16 -47 -51
24 -12 36 57 -22 1 19 -31
-11 21 57 31 39 50 78 45
-14 32 60 12 21 18 57 51
36 22 19 -39 -41 10 37 -7
-5 -3 20 54 23 1 35 -29
41 31 -55 68 -59 -22 8 -40
30 115 -33 17 -93 -7 -22 -19
-50 -10 4 -29 30 -14 -34 127
-65 13 -12 -18 -21 -16 5 3
33 58 1 25 1 21 4 -19
-6 -51 -24 9 -46 -11 -46 36
-37 81 -37 45 39 45 -56 -19
-50 -43 56 16 5 20 13 -25
47 -19 -10 46 22 44 4 42
17 17 -11 23 2 36 36 -57
-7 -45 -59 -81 2 -46 47 -101
-38 46 28 53 -24 91 47 21
-7 39 16 -30 52 -49 1 42
-43 6 -13 -81 -33 3 36 -61
-15 -85 10 7 -19 45 -40 1
12 27 -21 -53 -17 -43 -6 2
-101 58 80 -4 -92 100 78 -68
2 -12 29 92 -6 113 -52 60
26 -32 7 -36 -27 -1 31 -15
-42 24 -15 -6 7 -39 12 10
61 119 32 -61 -35 19 -36 45
35 -46 -65 -16 68 -6 -22 -23
56 -91 58 -68 13 63 -19 -19
-14 127 126 63 1 -16 85 60
