fb_r144(1).tflite (tflite, 823832 bytes, 58 tensors)

model_1/750/Conv2D i1 [896, 1, 1, 160]
57 -115 -37 68 12 74 -11 -1
-76 -5 31 45 -124 -14 -30 -15
8 27 -22 112 -48 -60 -77 -18
-37 25 -20 -42 22 -33 84 84
-93 -46 70 -43 78 6 20 -42
-10 -72 -34 -92 -21 -90 -7 51
55 -30 -39 127 56 -10 41 72
18 78 51 -25 49 -24 -53 15
80 49 -36 -64 -89 26 15 61
-65 16 52 -64 49 53 -11 -16
-74 -22 45 124 -15 -47 -12 25
-20 33 21 -94 -15 -19 -41 13
-62 -2 -9 -23 -20 8 57 -54
25 46 -17 -29 -23 2 -17 13
75 70 14 49 -43 65 5 48
72 -86 -66 34 71 -61 -29 29
38 -28 43 49 0 -49 18 -69
-51 12 -17 -113 -52 -31 8 87
47 -52 6 6 -22 68 -55 23
67 -24 15 58 -43 -40 35 2
-46 4 16 -15 -21 -84 24 17
-39 -11 78 19 -38 -1 -8 -24
-3 -47 -23 -70 -19 4 -28 3
17 7 5 -11 70 79 37 53
54 18 -19 5 81 -27 -37 -27
12 81 -50 -55 -26 -125 31 7
32 47 -23 -42 -28 -50 33 17
-44 -6 65 -41 4 15 66 -5
-60 28 -65 -10 -13 -92 -44 28
35 41 6 -32 48 -33 21 -26
-53 -11 -28 -60 -20 -57 -37 9
55 -43 -11 39 -20 16 -10 -11
00000000: 398d db44 0c4a f5ff b4fb 1f2d 84f2 e2f1
00000010: 081b ea70 d0c4 b3ee db19 ecd6 16df 5454
00000020: a3d2 46d5 4e06 14d6 f6b8 dea4 eba6 f933
00000030: 37e2 d97f 38f6 2948 124e 33e7 31e8 cb0f
00000040: 5031 dcc0 a71a 0f3d bf10 34c0 3135 f5f0
00000050: b6ea 2d7c f1d1 f419 ec21 15a2 f1ed d70d
00000060: c2fe f7e9 ec08 39ca 192e efe3 e902 ef0d
00000070: 4b46 0e31 d541 0530 48aa be22 47c3 e31d
00000080: 26e4 2b31 00cf 12bb cd0c ef8f cce1 0857
00000090: 2fcc 0606 ea44 c917 43e8 0f3a d5d8 2302
000000a0: d204 10f1 ebac 1811 d9f5 4e13 daff f8e8
000000b0: fdd1 e9ba ed04 e403 1107 05f5 464f 2535
000000c0: 3612 ed05 51e5 dbe5 0c51 cec9 e683 1f07
000000d0: 202f e9d6 e4ce 2111 d4fa 41d7 040f 42fb
000000e0: c41c bff6 f3a4 d41c 2329 06e0 30df 15e6
000000f0: cbf5 e4c4 ecc7 db09 37d5 f527 ec10 f6f5

model_1/747/Conv2D i1 [160, 1, 1, 480]
-20 -17 19 -38 -26 78 36 51
-33 -22 1 -37 11 75 9 7
26 -32 -43 60 -1 17 -5 2
14 15 45 -5 -4 6 -46 -26
-6 27 51 -30 35 -17 -4 50
47 7 -11 -20 -43 -88 -7 -23
72 54 11 -88 9 -47 12 44
-54 -15 -27 16 35 14 22 -5
-91 35 -43 52 11 -35 -38 -60
-72 -26 -23 6 -31 56 -1 79
37 -23 56 -32 -20 -15 -7 4
4 12 -10 -11 95 9 -34 -32
40 20 -58 18 -51 22 -30 -13
29 -6 1 30 -20 -56 -51 -26
46 40 27 44 -13 -18 -67 -19
19 25 10 -72 8 -30 -79 11
-66 -30 12 -75 72 37 20 34
-30 -1 -1 9 -16 -64 -9 4
-39 -45 43 -57 -36 -68 -20 -24
-47 12 -6 -22 -61 -5 32 -9
-15 -18 42 10 49 -127 -12 38
22 19 -69 77 17 -6 -55 71
6 45 -23 -15 -64 -12 -7 -49
8 35 -63 49 26 81 -29 -56
-14 25 -44 9 -43 15 -28 63
-58 12 -32 -34 -23 10 10 -46
15 -13 -6 -14 -26 -45 29 10
46 18 21 21 -18 -19 12 22
15 16 27 2 11 -15 70 102
19 32 -1 -7 -18 -2 -120 -24
28 9 9 -14 46 -8 -7 53
-41 -18 -53 29 -6 -22 -35 -17
00000000: ecef 13da e64e 2433 dfea 01db 0b4b 0907
00000010: 1ae0 d53c ff11 fb02 0e0f 2dfb fc06 d2e6
00000020: fa1b 33e2 23ef fc32 2f07 f5ec d5a8 f9e9
00000030: 4836 0ba8 09d1 0c2c caf1 e510 230e 16fb
00000040: a523 d534 0bdd dac4 b8e6 e906 e138 ff4f
00000050: 25e9 38e0 ecf1 f904 040c f6f5 5f09 dee0
00000060: 2814 c612 cd16 e2f3 1dfa 011e ecc8 cde6
00000070: 2e28 1b2c f3ee bded 1319 0ab8 08e2 b10b
00000080: bee2 0cb5 4825 1422 e2ff ff09 f0c0 f704
00000090: d9d3 2bc7 dcbc ece8 d10c faea c3fb 20f7
000000a0: f1ee 2a0a 3181 f426 1613 bb4d 11fa c947
000000b0: 062d e9f1 c0f4 f9cf 0823 c131 1a51 e3c8
000000c0: f219 d409 d50f e43f c60c e0de e90a 0ad2
000000d0: 0ff3 faf2 e6d3 1d0a 2e12 1515 eeed 0c16
000000e0: 0f10 1b02 0bf1 4666 1320 fff9 eefe 88e8
000000f0: 1c09 09f2 2ef8 f935 d7ee cb1d faea ddef

model_1/744/depthwise i1 [1, 3, 3, 480]
-10 -85 127 35 -127 -20 127 -119
93 -88 48 -16 10 31 -7 62
38 105 -9 -78 5 29 15 15
22 4 -15 -22 -105 66 -26 -73
1 127 54 -12 127 84 -68 -127
-87 127 81 14 29 -92 3 107
-37 17 -44 72 6 -1 -14 -60
-14 4 36 -54 127 -8 6 46
118 -37 127 50 9 28 -12 33
35 127 -40 -37 -127 27 -125 -58
-20 -110 -25 -5 3 95 28 45
-121 -15 22 7 -28 -51 -89 3
108 56 -90 -28 -82 46 127 112
127 -65 127 36 -1 0 -9 127
-127 -26 -5 3 -8 -127 93 73
61 12 30 87 127 27 -10 127
14 -127 -40 45 4 -3 105 -56
-6 127 -29 -127 -68 7 69 59
22 -25 63 46 -60 -34 0 -23
-127 -9 -49 88 40 -127 61 81
5 -7 -8 43 -53 21 -56 42
111 17 75 16 3 127 -2 -24
7 113 -88 119 -13 56 -47 -127
-1 26 -106 -127 113 -26 5 -59
-116 34 19 -17 -54 -127 108 -27
-59 127 -127 -92 9 71 6 -10
1 71 127 -37 40 97 127 -43
69 40 -89 100 -127 -127 -54 -68
-43 -48 -127 -26 72 -49 5 2
-105 33 -51 126 -81 88 -59 -66
127 6 9 97 -67 -19 47 102
127 -22 -9 4 96 58 31 24
00000000: f6ab 7f23 81ec 7f89 5da8 30f0 0a1f f93e
00000010: 2669 f7b2 051d 0f0f 1604 f1ea 9742 e6b7
00000020: 017f 36f4 7f54 bc81 a97f 510e 1da4 036b
00000030: db11 d448 06ff f2c4 f204 24ca 7ff8 062e
00000040: 76db 7f32 091c f421 237f d8db 811b 83c6
00000050: ec92 e7fb 035f 1c2d 87f1 1607 e4cd a703
00000060: 6c38 a6e4 ae2e 7f70 7fbf 7f24 ff00 f77f
00000070: 81e6 fb03 f881 5d49 3d0c 1e57 7f1b f67f
00000080: 0e81 d82d 04fd 69c8 fa7f e381 bc07 453b
00000090: 16e7 3f2e c4de 00e9 81f7 cf58 2881 3d51
000000a0: 05f9 f82b cb15 c82a 6f11 4b10 037f fee8
000000b0: 0771 a877 f338 d181 ff1a 9681 71e6 05c5
000000c0: 8c22 13ef ca81 6ce5 c57f 81a4 0947 06f6
000000d0: 0147 7fdb 2861 7fd5 4528 a764 8181 cabc
000000e0: d5d0 81e6 48cf 0502 9721 cd7e af58 c5be
000000f0: 7f06 0961 bded 2f66 7fea f704 603a 1f18

model_1/741/Conv2D i1 [480, 1, 1, 80]
-78 51 47 42 -39 72 -44 34
-56 -9 30 -23 -50 47 -1 4
105 17 -15 38 49 2 -20 -47
5 4 32 10 -29 20 -58 35
-31 61 51 -37 56 -42 -1 -19
11 9 -44 -42 23 60 23 -3
18 18 -15 -43 -60 58 -55 42
-16 47 7 -1 26 -45 -66 -26
48 -22 8 -81 -7 85 -26 11
-19 -6 4 81 63 -127 -72 -27
-15 8 12 -9 2 -33 68 -23
24 14 -23 -38 63 -58 -4 88
25 -5 -43 -40 5 -43 -46 0
87 16 77 38 -70 13 -48 57
-14 47 25 -29 -38 29 -10 -59
-36 29 95 21 12 -32 58 -18
-28 16 15 -44 -17 -127 -2 37
-2 6 17 2 65 29 -13 43
-60 43 -8 -4 45 -79 7 8
-5 42 -31 42 13 32 -41 -4
4 38 -25 30 -50 -2 68 -5
46 35 92 90 -73 -109 -20 25
39 -91 23 -30 75 41 87 -24
67 127 13 17 -85 -67 -13 -48
-20 -16 -6 8 -65 51 -26 -26
13 -22 7 -13 -3 -22 74 71
96 51 92 -60 16 -6 -43 68
-42 -33 -97 73 -8 37 12 11
26 -49 65 -80 -17 -43 76 46
24 16 -37 -2 43 -50 -31 -86
5 29 77 12 -1 -37 -37 -21
30 -18 -110 -62 17 -17 -31 64
00000000: b233 2f2a d948 d422 c8f7 1ee9 ce2f ff04
00000010: 6911 f126 3102 ecd1 0504 200a e314 c623
00000020: e13d 33db 38d6 ffed 0b09 d4d6 173c 17fd
00000030: 1212 f1d5 c43a c92a f02f 07ff 1ad3 bee6
00000040: 30ea 08af f955 e60b edfa 0451 3f81 b8e5
00000050: f108 0cf7 02df 44e9 180e e9da 3fc6 fc58
00000060: 19fb d5d8 05d5 d200 5710 4d26 ba0d d039
00000070: f22f 19e3 da1d f6c5 dc1d 5f15 0ce0 3aee
00000080: e410 0fd4 ef81 fe25 fe06 1102 411d f32b
00000090: c42b f8fc 2db1 0708 fb2a e12a 0d20 d7fc
000000a0: 0426 e71e cefe 44fb 2e23 5c5a b793 ec19
000000b0: 27a5 17e2 4b29 57e8 437f 0d11 abbd f3d0
000000c0: ecf0 fa08 bf33 e6e6 0dea 07f3 fdea 4a47
000000d0: 6033 5cc4 10fa d544 d6df 9f49 f825 0c0b
000000e0: 1acf 41b0 efd5 4c2e 1810 dbfe 2bce e1aa
000000f0: 051d 4d0c ffdb dbeb 1eee 92c2 11ef e140

model_1/738/Conv2D i1 [80, 1, 1, 480]
13 9 30 -56 -42 10 -2 43
4 74 -67 1 51 19 5 -55
70 -4 34 -92 59 19 -106 -4
12 -78 -55 44 37 -80 20 -22
-41 -74 -48 69 -28 55 -89 -9
82 8 49 -78 -35 4 36 -11
72 30 14 -31 -10 11 -52 -82
9 33 -73 -28 13 -58 -58 63
74 11 -4 -19 -45 -28 -33 65
29 8 -36 18 -14 28 44 -71
-32 -59 34 -47 -108 86 22 -65
13 -73 12 53 -77 -13 4 -63
-77 56 -32 -39 -16 45 5 71
-73 97 -18 37 -111 -73 18 -85
-20 9 30 -47 7 15 -14 -34
0 -14 -33 56 78 34 -46 43
20 -8 46 0 -37 -24 -6 -50
-13 -59 22 59 2 -29 61 -102
-33 41 98 6 -29 91 -39 36
34 70 29 -15 -30 -38 70 76
-16 -19 -1 49 -27 20 28 -2
-92 30 61 4 -62 101 -26 -17
-47 -7 -53 -36 32 21 4 35
127 -30 7 -43 -20 38 35 2
33 -33 -37 -78 27 -30 -24 -53
7 -72 1 -50 -51 16 -7 -3
41 -24 -60 11 14 -77 33 -24
37 29 -43 52 82 69 15 30
36 -13 -49 -28 -67 31 -80 11
62 31 -16 17 74 26 -1 27
-71 -25 -52 10 12 -50 -47 7
13 23 -29 -38 46 -28 33 48
00000000: 0d09 1ec8 d60a fe2b 044a bd01 3313 05c9
00000010: 46fc 22a4 3b13 96fc 0cb2 c92c 25b0 14ea
00000020: d7b6 d045 e437 a7f7 5208 31b2 dd04 24f5
00000030: 481e 0ee1 f60b ccae 0921 b7e4 0dc6 c63f
00000040: 4a0b fced d3e4 df41 1d08 dc12 f21c 2cb9
00000050: e0c5 22d1 9456 16bf 0db7 0c35 b3f3 04c1
00000060: b338 e0d9 f02d 0547 b761 ee25 91b7 12ab
00000070: ec09 1ed1 070f f2de 00f2 df38 4e22 d22b
00000080: 14f8 2e00 dbe8 face f3c5 163b 02e3 3d9a
00000090: df29 6206 e35b d924 2246 1df1 e2da 464c
000000a0: f0ed ff31 e514 1cfe a41e 3d04 c265 e6ef
000000b0: d1f9 cbdc 2015 0423 7fe2 07d5 ec26 2302
000000c0: 21df dbb2 1be2 e8cb 07b8 01ce cd10 f9fd
000000d0: 29e8 c40b 0eb3 21e8 251d d534 5245 0f1e
000000e0: 24f3 cfe4 bd1f b00b 3e1f f011 4a1a ff1b
000000f0: b9e7 cc0a 0cce d107 0d17 e3da 2ee4 2130

model_1/735/depthwise i1 [1, 5, 5, 480]
-38 28 -7 -20 46 -15 -19 60
-16 -15 -6 -45 -74 56 -6 -22
8 -73 -73 -89 11 -25 -15 17
59 -38 15 76 -127 56 -69 56
56 47 -121 -16 -57 26 22 6
17 -15 -86 -5 90 -118 -58 10
-124 52 127 2 -109 10 -6 51
43 -54 -5 -127 -79 -1 15 117
-28 70 89 -56 109 -27 -62 -51
-72 127 12 19 35 60 -83 99
20 -98 -62 -30 59 5 -58 80
0 27 -29 13 -17 -21 -26 -127
-23 56 -102 18 23 -11 -3 19
54 -43 22 -26 -81 -26 -59 -10
99 52 -80 7 66 -30 106 -5
84 -18 101 37 -85 -9 22 -29
103 -78 -17 12 -9 6 -107 -70
-48 68 -82 7 4 56 0 -28
-96 21 -17 -32 -11 59 44 -13
-124 -99 -21 26 22 72 108 10
-94 59 -15 -71 -35 -10 -68 45
127 -67 50 -81 -40 6 42 -13
-127 -121 11 -20 -32 18 -6 12
16 -12 71 -127 -67 -5 -19 -29
-2 89 -47 -24 -41 -34 -12 -53
-42 10 54 3 -100 -111 -98 1
50 23 -55 -37 37 22 -82 -10
47 -34 -41 -10 64 -113 -24 -55
37 18 -13 71 -45 -18 -11 127
14 82 -39 25 15 45 -26 -127
-19 73 56 -29 77 64 -9 -4
-40 -60 -9 -84 -48 -58 28 5
00000000: da1c f9ec 2ef1 ed3c f0f1 fad3 b638 faea
00000010: 08b7 b7a7 0be7 f111 3bda 0f4c 8138 bb38
00000020: 382f 87f0 c71a 1606 11f1 aafb 5a8a c60a
00000030: 8434 7f02 930a fa33 2bca fb81 b1ff 0f75
00000040: e446 59c8 6de5 c2cd b87f 0c13 233c ad63
00000050: 149e c2e2 3b05 c650 001b e30d efeb e681
00000060: e938 9a12 17f5 fd13 36d5 16e6 afe6 c5f6
00000070: 6334 b007 42e2 6afb 54ee 6525 abf7 16e3
00000080: 67b2 ef0c f706 95ba d044 ae07 0438 00e4
00000090: a015 efe0 f53b 2cf3 849d eb1a 1648 6c0a
000000a0: a23b f1b9 ddf6 bc2d 7fbd 32af d806 2af3
000000b0: 8187 0bec e012 fa0c 10f4 4781 bdfb ede3
000000c0: fe59 d1e8 d7de f4cb d60a 3603 9c91 9e01
000000d0: 3217 c9db 2516 aef6 2fde d7f6 408f e8c9
000000e0: 2512 f347 d3ee f57f 0e52 d919 0f2d e681
000000f0: ed49 38e3 4d40 f7fc d8c4 f7ac d0c6 1c05

model_1/732/Conv2D i1 [480, 1, 1, 80]
2 -51 7 92 -23 58 35 73
45 83 9 28 -48 107 28 13
38 -41 -48 16 127 53 62 -49
66 -50 -90 15 -82 -62 3 35
7 60 22 11 7 -3 -34 63
13 -63 9 -85 -29 19 32 -32
-13 53 -66 76 17 -42 -47 52
71 36 -1 -55 -52 -60 8 16
-54 -60 -25 -28 -74 0 93 -5
40 -12 -30 -6 -17 -19 -1 -49
99 -10 71 3 -53 -50 -14 55
-76 9 0 -104 71 -3 46 66
-80 34 9 1 6 -2 -14 -27
38 37 41 24 39 44 89 -3
6 66 -14 69 -42 38 -31 -27
49 -39 -26 13 5 31 52 70
10 58 61 29 127 -126 2 15
11 57 -13 19 -7 62 -21 -63
-5 39 -26 61 -13 -43 32 30
-24 61 -79 -11 10 47 -72 68
-62 55 -64 -34 -55 -21 -41 6
11 -45 4 3 -4 -29 10 -113
74 -1 24 115 -85 86 40 -11
114 -11 -53 51 31 12 59 -74
15 83 -127 7 -39 -4 40 107
21 -25 -22 36 57 -58 -46 67
25 -12 99 30 45 -74 -45 104
57 0 -79 62 -58 -61 -37 -57
28 -48 68 -26 34 89 7 104
-25 -25 -27 2 -93 28 87 -76
39 -29 47 -45 -57 -13 55 -45
15 -71 80 3 15 -61 -45 -33
00000000: 02cd 075c e93a 2349 2d53 091c d06b 1c0d
00000010: 26d7 d010 7f35 3ecf 42ce a60f aec2 0323
00000020: 073c 160b 07fd de3f 0dc1 09ab e313 20e0
00000030: f335 be4c 11d6 d134 4724 ffc9 ccc4 0810
00000040: cac4 e7e4 b600 5dfb 28f4 e2fa efed ffcf
00000050: 63f6 4703 cbce f237 b409 0098 47fd 2e42
00000060: b022 0901 06fe f2e5 2625 2918 272c 59fd
00000070: 0642 f245 d626 e1e5 31d9 e60d 051f 3446
00000080: 0a3a 3d1d 7f82 020f 0b39 f313 f93e ebc1
00000090: fb27 e63d f3d5 201e e83d b1f5 0a2f b844
000000a0: c237 c0de c9eb d706 0bd3 0403 fce3 0a8f
000000b0: 4aff 1873 ab56 28f5 72f5 cb33 1f0c 3bb6
000000c0: 0f53 8107 d9fc 286b 15e7 ea24 39c6 d243
000000d0: 19f4 631e 2db6 d368 3900 b13e c6c3 dbc7
000000e0: 1cd0 44e6 2259 0768 e7e7 e502 a31c 57b4
000000f0: 27e3 2fd3 c7f3 37d3 0fb9 5003 0fc3 d3df

model_1/729/Conv2D i1 [80, 1, 1, 480]
-25 -5 3 -23 -3 -50 22 72
-46 -62 -25 -13 98 -9 31 12
-28 35 91 30 -2 -30 -10 35
47 38 -18 11 90 24 30 -79
-76 -72 -48 -48 58 -12 65 -17
-8 -34 44 -14 -2 -7 -39 81
60 -12 -46 -37 -16 28 41 -52
-26 10 -9 -15 53 8 60 60
25 -32 78 -2 -66 11 65 82
-37 40 -13 10 5 87 59 -46
4 53 -21 54 -34 35 91 56
-37 41 -71 15 -42 -18 -10 11
14 106 -11 26 48 54 34 48
32 -8 30 26 -13 -15 28 -11
3 41 -34 -7 -64 10 48 -114
24 -41 -14 -38 -71 -25 -5 -2
13 -1 87 -2 61 -6 32 2
26 -32 2 15 -18 25 -56 -44
-22 -43 -28 22 -36 4 2 54
90 61 16 9 -94 83 -13 17
16 33 55 24 26 -27 -67 2
-92 68 55 6 -33 50 2 95
-2 26 -34 52 -26 9 25 -23
-32 49 -3 -9 0 -16 -45 57
-52 57 -34 55 -30 64 -49 56
-63 12 9 -31 15 2 29 39
-2 -10 -9 25 -29 3 -9 -51
-14 -10 -51 88 19 -46 58 -2
-75 -24 28 22 -12 -41 70 70
69 -85 -22 19 17 4 -34 72
11 -35 -62 -39 -35 -113 2 -37
-3 -27 -69 -33 -8 -31 72 -45
00000000: e7fb 03e9 fdce 1648 d2c2 e7f3 62f7 1f0c
00000010: e423 5b1e fee2 f623 2f26 ee0b 5a18 1eb1
00000020: b4b8 d0d0 3af4 41ef f8de 2cf2 fef9 d951
00000030: 3cf4 d2db f01c 29cc e60a f7f1 3508 3c3c
00000040: 19e0 4efe be0b 4152 db28 f30a 0557 3bd2
00000050: 0435 eb36 de23 5b38 db29 b90f d6ee f60b
00000060: 0e6a f51a 3036 2230 20f8 1e1a f3f1 1cf5
00000070: 0329 def9 c00a 308e 18d7 f2da b9e7 fbfe
00000080: 0dff 57fe 3dfa 2002 1ae0 020f ee19 c8d4
00000090: ead5 e416 dc04 0236 5a3d 1009 a253 f311
000000a0: 1021 3718 1ae5 bd02 a444 3706 df32 025f
000000b0: fe1a de34 e609 19e9 e031 fdf7 00f0 d339
000000c0: cc39 de37 e240 cf38 c10c 09e1 0f02 1d27
000000d0: fef6 f719 e303 f7cd f2f6 cd58 13d2 3afe
000000e0: b5e8 1c16 f4d7 4646 45ab ea13 1104 de48
000000f0: 0bdd c2d9 dd8f 02db fde5 bbdf f8e1 48d3

model_1/726/depthwise i1 [1, 5, 5, 480]
46 127 -11 23 -45 9 6 26
-81 -60 17 -55 56 -23 -12 -49
-11 -73 -98 -86 78 49 127 69
5 31 -104 10 127 -28 17 125
57 -12 69 87 -18 38 -92 38
-12 35 17 44 -63 15 -40 -68
3 28 -103 39 12 51 -30 45
-49 -14 52 27 -65 -119 -19 -27
-26 9 45 28 -16 -68 77 16
-57 120 43 34 22 10 16 -19
-88 24 59 9 -36 -60 -2 14
3 34 110 -80 97 36 -20 -1
-32 76 -108 59 54 -26 118 -13
39 -29 27 25 -31 67 -91 1
-72 -110 22 -32 -13 78 57 23
8 44 -50 57 -85 25 27 47
-94 80 11 -18 -32 39 16 -66
-44 24 24 29 62 76 -24 -37
31 -43 -127 -17 -127 30 -67 43
11 -33 -81 -41 -54 105 -120 52
-7 18 27 39 73 79 30 -67
8 51 86 -54 96 -109 -15 -127
27 -85 30 -107 39 -91 -23 46
-62 109 85 20 43 95 86 7
6 94 8 -55 -37 -90 -61 -63
-84 -1 59 -6 -16 43 -35 28
-21 -66 66 -42 -21 105 -90 -54
-21 -16 33 -127 73 46 -109 -4
-17 -43 65 -24 33 -41 38 -19
-16 -11 -11 73 -16 45 -58 -68
34 28 17 22 -29 -79 -25 -45
103 -19 -3 -5 10 8 -6 32
00000000: 2e7f f517 d309 061a afc4 11c9 38e9 f4cf
00000010: f5b7 9eaa 4e31 7f45 051f 980a 7fe4 117d
00000020: 39f4 4557 ee26 a426 f423 112c c10f d8bc
00000030: 031c 9927 0c33 e22d cff2 341b bf89 ede5
00000040: e609 2d1c f0bc 4d10 c778 2b22 160a 10ed
00000050: a818 3b09 dcc4 fe0e 0322 6eb0 6124 ecff
00000060: e04c 943b 36e6 76f3 27e3 1b19 e143 a501
00000070: b892 16e0 f34e 3917 082c ce39 ab19 1b2f
00000080: a250 0bee e027 10be d418 181d 3e4c e8db
00000090: 1fd5 81ef 811e bd2b 0bdf afd7 ca69 8834
000000a0: f912 1b27 494f 1ebd 0833 56ca 6093 f181
000000b0: 1bab 1e95 27a5 e92e c26d 5514 2b5f 5607
000000c0: 065e 08c9 dba6 c3c1 acff 3bfa f02b dd1c
000000d0: ebbe 42d6 eb69 a6ca ebf0 2181 492e 93fc
000000e0: efd5 41e8 21d7 26ed f0f5 f549 f02d c6bc
000000f0: 221c 1116 e3b1 e7d3 67ed fdfb 0a08 fa20

model_1/723/Conv2D i1 [480, 1, 1, 80]
15 4 -41 11 29 -59 37 24
64 -4 49 12 -114 10 111 7
127 28 12 24 56 6 106 17
94 53 34 15 -24 18 2 40
-38 8 -54 48 27 -21 -14 -66
-60 22 80 1 -80 35 -15 -31
17 21 -3 81 -15 20 41 -36
53 -16 -11 -19 -2 60 -47 -6
81 6 -68 79 46 23 14 32
112 -38 -19 24 73 -11 -45 -33
36 -41 -6 62 13 12 66 127
-3 80 -2 4 -56 11 81 -54
6 -16 51 -21 26 -11 116 -29
85 49 65 -6 22 55 -13 2
65 48 -1 46 50 -81 -38 69
41 -28 -7 59 93 35 41 42
-55 -48 -36 -79 90 3 -30 61
-35 -115 44 -71 -90 -49 -93 50
66 -39 -60 -63 -22 15 -12 20
73 12 -15 1 14 116 -55 -39
-17 -20 64 5 10 -15 47 -4
41 58 -107 -1 5 -17 37 -7
90 -1 -2 -73 -20 -10 83 40
-9 -51 -4 28 -47 -32 -39 29
67 56 -21 -23 37 -37 49 -55
-81 -62 -79 18 53 120 -8 19
62 -11 -118 43 -79 -63 41 -89
0 30 94 -5 -58 41 35 35
35 -29 99 32 -67 -35 99 -21
58 -42 -45 -80 17 -48 22 -127
-55 35 122 14 -68 -110 13 -90
4 19 -51 40 -66 42 104 35
00000000: 0f04 d70b 1dc5 2518 40fc 310c 8e0a 6f07
00000010: 7f1c 0c18 3806 6a11 5e35 220f e812 0228
00000020: da08 ca30 1beb f2be c416 5001 b023 f1e1
00000030: 1115 fd51 f114 29dc 35f0 f5ed fe3c d1fa
00000040: 5106 bc4f 2e17 0e20 70da ed18 49f5 d3df
00000050: 24d7 fa3e 0d0c 427f fd50 fe04 c80b 51ca
00000060: 06f0 33eb 1af5 74e3 5531 41fa 1637 f302
00000070: 4130 ff2e 32af da45 29e4 f93b 5d23 292a
00000080: c9d0 dcb1 5a03 e23d dd8d 2cb9 a6cf a332
00000090: 42d9 c4c1 ea0f f414 490c f101 0e74 c9d9
000000a0: efec 4005 0af1 2ffc 293a 95ff 05ef 25f9
000000b0: 5aff feb7 ecf6 5328 f7cd fc1c d1e0 d91d
000000c0: 4338 ebe9 25db 31c9 afc2 b112 3578 f813
000000d0: 3ef5 8a2b b1c1 29a7 001e 5efb c629 2323
000000e0: 23e3 6320 bddd 63eb 3ad6 d3b0 11d0 1681
000000f0: c923 7a0e bc92 0da6 0413 cd28 be2a 6823

model_1/720/Conv2D i1 [80, 1, 1, 80]
-61 45 33 -37 13 92 -14 -1
36 -127 16 102 5 -33 12 45
-32 -12 -46 -2 4 9 7 48
-46 17 27 5 -40 46 10 29
14 11 37 1 -15 -29 70 51
6 -13 21 37 54 -7 -8 23
32 25 -3 11 47 50 36 -57
-14 -26 12 41 6 -74 -2 69
0 48 41 18 6 45 12 -15
-16 -29 7 -19 -110 -21 5 -6
-6 -21 64 -79 68 -38 32 6
73 23 34 -43 77 -94 -53 45
-22 -44 -76 -88 20 -43 18 11
-14 -19 44 43 -32 -41 -104 -69
4 11 9 -127 23 -38 55 67
28 -15 42 -22 -44 -7 9 -14
11 4 -27 67 -20 9 -26 9
67 -11 52 71 -6 0 106 -36
-12 64 -79 -10 20 14 -6 -24
24 48 80 10 -49 18 2 -70
17 -19 -48 95 50 2 33 32
0 74 -3 -28 -32 0 -76 14
90 51 43 -2 -33 11 21 12
-36 2 51 12 5 -60 66 -58
30 -109 -25 117 19 -36 -46 11
-47 -2 -20 -39 -33 -2 2 -127
-80 93 97 27 -39 -107 4 56
-16 16 5 -21 29 25 85 60
4 -6 -15 -52 37 -22 115 -103
-85 22 37 108 -60 111 108 -79
42 -13 -28 -31 19 -61 23 -9
4 89 -15 24 -32 104 91 31
00000000: c32d 21db 0d5c f2ff 2481 1066 05df 0c2d
00000010: e0f4 d2fe 0409 0730 d211 1b05 d82e 0a1d
00000020: 0e0b 2501 f1e3 4633 06f3 1525 36f9 f817
00000030: 2019 fd0b 2f32 24c7 f2e6 0c29 06b6 fe45
00000040: 0030 2912 062d 0cf1 f0e3 07ed 92eb 05fa
00000050: faeb 40b1 44da 2006 4917 22d5 4da2 cb2d
00000060: ead4 b4a8 14d5 120b f2ed 2c2b e0d7 98bb
00000070: 040b 0981 17da 3743 1cf1 2aea d4f9 09f2
00000080: 0b04 e543 ec09 e609 43f5 3447 fa00 6adc
00000090: f440 b1f6 140e fae8 1830 500a cf12 02ba
000000a0: 11ed d05f 3202 2120 004a fde4 e000 b40e
000000b0: 5a33 2bfe df0b 150c dc02 330c 05c4 42c6
000000c0: 1e93 e775 13dc d20b d1fe ecd9 dffe 0281
000000d0: b05d 611b d995 0438 f010 05eb 1d19 553c
000000e0: 04fa f1cc 25ea 7399 ab16 256c c46f 6cb1
000000f0: 2af3 e4e1 13c3 17f7 0459 f118 e068 5b1f

model_1/717/depthwise i1 [1, 5, 5, 80]
-66 91 64 -50 -74 24 -16 2
-65 55 -10 -19 -48 23 -7 -48
-20 56 18 -6 121 -104 65 75
-10 -59 113 25 10 58 40 -25
20 24 -1 94 -42 -5 58 -88
-24 12 116 16 -47 -37 53 27
-25 27 55 -36 4 -45 -5 48
-34 27 29 88 -22 41 -21 26
-31 36 -43 -25 38 -67 56 103
50 68 -7 -32 82 -92 -81 22
27 61 -124 19 72 -60 -58 -33
59 40 50 -5 100 61 -14 79
-6 -62 8 13 8 -65 -20 -15
49 -82 35 -36 -90 30 103 5
-32 -22 42 9 -103 41 106 -37
-82 21 24 -102 21 90 -16 -2
-6 67 14 -38 -62 -94 127 127
31 -71 8 10 104 -81 17 80
-56 41 61 -75 -6 -16 -1 -1
93 5 52 -10 -127 54 -10 -67
-86 -52 16 -47 7 48 -27 6
91 -46 -61 -33 -5 -28 42 51
28 -40 6 -19 85 1 -85 -38
-28 31 -33 35 12 52 60 127
89 -29 -19 -48 -12 0 -127 62
-32 -12 -18 -75 29 -67 -98 -68
37 -26 11 24 33 -86 -38 57
-50 -114 -9 -90 3 -40 -66 -116
39 -108 -27 20 -9 37 22 50
-27 -127 -67 69 84 -85 -127 52
-11 -127 80 0 24 75 -24 -113
42 25 78 16 -28 61 16 -58
00000000: be5b 40ce b618 f002 bf37 f6ed d017 f9d0
00000010: ec38 12fa 7998 414b f6c5 7119 0a3a 28e7
00000020: 1418 ff5e d6fb 3aa8 e80c 7410 d1db 351b
00000030: e71b 37dc 04d3 fb30 de1b 1d58 ea29 eb1a
00000040: e124 d5e7 26bd 3867 3244 f9e0 52a4 af16
00000050: 1b3d 8413 48c4 c6df 3b28 32fb 643d f24f
00000060: fac2 080d 08bf ecf1 31ae 23dc a61e 6705
00000070: e0ea 2a09 9929 6adb ae15 189a 155a f0fe
00000080: fa43 0eda c2a2 7f7f 1fb9 080a 68af 1150
00000090: c829 3db5 faf0 ffff 5d05 34f6 8136 f6bd
000000a0: aacc 10d1 0730 e506 5bd2 c3df fbe4 2a33
000000b0: 1cd8 06ed 5501 abda e41f df23 0c34 3c7f
000000c0: 59e3 edd0 f400 813e e0f4 eeb5 1dbd 9ebc
000000d0: 25e6 0b18 21aa da39 ce8e f7a6 03d8 be8c
000000e0: 2794 e514 f725 1632 e581 bd45 54ab 8134
000000f0: f581 5000 184b e88f 2a19 4e10 e43d 10c6

model_1/714/Conv2D i1 [80, 1, 1, 288]
-17 59 41 -25 -12 109 -54 19
1 -50 -80 -10 -35 -39 43 -40
-13 54 -48 -33 0 -11 -13 5
23 9 -39 9 -28 -34 12 30
-18 -8 77 -40 -33 -19 -26 2
33 -37 0 2 13 -23 54 56
-39 4 30 -48 46 -35 -10 -54
7 38 -25 38 3 35 8 23
-43 39 -7 -17 -50 26 22 31
5 89 -3 -35 77 24 17 -51
43 20 22 -34 20 -43 -20 63
-45 -53 1 -26 6 13 -39 -90
-14 127 -15 -48 -31 0 24 0
87 -8 6 -18 39 -59 50 -14
13 24 32 26 27 -71 16 -37
-14 -7 41 7 -2 20 -52 38
-38 -53 35 26 54 -24 21 76
-21 43 6 -7 88 27 -31 8
-6 -13 7 4 3 7 -61 30
20 -14 29 -37 -45 65 -19 62
-17 13 -21 -24 -30 -27 57 -1
12 -9 -9 -68 26 21 40 77
1 -2 -13 -36 -14 -15 -3 -5
-52 -24 46 -29 -52 -4 -41 15
24 -3 -11 -46 17 -37 69 20
13 13 -27 63 46 93 -31 33
-53 -4 21 14 -12 82 3 17
41 38 42 5 37 7 -11 -18
28 -18 53 -12 17 31 6 59
27 35 31 56 -28 -21 -53 -62
43 55 56 25 -2 -45 79 19
69 2 -93 -43 -17 7 -77 15
00000000: ef3b 29e7 f46d ca13 01ce b0f6 ddd9 2bd8
00000010: f336 d0df 00f5 f305 1709 d909 e4de 0c1e
00000020: eef8 4dd8 dfed e602 21db 0002 0de9 3638
00000030: d904 1ed0 2edd f6ca 0726 e726 0323 0817
00000040: d527 f9ef ce1a 161f 0559 fddd 4d18 11cd
00000050: 2b14 16de 14d5 ec3f d3cb 01e6 060d d9a6
00000060: f27f f1d0 e100 1800 57f8 06ee 27c5 32f2
00000070: 0d18 201a 1bb9 10db f2f9 2907 fe14 cc26
00000080: dacb 231a 36e8 154c eb2b 06f9 581b e108
00000090: faf3 0704 0307 c31e 14f2 1ddb d341 ed3e
000000a0: ef0d ebe8 e2e5 39ff 0cf7 f7bc 1a15 284d
000000b0: 01fe f3dc f2f1 fdfb cce8 2ee3 ccfc d70f
000000c0: 18fd f5d2 11db 4514 0d0d e53f 2e5d e121
000000d0: cbfc 150e f452 0311 2926 2a05 2507 f5ee
000000e0: 1cee 35f4 111f 063b 1b23 1f38 e4eb cbc2
000000f0: 2b37 3819 fed3 4f13 4502 a3d5 ef07 b30f

model_1/711/depthwise i1 [1, 5, 5, 288]
-45 25 -31 17 -26 29 -46 68
43 -76 -15 -89 -127 -51 -32 10
-127 -44 -51 -51 59 105 26 -46
-14 -98 -8 49 -98 -77 -23 -34
8 -33 -83 -9 -73 -23 95 11
-99 -1 -65 22 41 -24 28 1
94 -42 -31 24 -3 68 -104 -35
42 -36 83 -107 -36 -65 -4 -43
77 43 -23 6 111 -80 -1 -9
106 22 -9 56 -67 73 24 -110
71 -4 11 32 -48 48 -127 -69
-26 -51 20 -48 57 2 15 3
39 -84 -50 37 37 -127 -63 9
-127 -9 -21 -20 -59 50 -68 12
5 28 -51 16 -86 5 2 127
-26 58 -34 21 41 80 58 111
97 -8 33 127 60 -53 -31 12
127 42 -6 -36 -48 -26 -1 -81
-124 -127 70 39 6 5 16 41
-24 -101 -13 5 -75 -54 -30 -2
-10 -49 -77 -64 -2 23 -30 -22
4 -15 52 -23 -95 -127 26 22
-127 1 -69 -36 -121 -14 49 76
-84 84 -91 -63 -113 127 -43 -6
-19 66 53 49 -55 56 -119 11
-114 -47 11 26 -75 86 -54 115
-12 61 -12 109 46 -26 -8 -48
28 -3 34 127 -49 76 9 12
-40 23 -45 -109 -29 -58 -34 -98
-18 -127 27 127 -96 -40 12 16
-29 26 119 60 -17 33 -51 50
-25 126 127 81 -31 -93 -101 -60
00000000: d319 e111 e61d d244 2bb4 f1a7 81cd e00a
00000010: 81d4 cdcd 3b69 1ad2 f29e f831 9eb3 e9de
00000020: 08df adf7 b7e9 5f0b 9dff bf16 29e8 1c01
00000030: 5ed6 e118 fd44 98dd 2adc 5395 dcbf fcd5
00000040: 4d2b e906 6fb0 fff7 6a16 f738 bd49 1892
00000050: 47fc 0b20 d030 81bb e6cd 14d0 3902 0f03
00000060: 27ac ce25 2581 c109 81f7 ebec c532 bc0c
00000070: 051c cd10 aa05 027f e63a de15 2950 3a6f
00000080: 61f8 217f 3ccb e10c 7f2a fadc d0e6 ffaf
00000090: 8481 4627 0605 1029 e89b f305 b5ca e2fe
000000a0: f6cf b3c0 fe17 e2ea 04f1 34e9 a181 1a16
000000b0: 8101 bbdc 87f2 314c ac54 a5c1 8f7f d5fa
000000c0: ed42 3531 c938 890b 8ed1 0b1a b556 ca73
000000d0: f43d f46d 2ee6 f8d0 1cfd 227f cf4c 090c
000000e0: d817 d393 e3c6 de9e ee81 1b7f a0d8 0c10
000000f0: e31a 773c ef21 cd32 e77e 7f51 e1a3 9bc4

model_1/708/Conv2D i1 [288, 1, 1, 48]
-72 -39 -24 33 -50 29 9 -23
101 7 -85 80 86 -90 -64 -11
68 14 2 -84 -22 -18 51 -3
127 18 -42 -95 -46 14 -46 -31
-16 38 12 88 -33 -13 -1 94
-43 35 -14 82 9 -24 -28 -37
0 -4 51 22 -3 -125 79 23
-109 -54 -69 -89 16 50 -27 -46
-66 47 65 -6 -63 -48 74 -62
70 65 -52 -64 -69 28 21 -15
34 12 -14 45 -46 -103 -38 -50
-81 127 12 29 -55 -42 -36 38
-29 18 5 -10 64 3 -4 90
19 -24 -23 -10 8 -14 15 11
66 -63 41 75 -66 38 69 -68
-25 -30 -6 100 -53 67 5 42
0 -20 -20 -114 52 59 10 -93
36 -12 -23 23 -26 -39 127 -85
63 -63 -22 -79 10 74 -127 12
18 4 -85 33 -107 26 -60 13
-85 -58 38 16 61 32 -13 -49
-19 27 -60 45 -13 -32 96 14
-104 9 24 4 -66 -54 -68 -28
25 -9 -99 -26 36 -29 -11 -8
11 -4 0 -104 58 -43 -22 36
-33 54 -33 37 -5 21 78 35
21 -17 38 35 -50 17 -43 26
1 33 -16 -53 -10 39 17 59
-62 80 -18 -1 17 -127 0 64
-37 3 -2 -1 -44 9 -7 -79
98 -13 -8 -85 8 78 -46 10
-20 94 74 -16 -44 -9 90 55
00000000: b8d9 e821 ce1d 09e9 6507 ab50 56a6 c0f5
00000010: 440e 02ac eaee 33fd 7f12 d6a1 d20e d2e1
00000020: f026 0c58 dff3 ff5e d523 f252 09e8 e4db
00000030: 00fc 3316 fd83 4f17 93ca bba7 1032 e5d2
00000040: be2f 41fa c1d0 4ac2 4641 ccc0 bb1c 15f1
00000050: 220c f22d d299 dace af7f 0c1d c9d6 dc26
00000060: e312 05f6 4003 fc5a 13e8 e9f6 08f2 0f0b
00000070: 42c1 294b be26 45bc e7e2 fa64 cb43 052a
00000080: 00ec ec8e 343b 0aa3 24f4 e917 e6d9 7fab
00000090: 3fc1 eab1 0a4a 810c 1204 ab21 951a c40d
000000a0: abc6 2610 3d20 f3cf ed1b c42d f3e0 600e
000000b0: 9809 1804 beca bce4 19f7 9de6 24e3 f5f8
000000c0: 0bfc 0098 3ad5 ea24 df36 df25 fb15 4e23
000000d0: 15ef 2623 ce11 d51a 0121 f0cb f627 113b
000000e0: c250 eeff 1181 0040 db03 feff d409 f9b1
000000f0: 62f3 f8ab 084e d20a ec5e 4af0 d4f7 5a37

model_1/705/Conv2D i1 [48, 1, 1, 144]
5 16 6 0 21 42 34 45
-33 -7 -17 -7 -5 -6 48 64
-18 54 2 -3 -1 -12 -2 51
115 -55 32 -21 72 -58 37 6
-97 -102 -13 42 -22 -26 2 21
-60 105 -16 59 83 -63 15 -70
42 33 57 28 -16 -47 0 34
-44 -32 -46 -74 38 57 66 -53
-37 -54 20 26 -46 73 -54 84
-43 56 113 114 -19 35 15 28
45 -127 45 31 -57 7 -25 72
20 9 -52 8 55 61 -11 59
37 13 -35 114 -78 18 15 3
43 9 35 16 15 -77 -12 50
50 -88 -1 6 11 -34 -8 45
73 60 18 -6 -5 6 -38 -21
55 -6 -58 -43 31 -12 44 39
-27 -29 11 19 -56 -11 104 74
-16 112 22 76 15 -20 -43 36
-54 4 11 10 -45 25 9 59
48 46 88 38 -13 -12 -58 -1
-31 -15 61 -38 -82 10 -44 2
-19 31 96 16 -39 -56 26 22
-56 -36 30 -39 -82 -82 3 41
-19 11 -65 -20 58 2 43 45
6 -12 57 -112 -19 -29 52 79
-28 -56 4 -87 39 64 15 22
28 1 -29 -28 -45 6 -11 -52
-28 -13 17 -5 101 49 60 -18
-80 -92 -35 -9 -55 -19 36 -11
18 -24 73 2 52 20 -45 48
-115 35 52 12 3 -47 12 -18
00000000: 0510 0600 152a 222d dff9 eff9 fbfa 3040
00000010: ee36 02fd fff4 fe33 73c9 20eb 48c6 2506
00000020: 9f9a f32a eae6 0215 c469 f03b 53c1 0fba
00000030: 2a21 391c f0d1 0022 d4e0 d2b6 2639 42cb
00000040: dbca 141a d249 ca54 d538 7172 ed23 0f1c
00000050: 2d81 2d1f c707 e748 1409 cc08 373d f53b
00000060: 250d dd72 b212 0f03 2b09 2310 0fb3 f432
00000070: 32a8 ff06 0bde f82d 493c 12fa fb06 daeb
00000080: 37fa c6d5 1ff4 2c27 e5e3 0b13 c8f5 684a
00000090: f070 164c 0fec d524 ca04 0b0a d319 093b
000000a0: 302e 5826 f3f4 c6ff e1f1 3dda ae0a d402
000000b0: ed1f 6010 d9c8 1a16 c8dc 1ed9 aeae 0329
000000c0: ed0b bfec 3a02 2b2d 06f4 3990 ede3 344f
000000d0: e4c8 04a9 2740 0f16 1c01 e3e4 d306 f5cc
000000e0: e4f3 11fb 6531 3cee b0a4 ddf7 c9ed 24f5
000000f0: 12e8 4902 3414 d330 8d23 340c 03d1 0cee

model_1/702/depthwise i1 [1, 5, 5, 144]
11 -30 16 42 -42 -74 11 5
51 1 -127 127 70 -26 -116 26
-43 127 98 -4 -20 -9 127 15
-73 19 25 -60 25 -12 66 35
20 -23 -28 -16 31 -111 63 24
42 18 -29 104 38 120 14 -44
50 -6 -127 23 81 9 4 65
31 -98 -95 -15 2 -98 -91 -49
-49 39 41 -31 102 -28 15 46
2 73 66 -73 45 -127 -12 30
-2 -34 -127 50 -27 2 21 -49
65 -49 21 -37 -58 -81 111 -14
127 -109 -127 -33 19 127 114 -74
29 5 -108 -51 50 -22 -23 116
28 -12 -47 -26 66 35 63 66
-62 -68 16 18 -69 -29 -109 65
-10 56 2 -36 48 -10 -18 -14
-6 10 -14 -74 52 70 -58 -73
18 -46 -81 -26 -11 114 -18 -21
-22 2 -68 -48 39 0 65 -116
67 -47 124 -23 60 -63 -35 -34
4 -92 41 9 23 41 33 -30
-34 41 -53 -15 -127 127 71 0
-21 -41 -124 -111 3 -19 104 46
-11 84 -31 32 -60 33 -34 -10
-9 -126 70 46 -14 120 84 -11
43 -55 -6 -32 63 -13 -45 23
-42 81 13 -57 -89 17 10 41
21 2 50 50 -120 18 40 -17
-8 18 2 -7 91 -36 -10 38
57 -33 -10 127 -8 -58 -6 -30
7 -2 109 -18 -44 63 21 -82
00000000: 0be2 102a d6b6 0b05 3301 817f 46e6 8c1a
00000010: d57f 62fc ecf7 7f0f b713 19c4 19f4 4223
00000020: 14e9 e4f0 1f91 3f18 2a12 e368 2678 0ed4
00000030: 32fa 8117 5109 0441 1f9e a1f1 029e a5cf
00000040: cf27 29e1 66e4 0f2e 0249 42b7 2d81 f41e
00000050: fede 8132 e502 15cf 41cf 15db c6af 6ff2
00000060: 7f93 81df 137f 72b6 1d05 94cd 32ea e974
00000070: 1cf4 d1e6 4223 3f42 c2bc 1012 bbe3 9341
00000080: f638 02dc 30f6 eef2 fa0a f2b6 3446 c6b7
00000090: 12d2 afe6 f572 eeeb ea02 bcd0 2700 418c
000000a0: 43d1 7ce9 3cc1 ddde 04a4 2909 1729 21e2
000000b0: de29 cbf1 817f 4700 ebd7 8491 03ed 682e
000000c0: f554 e120 c421 def6 f782 462e f278 54f5
000000d0: 2bc9 fae0 3ff3 d317 d651 0dc7 a711 0a29
000000e0: 1502 3232 8812 28ef f812 02f9 5bdc f626
000000f0: 39df f67f f8c6 fae2 07fe 6dee d43f 15ae

model_1/699/Conv2D i1 [144, 1, 1, 48]
-17 -16 4 69 21 34 -32 -24
37 0 12 23 90 -63 -42 -9
-54 127 -38 12 -61 -24 -4 0
-45 74 -95 -9 37 51 18 -64
-51 49 -20 -13 44 12 -43 6
12 39 -70 -10 -26 -38 -11 37
-31 -65 -20 -22 44 103 -41 20
-47 17 1 -17 33 -46 -50 -59
16 -42 8 -1 -30 -2 53 -49
50 -30 -13 59 22 48 -8 -40
48 0 -18 -55 -21 -18 -12 -61
51 16 26 127 -60 17 6 -61
48 78 62 -80 -36 -38 84 7
-92 25 127 -2 62 -7 3 27
-39 4 -83 10 39 -31 -90 -43
25 45 56 -76 -68 -18 54 -43
-100 37 -22 30 -54 4 -74 62
43 -33 -36 -34 34 -20 -37 35
-9 -61 -48 127 14 -27 3 104
54 47 26 2 -58 21 29 -74
-70 23 21 -25 -96 52 -29 14
44 10 -34 11 -28 16 27 -56
-12 38 55 -34 40 44 -9 -43
49 8 -56 16 116 -24 24 -44
5 50 23 -68 -86 33 -67 -23
-35 54 127 25 -61 -33 24 -42
33 -29 32 0 -15 -74 31 -34
-61 -18 -41 5 66 14 -32 64
43 120 72 -32 28 2 -26 11
-115 -7 -67 -89 86 17 34 9
78 -14 -127 19 18 -53 78 125
-63 -3 26 -16 60 -2 -1 54
00000000: eff0 0445 1522 e0e8 2500 0c17 5ac1 d6f7
00000010: ca7f da0c c3e8 fc00 d34a a1f7 2533 12c0
00000020: cd31 ecf3 2c0c d506 0c27 baf6 e6da f525
00000030: e1bf ecea 2c67 d714 d111 01ef 21d2 cec5
00000040: 10d6 08ff e2fe 35cf 32e2 f33b 1630 f8d8
00000050: 3000 eec9 ebee f4c3 3310 1a7f c411 06c3
00000060: 304e 3eb0 dcda 5407 a419 7ffe 3ef9 031b
00000070: d904 ad0a 27e1 a6d5 192d 38b4 bcee 36d5
00000080: 9c25 ea1e ca04 b63e 2bdf dcde 22ec db23
00000090: f7c3 d07f 0ee5 0368 362f 1a02 c615 1db6
000000a0: ba17 15e7 a034 e30e 2c0a de0b e410 1bc8
000000b0: f426 37de 282c f7d5 3108 c810 74e8 18d4
000000c0: 0532 17bc aa21 bde9 dd36 7f19 c3df 18d6
000000d0: 21e3 2000 f1b6 1fde c3ee d705 420e e040
000000e0: 2b78 48e0 1c02 e60b 8df9 bda7 5611 2209
000000f0: 4ef2 8113 12cb 4e7d c1fd 1af0 3cfe ff36

model_1/696/Conv2D i1 [48, 1, 1, 48]
-67 -32 -4 43 -1 39 23 31
-67 -68 70 -10 -28 -9 -8 88
4 0 8 94 74 -19 127 53
29 3 -1 45 111 -20 34 54
-27 -11 6 -15 -4 81 20 40
-17 48 19 -7 46 -15 19 20
91 -13 112 20 44 -8 -127 70
14 -9 50 13 29 -2 -13 34
65 12 -53 28 8 -15 42 36
-57 -44 28 18 -7 21 -17 55
20 -53 14 28 66 84 -59 -58
47 -68 -40 42 32 67 59 -36
-110 56 47 41 70 -61 -5 -59
-16 -127 -31 -21 -28 2 -69 54
111 -22 64 -113 -18 -34 36 -35
-82 -55 -31 -37 -8 -5 -17 -23
-19 -86 2 7 -55 -4 -51 70
49 -6 52 -67 -99 0 49 31
-127 49 -18 -11 5 45 -69 -9
14 -56 -52 -65 -3 11 49 -12
12 -1 -63 -106 -34 -80 35 -1
48 -21 -33 -30 53 85 17 -52
-13 -47 -44 20 -40 8 23 8
0 -17 -26 -61 29 56 -24 -98
-30 -35 -10 53 71 58 46 45
-50 -26 -6 64 41 -45 41 -14
15 40 72 -9 -59 45 -11 -6
-51 -82 -23 31 -3 -33 10 24
63 -62 40 -44 36 -37 -39 -59
127 52 60 4 -37 -30 45 68
-79 -59 -71 67 -29 11 -75 67
-40 112 26 -66 42 48 4 -52
00000000: bde0 fc2b ff27 171f bdbc 46f6 e4f7 f858
00000010: 0400 085e 4aed 7f35 1d03 ff2d 6fec 2236
00000020: e5f5 06f1 fc51 1428 ef30 13f9 2ef1 1314
00000030: 5bf3 7014 2cf8 8146 0ef7 320d 1dfe f322
00000040: 410c cb1c 08f1 2a24 c7d4 1c12 f915 ef37
00000050: 14cb 0e1c 4254 c5c6 2fbc d82a 2043 3bdc
00000060: 9238 2f29 46c3 fbc5 f081 e1eb e402 bb36
00000070: 6fea 408f eede 24dd aec9 e1db f8fb efe9
00000080: edaa 0207 c9fc cd46 31fa 34bd 9d00 311f
00000090: 8131 eef5 052d bbf7 0ec8 ccbf fd0b 31f4
000000a0: 0cff c196 deb0 23ff 30eb dfe2 3555 11cc
000000b0: f3d1 d414 d808 1708 00ef e6c3 1d38 e89e
000000c0: e2dd f635 473a 2e2d cee6 fa40 29d3 29f2
000000d0: 0f28 48f7 c52d f5fa cdae e91f fddf 0a18
000000e0: 3fc2 28d4 24db d9c5 7f34 3c04 dbe2 2d44
000000f0: b1c5 b943 e30b b543 d870 1abe 2a30 04cc

model_1/693/depthwise i1 [1, 5, 5, 48]
-9 -70 41 -30 73 -79 28 16
15 7 -80 18 -10 35 38 46
-18 5 60 -15 75 -22 34 -50
7 -20 -84 -8 -58 1 -2 82
-24 56 73 -39 127 -10 -110 46
-97 90 -110 -93 -17 -112 -37 -5
-6 -47 -62 48 50 79 8 22
40 35 127 70 37 107 -44 -41
-31 -34 -103 -51 -1 -19 29 122
-8 19 -10 23 -10 80 29 4
-21 -11 -36 33 -7 -3 20 -22
13 -42 -55 -87 40 54 47 -53
7 -37 127 42 28 -104 61 23
-19 -5 7 -127 -13 34 -5 32
94 -44 -83 27 36 60 -127 49
-26 80 42 -38 63 85 -73 11
-44 127 -108 -112 26 32 -2 34
-39 41 -10 60 48 13 83 -44
21 32 -8 84 27 84 78 -34
46 11 -71 1 -48 -127 -46 -40
-34 -3 12 -49 65 90 108 -30
-53 72 -21 38 39 -33 -56 -6
-6 -39 -108 -69 6 -41 7 52
-6 -127 -53 -30 -10 69 -94 24
-71 84 -45 122 -127 51 13 5
-77 -107 17 -4 -51 48 127 -26
-16 -25 94 6 96 22 21 -59
73 -10 -69 31 -59 25 -6 -85
-111 -98 -95 52 25 15 56 -1
27 -90 26 -22 38 48 10 -23
-36 -51 7 -32 38 -1 -127 -71
-44 58 50 -32 17 -10 -14 16
00000000: f7ba 29e2 49b1 1c10 0f07 b012 f623 262e
00000010: ee05 3cf1 4bea 22ce 07ec acf8 c601 fe52
00000020: e838 49d9 7ff6 922e 9f5a 92a3 ef90 dbfb
00000030: fad1 c230 324f 0816 2823 7f46 256b d4d7
00000040: e1de 99cd ffed 1d7a f813 f617 f650 1d04
00000050: ebf5 dc21 f9fd 14ea 0dd6 c9a9 2836 2fcb
00000060: 07db 7f2a 1c98 3d17 edfb 0781 f322 fb20
00000070: 5ed4 ad1b 243c 8131 e650 2ada 3f55 b70b
00000080: d47f 9490 1a20 fe22 d929 f63c 300d 53d4
00000090: 1520 f854 1b54 4ede 2e0b b901 d081 d2d8
000000a0: defd 0ccf 415a 6ce2 cb48 eb26 27df c8fa
000000b0: fad9 94bb 06d7 0734 fa81 cbe2 f645 a218
000000c0: b954 d37a 8133 0d05 b395 11fc cd30 7fe6
000000d0: f0e7 5e06 6016 15c5 49f6 bb1f c519 faab
000000e0: 919e a134 190f 38ff 1ba6 1aea 2630 0ae9
000000f0: dccd 07e0 26ff 81b9 d43a 32e0 11f6 f210

model_1/690/Conv2D i1 [48, 1, 1, 48]
31 30 79 -60 -49 -29 86 -27
107 35 -8 -44 -7 -50 10 43
-65 21 46 5 -8 91 18 100
-92 -82 -127 78 60 -51 -96 72
-54 -69 21 -79 -61 83 21 -71
-43 -49 -25 -21 5 69 -34 -76
9 -40 -12 66 -4 -26 -51 -46
-7 10 52 30 41 22 86 -40
-59 -35 -9 -28 60 12 -83 71
17 -101 78 -43 -59 43 -43 102
5 -18 104 -73 -50 27 98 32
127 102 20 0 -32 39 -59 -1
-37 -47 34 6 29 18 35 14
14 66 -21 -22 2 -16 2 9
60 7 -111 2 -43 -7 13 -28
43 -39 -7 -38 16 -34 13 79
-19 109 77 -30 -28 -2 127 20
1 -13 -62 -24 96 -5 -24 -18
-49 -35 -38 -16 -28 24 39 23
13 105 -1 -14 -34 -104 -42 53
-11 127 76 3 15 82 8 -17
-62 -1 -3 -9 -69 -54 -29 -26
31 -36 -61 40 46 0 2 -21
-119 -7 -30 -15 -6 -108 67 -77
19 -21 12 -17 -48 73 34 2
78 -87 68 -88 58 -93 -28 -31
5 -9 -29 -68 -127 70 6 99
92 -46 -56 35 77 35 -2 -54
29 101 40 -47 -100 -23 -3 -47
-6 -54 54 62 41 -10 98 10
-30 34 -34 -15 -47 41 20 -39
31 -73 77 -52 127 34 61 2
00000000: 1f1e 4fc4 cfe3 56e5 6b23 f8d4 f9ce 0a2b
00000010: bf15 2e05 f85b 1264 a4ae 814e 3ccd a048
00000020: cabb 15b1 c353 15b9 d5cf e7eb 0545 deb4
00000030: 09d8 f442 fce6 cdd2 f90a 341e 2916 56d8
00000040: c5dd f7e4 3c0c ad47 119b 4ed5 c52b d566
00000050: 05ee 68b7 ce1b 6220 7f66 1400 e027 c5ff
00000060: dbd1 2206 1d12 230e 0e42 ebea 02f0 0209
00000070: 3c07 9102 d5f9 0de4 2bd9 f9da 10de 0d4f
00000080: ed6d 4de2 e4fe 7f14 01f3 c2e8 60fb e8ee
00000090: cfdd daf0 e418 2717 0d69 fff2 de98 d635
000000a0: f57f 4c03 0f52 08ef c2ff fdf7 bbca e3e6
000000b0: 1fdc c328 2e00 02eb 89f9 e2f1 fa94 43b3
000000c0: 13eb 0cef d049 2202 4ea9 44a8 3aa3 e4e1
000000d0: 05f7 e3bc 8146 0663 5cd2 c823 4d23 feca
000000e0: 1d65 28d1 9ce9 fdd1 faca 363e 29f6 620a
000000f0: e222 def1 d129 14d9 1fb7 4dcc 7f22 3d02

model_1/687/depthwise i1 [1, 3, 3, 48]
122 -40 -29 15 -13 14 40 11
-4 51 -13 61 -14 -7 8 -2
-14 79 126 83 -25 127 53 -32
48 69 -19 38 -100 70 -31 127
1 127 9 -104 -32 35 2 127
19 83 127 -122 25 15 -53 -15
11 32 69 -46 -30 -97 -127 64
57 100 70 -127 -38 44 77 -62
79 5 -115 -52 -42 73 55 23
-51 -74 95 54 60 -39 14 -17
127 -1 -3 47 -71 57 -96 44
28 12 0 -92 39 -120 -72 -26
56 -26 -58 27 51 46 56 -127
-12 -73 -44 20 90 -58 -3 -127
-127 90 -127 56 10 52 -21 16
-58 81 -102 -53 -127 -26 127 -6
-58 -30 -24 -48 19 26 48 79
19 -3 -53 -113 23 -77 -83 19
95 13 -13 4 -41 105 5 65
-57 24 16 120 45 127 75 1
39 -127 -52 -75 60 53 44 -42
127 -124 -127 123 -47 -32 49 -25
94 70 -91 -127 -60 67 22 -6
-4 50 4 -84 -115 127 -9 -15
27 53 -45 -1 -46 47 21 1
45 8 -127 46 -3 -55 -37 -116
53 69 -20 41 -127 56 -42 -127
44 -45 82 16 91 14 -7 -15
-99 20 -89 -56 -47 37 -127 110
103 127 13 -19 -11 -68 -81 -45
21 -38 24 -57 33 57 60 -22
127 90 -121 114 -127 -47 8 37
00000000: 7ad8 e30f f30e 280b fc33 f33d f2f9 08fe
00000010: f24f 7e53 e77f 35e0 3045 ed26 9c46 e17f
00000020: 017f 0998 e023 027f 1353 7f86 190f cbf1
00000030: 0b20 45d2 e29f 8140 3964 4681 da2c 4dc2
00000040: 4f05 8dcc d649 3717 cdb6 5f36 3cd9 0eef
00000050: 7fff fd2f b939 a02c 1c0c 00a4 2788 b8e6
00000060: 38e6 c61b 332e 3881 f4b7 d414 5ac6 fd81
00000070: 815a 8138 0a34 eb10 c651 9acb 81e6 7ffa
00000080: c6e2 e8d0 131a 304f 13fd cb8f 17b3 ad13
00000090: 5f0d f304 d769 0541 c718 1078 2d7f 4b01
000000a0: 2781 ccb5 3c35 2cd6 7f84 817b d1e0 31e7
000000b0: 5e46 a581 c443 16fa fc32 04ac 8d7f f7f1
000000c0: 1b35 d3ff d22f 1501 2d08 812e fdc9 db8c
000000d0: 3545 ec29 8138 d681 2cd3 5210 5b0e f9f1
000000e0: 9d14 a7c8 d125 816e 677f 0ded f5bc afd3
000000f0: 15da 18c7 2139 3cea 7f5a 8772 81d1 0825

model_1/684/Conv2D i1 [48, 1, 1, 192]
-15 -33 -34 42 -50 16 11 27
61 24 -15 72 110 26 23 -11
-15 -22 -57 17 -16 22 25 17
-23 25 -39 -46 -35 -41 13 22
-66 60 40 2 -15 5 -127 2
-22 -32 10 -27 5 12 20 -13
38 25 70 4 -63 -15 29 81
-58 18 -69 -31 18 -23 -15 -40
17 12 96 -3 15 34 -10 15
17 38 -39 0 73 53 32 34
-23 -88 25 -5 -17 -51 -47 -36
-4 -33 -46 -4 34 -17 -14 -24
-34 -19 5 -19 69 44 55 -62
11 33 -14 8 -10 -36 56 60
26 -45 37 -31 -6 37 -72 55
8 -26 -25 20 -50 11 46 -47
-96 -74 18 -2 49 8 0 -28
43 -8 26 -17 37 45 -5 15
45 64 -11 -2 -3 -95 -4 68
38 10 -5 44 22 7 -33 2
44 -46 8 18 88 -69 -53 25
30 -41 8 -5 -27 -43 87 -47
-23 0 51 -13 33 17 21 -15
-13 11 58 -56 41 -12 -34 9
-33 64 17 66 23 -14 15 -23
-29 -14 -15 -36 -10 -33 -44 -27
-68 -7 -3 2 3 45 77 37
66 56 -49 -20 48 49 -63 112
-78 24 41 19 60 -20 -12 -11
23 -5 78 -25 41 -19 54 36
-56 21 -21 -34 -10 -27 -1 5
-41 18 -21 62 57 30 -4 -23
00000000: f1df de2a ce10 0b1b 3d18 f148 6e1a 17f5
00000010: f1ea c711 f016 1911 e919 d9d2 ddd7 0d16
00000020: be3c 2802 f105 8102 eae0 0ae5 050c 14f3
00000030: 2619 4604 c1f1 1d51 c612 bbe1 12e9 f1d8
00000040: 110c 60fd 0f22 f60f 1126 d900 4935 2022
00000050: e9a8 19fb efcd d1dc fcdf d2fc 22ef f2e8
00000060: deed 05ed 452c 37c2 0b21 f208 f6dc 383c
00000070: 1ad3 25e1 fa25 b837 08e6 e714 ce0b 2ed1
00000080: a0b6 12fe 3108 00e4 2bf8 1aef 252d fb0f
00000090: 2d40 f5fe fda1 fc44 260a fb2c 1607 df02
000000a0: 2cd2 0812 58bb cb19 1ed7 08fb e5d5 57d1
000000b0: e900 33f3 2111 15f1 f30b 3ac8 29f4 de09
000000c0: df40 1142 17f2 0fe9 e3f2 f1dc f6df d4e5
000000d0: bcf9 fd02 032d 4d25 4238 cfec 3031 c170
000000e0: b218 2913 3cec f4f5 17fb 4ee7 29ed 3624
000000f0: c815 ebde f6e5 ff05 d712 eb3e 391e fce9

model_1/681/depthwise i1 [1, 5, 5, 192]
64 3 16 15 -97 41 23 0
-48 17 48 42 84 -2 61 78
-6 34 64 51 -31 -105 82 31
47 -9 -87 37 -37 -52 38 28
-23 20 -7 -79 -36 -7 -67 66
42 -4 -100 -46 -37 41 24 -9
41 -1 -26 -58 -95 -9 -120 -34
-62 23 -77 73 -14 -69 4 30
-9 -18 -40 16 -99 -8 -77 -40
-41 -45 -9 -52 -45 1 34 -48
54 53 29 58 65 -23 -67 32
6 -59 14 -20 32 -47 -15 22
-115 -69 -39 84 -2 119 28 -11
-34 -61 57 -57 -23 -81 47 17
76 14 -24 -28 111 36 -63 101
13 -10 -24 119 -15 -22 -55 74
29 33 -5 -58 64 12 85 77
-2 -28 -67 -10 -127 -122 -22 -68
13 -12 -13 -126 -40 61 -5 -122
-106 14 -107 -13 -12 -44 46 -29
-5 -16 29 -69 -49 -22 48 -22
10 -50 8 -104 102 28 78 -106
127 -55 -101 42 31 -30 -32 14
71 28 38 -3 -27 71 -67 29
-8 -17 -76 122 10 35 81 7
-24 17 20 49 89 5 25 93
9 68 -40 10 -7 -12 3 -8
17 -27 28 127 -4 21 40 82
43 62 7 91 79 72 57 42
45 -85 1 17 30 -21 -19 10
-54 1 105 61 -18 -95 -67 7
16 -11 19 27 26 54 61 -34
00000000: 4003 100f 9f29 1700 d011 302a 54fe 3d4e
00000010: fa22 4033 e197 521f 2ff7 a925 dbcc 261c
00000020: e914 f9b1 dcf9 bd42 2afc 9cd2 db29 18f7
00000030: 29ff e6c6 a1f7 88de c217 b349 f2bb 041e
00000040: f7ee d810 9df8 b3d8 d7d3 f7cc d301 22d0
00000050: 3635 1d3a 41e9 bd20 06c5 0eec 20d1 f116
00000060: 8dbb d954 fe77 1cf5 dec3 39c7 e9af 2f11
00000070: 4c0e e8e4 6f24 c165 0df6 e877 f1ea c94a
00000080: 1d21 fbc6 400c 554d fee4 bdf6 8186 eabc
00000090: 0df4 f382 d83d fb86 960e 95f3 f4d4 2ee3
000000a0: fbf0 1dbb cfea 30ea 0ace 0898 661c 4e96
000000b0: 7fc9 9b2a 1fe2 e00e 471c 26fd e547 bd1d
000000c0: f8ef b47a 0a23 5107 e811 1431 5905 195d
000000d0: 0944 d80a f9f4 03f8 11e5 1c7f fc15 2852
000000e0: 2b3e 075b 4f48 392a 2dab 0111 1eeb ed0a
000000f0: ca01 693d eea1 bd07 10f5 131b 1a36 3dde

model_1/678/Conv2D i1 [192, 1, 1, 32]
51 5 -5 -92 -8 -65 -63 39
-47 122 28 -118 81 -34 -2 9
31 -90 124 16 -97 -56 -18 -127
22 -19 -34 -93 75 45 -22 7
22 -9 54 37 -15 -113 21 4
28 -108 -90 41 -95 2 -4 -3
-17 28 42 127 77 7 46 -44
43 -14 22 -1 -14 -47 -79 2
34 -55 -33 -36 -26 -42 37 -37
-16 12 79 50 -19 -4 -54 -45
-8 -77 41 -34 49 87 32 -52
-21 -2 -3 32 -16 -66 35 127
-12 12 -36 -60 41 40 -50 6
-36 -3 98 2 26 7 41 -52
77 48 7 95 41 79 26 10
13 -45 -8 1 127 -30 -66 -3
-69 -92 -90 16 -8 -66 22 -88
127 78 25 -1 -12 16 -58 48
-29 23 -83 110 -61 81 -14 66
5 -28 -8 69 121 103 -23 61
-67 -38 -21 -32 44 56 -37 125
-125 -28 -55 -29 5 15 16 -5
21 -18 -21 127 42 -39 -45 -97
-19 30 -16 -10 -83 69 62 7
22 40 55 -24 18 -47 -61 -126
-115 19 -18 -12 34 127 126 78
-21 84 -59 42 62 -74 120 -12
92 -87 39 16 54 -54 -2 15
-61 -1 -52 11 79 6 34 -15
-13 12 29 58 32 -81 6 18
-6 -4 -94 -35 -16 -31 72 59
1 -17 116 34 15 -34 -81 127
00000000: 3305 fba4 f8bf c127 d17a 1c8a 51de fe09
00000010: 1fa6 7c10 9fc8 ee81 16ed dea3 4b2d ea07
00000020: 16f7 3625 f18f 1504 1c94 a629 a102 fcfd
00000030: ef1c 2a7f 4d07 2ed4 2bf2 16ff f2d1 b102
00000040: 22c9 dfdc e6d6 25db f00c 4f32 edfc cad3
00000050: f8b3 29de 3157 20cc ebfe fd20 f0be 237f
00000060: f40c dcc4 2928 ce06 dcfd 6202 1a07 29cc
00000070: 4d30 075f 294f 1a0a 0dd3 f801 7fe2 befd
00000080: bba4 a610 f8be 16a8 7f4e 19ff f410 c630
00000090: e317 ad6e c351 f242 05e4 f845 7967 e93d
000000a0: bdda ebe0 2c38 db7d 83e4 c9e3 050f 10fb
000000b0: 15ee eb7f 2ad9 d39f ed1e f0f6 ad45 3e07
000000c0: 1628 37e8 12d1 c382 8d13 eef4 227f 7e4e
000000d0: eb54 c52a 3eb6 78f4 5ca9 2710 36ca fe0f
000000e0: c3ff cc0b 4f06 22f1 f30c 1d3a 20af 0612
000000f0: fafc a2dd f0e1 483b 01ef 7422 0fde af7f

model_1/675/Conv2D i1 [32, 1, 1, 96]
35 -43 53 40 -49 -11 19 -38
61 -26 50 14 6 -16 21 64
-31 -48 8 -8 -28 -67 51 -30
-32 -29 -55 15 -114 39 -9 -82
31 -20 -67 -127 63 -16 27 32
-16 -47 4 83 13 31 69 -49
-35 11 -32 11 -54 63 -33 12
-34 -23 24 -63 -36 -32 -8 -58
6 49 -36 0 -18 28 36 1
-21 48 -40 -37 35 -29 -68 -54
-35 -73 17 -38 30 -22 -5 68
14 -8 13 -71 -12 2 58 -10
0 33 -40 -49 -114 34 -8 -24
35 -81 30 -24 42 22 47 -57
51 -9 57 38 81 4 -10 -13
5 29 48 -59 18 -40 64 -36
25 -29 47 3 -65 59 -4 24
12 -31 -15 -14 86 -87 16 -112
-90 -2 -22 19 -36 71 16 -79
88 -10 127 -70 48 26 -56 3
71 -27 -74 -41 -39 5 -62 2
-1 10 -45 -3 10 -37 110 67
4 92 1 34 -15 -48 37 19
55 13 -65 120 -91 -18 41 70
2 -49 27 -18 76 60 6 -30
-14 0 27 108 -76 -45 -45 -79
-34 -14 6 38 15 51 -17 28
60 53 -69 -54 -19 -42 60 -21
75 -10 -58 -52 36 65 49 102
-42 -1 114 19 -34 1 24 46
-95 -22 -18 -39 103 43 81 5
69 -88 -37 -9 -24 -43 43 -35
00000000: 23d5 3528 cff5 13da 3de6 320e 06f0 1540
00000010: e1d0 08f8 e4bd 33e2 e0e3 c90f 8e27 f7ae
00000020: 1fec bd81 3ff0 1b20 f0d1 0453 0d1f 45cf
00000030: dd0b e00b ca3f df0c dee9 18c1 dce0 f8c6
00000040: 0631 dc00 ee1c 2401 eb30 d8db 23e3 bcca
00000050: ddb7 11da 1eea fb44 0ef8 0db9 f402 3af6
00000060: 0021 d8cf 8e22 f8e8 23af 1ee8 2a16 2fc7
00000070: 33f7 3926 5104 f6f3 051d 30c5 12d8 40dc
00000080: 19e3 2f03 bf3b fc18 0ce1 f1f2 56a9 1090
00000090: a6fe ea13 dc47 10b1 58f6 7fba 301a c803
000000a0: 47e5 b6d7 d905 c202 ff0a d3fd 0adb 6e43
000000b0: 045c 0122 f1d0 2513 370d bf78 a5ee 2946
000000c0: 02cf 1bee 4c3c 06e2 f200 1b6c b4d3 d3b1
000000d0: def2 0626 0f33 ef1c 3c35 bbca edd6 3ceb
000000e0: 4bf6 c6cc 2441 3166 d6ff 7213 de01 182e
000000f0: a1ea eed9 672b 5105 45a8 dbf7 e8d5 2bdd

model_1/672/depthwise i1 [1, 5, 5, 96]
-8 -1 71 -6 52 -24 57 -14
-12 67 21 -48 -58 12 -31 107
23 19 -17 117 -81 33 127 -19
14 -36 0 -26 -17 20 -42 58
8 -21 -24 33 -43 112 31 -39
70 -6 -74 -3 -34 99 35 -53
-60 -6 127 9 19 -72 102 64
23 -71 -78 -47 27 74 -21 -36
61 79 28 113 -71 -26 -27 50
61 -127 -37 -53 46 -65 -127 -76
79 51 -34 -18 119 33 18 -21
-55 -39 -108 -17 -30 65 39 47
0 -12 -43 -63 -12 -43 9 -10
20 -20 -125 -27 46 -32 4 -33
-28 -40 -74 44 -31 84 0 46
-14 20 77 64 -127 -127 -28 -7
-44 76 -19 35 92 -4 41 91
-27 -83 3 9 6 26 -75 -27
-37 81 26 4 35 79 -73 56
-127 40 12 25 -127 109 80 16
-58 -53 -12 36 -57 -63 102 48
6 -62 60 40 43 -104 2 46
-116 -65 52 -56 2 66 14 -127
13 -45 20 34 -109 -21 35 28
-13 112 54 -46 -48 -77 -6 25
13 16 97 30 -28 -16 127 -11
-77 47 121 -22 43 23 -39 15
-56 -3 84 -69 -6 32 -39 25
43 1 -97 -31 -59 -4 -37 127
-8 -15 60 13 3 82 42 -6
44 3 36 61 -62 63 -60 50
-30 14 -28 -13 95 47 36 -49
00000000: f8ff 47fa 34e8 39f2 f443 15d0 c60c e16b
00000010: 1713 ef75 af21 7fed 0edc 00e6 ef14 d63a
00000020: 08eb e821 d570 1fd9 46fa b6fd de63 23cb
00000030: c4fa 7f09 13b8 6640 17b9 b2d1 1b4a ebdc
00000040: 3d4f 1c71 b9e6 e532 3d81 dbcb 2ebf 81b4
00000050: 4f33 deee 7721 12eb c9d9 94ef e241 272f
00000060: 00f4 d5c1 f4d5 09f6 14ec 83e5 2ee0 04df
00000070: e4d8 b62c e154 002e f214 4d40 8181 e4f9
00000080: d44c ed23 5cfc 295b e5ad 0309 061a b5e5
00000090: db51 1a04 234f b738 8128 0c19 816d 5010
000000a0: c6cb f424 c7c1 6630 06c2 3c28 2b98 022e
000000b0: 8cbf 34c8 0242 0e81 0dd3 1422 93eb 231c
000000c0: f370 36d2 d0b3 fa19 0d10 611e e4f0 7ff5
000000d0: b32f 79ea 2b17 d90f c8fd 54bb fa20 d919
000000e0: 2b01 9fe1 c5fc db7f f8f1 3c0d 0352 2afa
000000f0: 2c03 243d c23f c432 e20e e4f3 5f2f 24cf

model_1/669/Conv2D i1 [96, 1, 1, 32]
-86 50 -65 -20 75 -9 -77 -30
-35 -66 4 29 39 -6 65 96
27 1 51 35 12 103 -38 25
-5 44 -5 2 -58 -28 -48 -127
13 36 -31 62 127 2 -12 -27
-81 17 4 -40 120 -10 -16 -79
-30 -26 -11 63 -36 78 82 33
-59 -16 23 -35 107 -10 -52 41
-47 -83 37 -62 -46 -29 -97 0
-32 38 127 41 13 62 -14 -27
-75 -7 -6 -27 -24 -45 7 -71
70 -49 8 -62 56 -32 42 -29
35 -10 -34 58 9 87 13 -56
58 -25 -89 -30 51 -35 -25 83
-20 -69 43 47 -52 105 34 -4
-72 69 -10 9 86 -99 -54 127
-18 14 42 49 -12 57 3 -51
62 -17 -11 53 68 -70 122 39
99 49 -118 -59 71 86 92 69
-127 -65 51 -92 8 12 -29 108
73 32 -38 -79 -32 -117 85 -75
77 40 -50 71 28 92 8 -31
-24 2 -52 -46 52 -32 14 73
87 -60 81 -68 -103 18 97 -127
-21 -26 13 8 -19 9 74 -127
65 -39 103 -16 -12 34 -45 10
14 5 -10 78 -23 -49 19 127
-13 -18 118 -23 -35 -32 29 -73
3 106 70 2 38 -47 11 -44
-12 -31 -106 -11 110 51 -127 -48
13 -47 -35 34 55 20 32 109
-20 -47 64 -63 9 -46 -9 28
00000000: aa32 bfec 4bf7 b3e2 ddbe 041d 27fa 4160
00000010: 1b01 3323 0c67 da19 fb2c fb02 c6e4 d081
00000020: 0d24 e13e 7f02 f4e5 af11 04d8 78f6 f0b1
00000030: e2e6 f53f dc4e 5221 c5f0 17dd 6bf6 cc29
00000040: d1ad 25c2 d2e3 9f00 e026 7f29 0d3e f2e5
00000050: b5f9 fae5 e8d3 07b9 46cf 08c2 38e0 2ae3
00000060: 23f6 de3a 0957 0dc8 3ae7 a7e2 33dd e753
00000070: ecbb 2b2f cc69 22fc b845 f609 569d ca7f
00000080: ee0e 2a31 f439 03cd 3eef f535 44ba 7a27
00000090: 6331 8ac5 4756 5c45 81bf 33a4 080c e36c
000000a0: 4920 dab1 e08b 55b5 4d28 ce47 1c5c 08e1
000000b0: e802 ccd2 34e0 0e49 57c4 51bc 9912 6181
000000c0: ebe6 0d08 ed09 4a81 41d9 67f0 f422 d30a
000000d0: 0e05 f64e e9cf 137f f3ee 76e9 dde0 1db7
000000e0: 036a 4602 26d1 0bd4 f4e1 96f5 6e33 81d0
000000f0: 0dd1 dd22 3714 206d ecd1 40c1 09d2 f71c

model_1/666/Conv2D i1 [32, 1, 1, 192]
28 80 -66 23 28 -52 -3 -58
-66 -19 39 -34 -14 -23 -50 27
-33 44 55 -25 -34 -47 0 -97
-14 84 -8 17 59 47 -33 -42
-29 14 -34 9 -25 -55 -12 -36
-6 -45 -74 -20 -4 -33 -25 -57
-12 30 6 27 33 98 -38 -109
6 60 -1 -77 26 16 -4 39
-19 -58 -14 -29 -10 -68 -15 33
42 5 -3 23 20 -5 -25 4
-16 19 40 23 113 28 -35 4
3 16 30 55 3 -101 33 -11
-27 -62 -33 -20 -59 38 -71 -67
63 3 -12 22 -59 -30 14 6
0 6 8 64 42 15 -58 12
87 -26 -5 40 -7 33 94 -59
-9 -19 -59 32 -59 -37 42 -15
-6 44 -49 65 52 70 -41 3
18 -69 5 -52 -76 10 -36 15
68 55 -15 31 41 59 9 -32
-64 -61 -32 -127 -5 46 17 -44
67 -19 -52 -12 76 -18 -9 -39
-63 -43 73 36 4 69 -6 -37
51 -105 43 -10 45 99 -20 40
37 5 -35 -8 4 5 -1 21
21 48 15 3 -51 -19 19 36
-12 -19 -30 4 -54 -68 17 39
15 58 -28 37 -50 31 23 51
5 -41 -52 21 4 10 -70 -40
43 -15 -4 62 14 14 -76 23
61 -14 -3 -40 9 69 27 58
85 16 37 -43 -19 -6 62 -30
00000000: 1c50 be17 1ccc fdc6 beed 27de f2e9 ce1b
00000010: df2c 37e7 ded1 009f f254 f811 3b2f dfd6
00000020: e30e de09 e7c9 f4dc fad3 b6ec fcdf e7c7
00000030: f41e 061b 2162 da93 063c ffb3 1a10 fc27
00000040: edc6 f2e3 f6bc f121 2a05 fd17 14fb e704
00000050: f013 2817 711c dd04 0310 1e37 039b 21f5
00000060: e5c2 dfec c526 b9bd 3f03 f416 c5e2 0e06
00000070: 0006 0840 2a0f c60c 57e6 fb28 f921 5ec5
00000080: f7ed c520 c5db 2af1 fa2c cf41 3446 d703
00000090: 12bb 05cc b40a dc0f 4437 f11f 293b 09e0
000000a0: c0c3 e081 fb2e 11d4 43ed ccf4 4cee f7d9
000000b0: c1d5 4924 0445 fadb 3397 2bf6 2d63 ec28
000000c0: 2505 ddf8 0405 ff15 1530 0f03 cded 1324
000000d0: f4ed e204 cabc 1127 0f3a e425 ce1f 1733
000000e0: 05d7 cc15 040a bad8 2bf1 fc3e 0e0e b417
000000f0: 3df2 fdd8 0945 1b3a 5510 25d5 edfa 3ee2
