mbv2_r64.tflite (tflite, 615976 bytes, 53 tensors)

model_1/output_0/MatMul i1 [2, 1280] scale=0.00022000006 zero_point=0
00000000: f46c bc91 2c48 1e6e 4e74 8535 86d0 764b
00000010: 62ca f0ee cd5f c715 c3e5 dd58 75c2 b8c2
00000020: ca96 3299 b943 ab62 0b86 42e4 47cf c02e
00000030: c00a 2416 0012 379a 714d c43e e54f 76db
00000040: bdc0 c683 d82c 66c6 ed46 497e 58b3 5bcb
00000050: 3259 e315 2642 e00f d5b0 4d06 bc4b b7b0
00000060: 26ad 3794 5ab3 2a82 d502 254a 89ae f1d5
00000070: 9d2b e27b 428c e0a7 5f97 fb8b 89a1 3e6b
00000080: 0099 0db1 a195 c605 1bd4 e994 c853 e01b
00000090: b45e 1af1 a2dc ed76 4e66 693c 9ff3 9606
000000a0: 8524 f974 e584 affa e42d 68d2 5f83 7502
000000b0: f3fb 295e eb46 139c a9a2 815e 8af3 35d1
000000c0: bab3 7de4 825b 1ed8 784b 0d52 eeb6 25a4
000000d0: 0688 f5d9 dd2f bf16 e1f5 3039 b528 3759
000000e0: b1e7 dfc9 5fea a5a6 7cc8 e2bf b45b fa46
000000f0: 0237 4d95 7e90 8e60 f4af 49c7 60e8 1133
-0.0026400008 0.023760006 -0.014960004 -0.024420006 0.009680003 0.015840005 0.006600002 0.024200007
0.017160004 0.025520006 -0.027060008 0.011660003 -0.026840007 -0.010560003 0.025960008 0.016500004
0.021560006 -0.011880003 -0.003520001 -0.0039600013 -0.0112200035 0.020900005 -0.012540003 0.004620001
-0.0134200035 -0.0059400015 -0.0077000023 0.019360006 0.025740007 -0.013640003 -0.015840005 -0.013640003
-0.011880003 -0.023320006 0.011000003 -0.022660006 -0.015620004 0.014740004 -0.018700005 0.021560006
0.0024200007 -0.026840007 0.014520004 -0.0061600017 0.015620004 -0.010780003 -0.014080004 0.010120003
-0.014080004 0.0022000007 0.007920003 0.0048400015 0.0 0.0039600013 0.012100004 -0.022440007
0.024860008 0.016940005 -0.013200004 0.013640003 -0.0059400015 0.017380005 0.025960008 -0.008140002
-0.014740004 -0.014080004 -0.012760003 -0.027500007 -0.008800003 0.009680003 0.022440007 -0.012760003
-0.004180001 0.015400005 0.016060004 0.027720008 0.019360006 -0.016940005 0.020020006 -0.011660003
0.011000003 0.019580005 -0.0063800015 0.004620001 0.008360002 0.014520004 -0.007040002 0.003300001
-0.009460002 -0.017600005 0.016940005 0.0013200004 -0.014960004 0.016500004 -0.016060004 -0.017600005
0.008360002 -0.018260006 0.012100004 -0.023760006 0.019800005 -0.016940005 0.009240002 -0.027720008
-0.009460002 0.00044000012 0.008140002 0.016280005 -0.026180007 -0.018040005 -0.003300001 -0.009460002
-0.021780007 0.009460002 -0.006600002 0.027060008 0.014520004 -0.025520006 -0.007040002 -0.019580005
0.020900005 -0.023100005 -0.0011000003 -0.025740007 -0.026180007 -0.020900005 0.013640003 0.023540007
0.0 -0.022660006 0.0028600008 -0.017380005 -0.020900005 -0.023540007 -0.012760003 0.0011000003
0.0059400015 -0.009680003 -0.0050600013 -0.023760006 -0.0123200035 0.018260006 -0.007040002 0.0059400015
-0.016720004 0.020680005 0.0057200016 -0.003300001 -0.020680005 -0.007920003 -0.004180001 0.025960008
0.017160004 0.022440007 0.023100005 0.013200004 -0.021340005 -0.0028600008 -0.023320006 0.0013200004
-0.027060008 0.007920003 -0.0015400004 0.025520006 -0.0059400015 -0.027280007 -0.017820004 -0.0013200004
-0.0061600017 0.009900003 0.022880007 -0.010120003 0.020900005 -0.027500007 0.025740007 0.00044000012
-0.0028600008 -0.0011000003 0.009020003 0.020680005 -0.004620001 0.015400005 0.004180001 -0.022000005
-0.019140005 -0.020680005 -0.027940007 0.020680005 -0.025960008 -0.0028600008 0.011660003 -0.010340002
-0.015400005 -0.016940005 0.027500007 -0.0061600017 -0.027720008 0.020020006 0.006600002 -0.008800003
0.026400007 0.016500004 0.0028600008 0.018040005 -0.0039600013 -0.016280005 0.008140002 -0.020240005
0.0013200004 -0.026400007 -0.0024200007 -0.008580002 -0.0077000023 0.010340002 -0.014300004 0.0048400015
-0.0068200016 -0.0024200007 0.010560003 0.012540003 -0.016500004 0.008800003 0.012100004 0.019580005
-0.017380005 -0.0055000014 -0.007260002 -0.012100004 0.020900005 -0.0048400015 -0.020020006 -0.019800005
0.027280007 -0.0123200035 -0.006600002 -0.014300004 -0.016720004 0.020020006 -0.0013200004 0.015400005
0.00044000012 0.012100004 0.016940005 -0.023540007 0.027720008 -0.024640007 -0.025080007 0.021120006
-0.0026400008 -0.017820004 0.016060004 -0.012540003 0.021120006 -0.0052800016 0.003740001 0.0112200035

model_1/168/Conv2D i1 [1280, 1, 1, 112]
00000000: 6cb6 8b3e 2c65 2352 0047 693c 2e5e 2793
00000010: 99fd 0fb3 2bc7 4485 b04e 850d bf58 1020
00000020: c7f9 c3b8 8f57 36ee 93d1 3a15 87c0 5384
00000030: 056c fa1b e69e 718f 7612 ee55 fae6 44ae
00000040: 56a9 03e7 fb9d 75a1 9da6 ec89 3c19 ae59
00000050: cd74 7d77 d32d b4aa bb49 4b77 c6c8 eb3c
00000060: 2cf8 817b 671f 8217 72d4 94d1 5d2c 279a
00000070: e446 54ad 3983 828b e24d d512 fd16 ffb9
00000080: c6c3 29b7 4b2d 7fd2 1081 08f3 ea02 0dc6
00000090: f547 7977 85aa a7d5 a157 d941 ad7f 2a5b
000000a0: 1f04 ae78 098b a587 9d43 40bf c513 7a5b
000000b0: e227 30d4 05a1 d800 eec7 4c24 3d83 bbbd
000000c0: b71c e160 3f10 47bb c399 1ef7 097e 9bab
000000d0: b8f8 3785 6dcb f769 d8b0 730c 0d3f a80b
000000e0: 67b4 47ae 3d8d d3fb e9a0 0317 6c63 c944
000000f0: e133 6e37 e4b2 1f17 a899 27af 64fd 8be9
108 -74 -117 62 44 101 35 82
0 71 105 60 46 94 39 -109
-103 -3 15 -77 43 -57 68 -123
-80 78 -123 13 -65 88 16 32
-57 -7 -61 -72 -113 87 54 -18
-109 -47 58 21 -121 -64 83 -124
5 108 -6 27 -26 -98 113 -113
118 18 -18 85 -6 -26 68 -82
86 -87 3 -25 -5 -99 117 -95
-99 -90 -20 -119 60 25 -82 89
-51 116 125 119 -45 45 -76 -86
-69 73 75 119 -58 -56 -21 60
44 -8 -127 123 103 31 -126 23
114 -44 -108 -47 93 44 39 -102
-28 70 84 -83 57 -125 -126 -117
-30 77 -43 18 -3 22 -1 -71
-58 -61 41 -73 75 45 127 -46
16 -127 8 -13 -22 2 13 -58
-11 71 121 119 -123 -86 -89 -43
-95 87 -39 65 -83 127 42 91
31 4 -82 120 9 -117 -91 -121
-99 67 64 -65 -59 19 122 91
-30 39 48 -44 5 -95 -40 0
-18 -57 76 36 61 -125 -69 -67
-73 28 -31 96 63 16 71 -69
-61 -103 30 -9 9 126 -101 -85
-72 -8 55 -123 109 -53 -9 105
-40 -80 115 12 13 63 -88 11
103 -76 71 -82 61 -115 -45 -5
-23 -96 3 23 108 99 -55 68
-31 51 110 55 -28 -78 31 23
-88 -103 39 -81 100 -3 -117 -23

model_1/167/Conv2D i1 [112, 1, 1, 336]
00000000: 1f0b 964f 9ce3 690a eee9 b7a6 3402 3cca
00000010: fc25 2829 7ee8 01b1 7ac0 189e c3ed cf41
00000020: c3e0 e9eb a498 dfa3 3c85 d279 8cd7 e791
00000030: 78ff 16a7 74b1 4832 d58e f1e1 6186 a01b
00000040: 4db0 4529 b857 cfc8 6221 bdf2 3259 3de8
00000050: 0179 8452 554c f057 a0bc fe70 fa7d 7fd3
00000060: b30a 5b03 208b 44ae 6d6d 6e8c ec22 595e
00000070: 0303 ac31 ed58 75f9 a846 9a56 9cc8 7024
00000080: 580f 37fe 335f 8b3b 6b10 b981 f5e1 e3ce
00000090: 85b3 90cd b494 3ff0 a7d7 8b8a d6ed 24d3
000000a0: e9ac 4c61 c051 1ac7 1a67 3432 641f 98e3
000000b0: 05a7 a81d cfcf 7242 6174 9dc9 88c5 55b2
000000c0: 3875 51ce 3a33 6579 0003 884f 6c63 cc56
000000d0: 9020 88fd db82 63e6 d8c7 612f 1818 92f1
000000e0: 949c 6a9f 7764 b70b 86a2 b4b9 d5c7 f83a
000000f0: f476 98b3 6557 c245 f044 fbeb 4d9e 266c
31 11 -106 79 -100 -29 105 10
-18 -23 -73 -90 52 2 60 -54
-4 37 40 41 126 -24 1 -79
122 -64 24 -98 -61 -19 -49 65
-61 -32 -23 -21 -92 -104 -33 -93
60 -123 -46 121 -116 -41 -25 -111
120 -1 22 -89 116 -79 72 50
-43 -114 -15 -31 97 -122 -96 27
77 -80 69 41 -72 87 -49 -56
98 33 -67 -14 50 89 61 -24
1 121 -124 82 85 76 -16 87
-96 -68 -2 112 -6 125 127 -45
-77 10 91 3 32 -117 68 -82
109 109 110 -116 -20 34 89 94
3 3 -84 49 -19 88 117 -7
-88 70 -102 86 -100 -56 112 36
88 15 55 -2 51 95 -117 59
107 16 -71 -127 -11 -31 -29 -50
-123 -77 -112 -51 -76 -108 63 -16
-89 -41 -117 -118 -42 -19 36 -45
-23 -84 76 97 -64 81 26 -57
26 103 52 50 100 31 -104 -29
5 -89 -88 29 -49 -49 114 66
97 116 -99 -55 -120 -59 85 -78
56 117 81 -50 58 51 101 121
0 3 -120 79 108 99 -52 86
-112 32 -120 -3 -37 -126 99 -26
-40 -57 97 47 24 24 -110 -15
-108 -100 106 -97 119 100 -73 11
-122 -94 -76 -71 -43 -57 -8 58
-12 118 -104 -77 101 87 -62 69
-16 68 -5 -21 77 -98 38 108

model_1/166/depthwise i1 [1, 3, 3, 336]
00000000: 3bf4 8f01 78e7 3b7a 8cd3 139d 83c8 79fd
00000010: 5713 90ac e934 f746 d2b5 e081 6ab2 c299
00000020: 8fc5 165e 1d00 69fb c6ec 63ef 1b51 bf15
00000030: 493c 3e6c b71c 7f81 1918 5913 9f7f 8174
00000040: 7563 c022 249c c31c 983f f176 e87d 5667
00000050: 787f f1ff 4f3a 24ea be4c 9f7c 860a 9b64
00000060: 1abe 816e 0c4b 7f56 9728 0cfb 2914 8161
00000070: 6d44 aa59 6a50 0233 18cf 137d 41b7 8120
00000080: d160 8181 8d22 6123 4eeb ab60 9b9e 7975
00000090: 6984 7f4c 16dc 0c7f 6d9c 267f 4ece ade1
000000a0: 27cf 316d ed9a 7e7f 61c2 815c ffce d88a
000000b0: 004f 82b3 8ab6 9b58 7f08 8b44 1110 8181
000000c0: b681 08af fa7f 2650 2003 ff70 3be4 2d6e
000000d0: 5ebf 58f7 3b75 363c b409 088a 1b53 dc95
000000e0: fd22 7f49 e737 def9 34a0 c92b 5e81 11a1
000000f0: 1e1a 1e23 c179 dbf3 0d54 317a 50b5 361d
59 -12 -113 1 120 -25 59 122
-116 -45 19 -99 -125 -56 121 -3
87 19 -112 -84 -23 52 -9 70
-46 -75 -32 -127 106 -78 -62 -103
-113 -59 22 94 29 0 105 -5
-58 -20 99 -17 27 81 -65 21
73 60 62 108 -73 28 127 -127
25 24 89 19 -97 127 -127 116
117 99 -64 34 36 -100 -61 28
-104 63 -15 118 -24 125 86 103
120 127 -15 -1 79 58 36 -22
-66 76 -97 124 -122 10 -101 100
26 -66 -127 110 12 75 127 86
-105 40 12 -5 41 20 -127 97
109 68 -86 89 106 80 2 51
24 -49 19 125 65 -73 -127 32
-47 96 -127 -127 -115 34 97 35
78 -21 -85 96 -101 -98 121 117
105 -124 127 76 22 -36 12 127
109 -100 38 127 78 -50 -83 -31
39 -49 49 109 -19 -102 126 127
97 -62 -127 92 -1 -50 -40 -118
0 79 -126 -77 -118 -74 -101 88
127 8 -117 68 17 16 -127 -127
-74 -127 8 -81 -6 127 38 80
32 3 -1 112 59 -28 45 110
94 -65 88 -9 59 117 54 60
-76 9 8 -118 27 83 -36 -107
-3 34 127 73 -25 55 -34 -7
52 -96 -55 43 94 -127 17 -95
30 26 30 35 -63 121 -37 -13
13 84 49 122 80 -75 54 29

model_1/165/Conv2D i1 [336, 1, 1, 56]
00000000: e3a4 5584 c43f 50f0 182e 7591 103c 3706
00000010: e22f 4a2d 6b2b d3d8 7f9d 63ce 1098 a086
00000020: 7ec1 48bd 18a2 a613 ca78 8f37 451e e19a
00000030: d637 372b cff9 a053 6331 4ee6 a4a0 cfc0
00000040: 4431 820f c5a7 32dd 066a b962 ad58 d49f
00000050: 286c 5799 7f46 22f0 ac9e 1c61 bf85 8e58
00000060: a3d4 fb55 5d79 fdf1 3934 0818 c46d c570
00000070: 2971 ab9e 0b42 2042 5a3d be9c 81e2 ab7c
00000080: 7d93 3da9 345e 51c4 4135 f8f2 cccb 0243
00000090: 9ba7 57cf 7ff6 8fff f50a afcd 66b2 c999
000000a0: d395 1d5d 0dfc 3ff9 20ef d5af 1431 2b3a
000000b0: e291 2a7c af35 5e05 29db f0ba e9d5 b0db
000000c0: a15f 9ac3 239b 7f30 54ff df81 9b7a 3ab4
000000d0: 9e75 4a8d 97c2 4f53 12fe d832 5a45 3c1f
000000e0: 4af3 6d7a 5993 5f9f 81ab a6f6 6e9e 3927
000000f0: 6a09 cb93 1cdc bd27 1189 344a 32c3 2f77
-29 -92 85 -124 -60 63 80 -16
24 46 117 -111 16 60 55 6
-30 47 74 45 107 43 -45 -40
127 -99 99 -50 16 -104 -96 -122
126 -63 72 -67 24 -94 -90 19
-54 120 -113 55 69 30 -31 -102
-42 55 55 43 -49 -7 -96 83
99 49 78 -26 -92 -96 -49 -64
68 49 -126 15 -59 -89 50 -35
6 106 -71 98 -83 88 -44 -97
40 108 87 -103 127 70 34 -16
-84 -98 28 97 -65 -123 -114 88
-93 -44 -5 85 93 121 -3 -15
57 52 8 24 -60 109 -59 112
41 113 -85 -98 11 66 32 66
90 61 -66 -100 -127 -30 -85 124
125 -109 61 -87 52 94 81 -60
65 53 -8 -14 -52 -53 2 67
-101 -89 87 -49 127 -10 -113 -1
-11 10 -81 -51 102 -78 -55 -103
-45 -107 29 93 13 -4 63 -7
32 -17 -43 -81 20 49 43 58
-30 -111 42 124 -81 53 94 5
41 -37 -16 -70 -23 -43 -80 -37
-95 95 -102 -61 35 -101 127 48
84 -1 -33 -127 -101 122 58 -76
-98 117 74 -115 -105 -62 79 83
18 -2 -40 50 90 69 60 31
74 -13 109 122 89 -109 95 -97
-127 -85 -90 -10 110 -98 57 39
106 9 -53 -109 28 -36 -67 39
17 -119 52 74 50 -61 47 119

model_1/163/Conv2D i1 [56, 1, 1, 336]
00000000: 58ec 3219 45ba bba8 f7b1 77ca 5995 9d0c
00000010: 548b 1057 65f0 2fdb 4f4e 1c9f 051a 03f4
00000020: 1acd a675 1f4d 5cb0 a66b dd2b 62c5 5aed
00000030: 0126 c40b e225 b727 c5fb 70d4 ce61 e57f
00000040: 1fd7 fae9 42dc 6267 3a1d f46c fe45 0665
00000050: 945d cb50 be93 0162 4265 6168 53e8 e925
00000060: 8b8b 69b2 487e 4beb a13e 9893 02b5 bba2
00000070: d32e 431b 2838 a1d4 4306 cef2 af52 f9e3
00000080: e771 10cf 54c0 efc3 0fcc b487 a81d 96a3
00000090: 5cdc 6643 4522 b0d0 5af6 8424 9a1e a40c
000000a0: f341 0ea1 8915 1388 c560 9981 479b e88f
000000b0: 5ecd bc85 6ebc ec3f dae6 5d6b cf1b ee6f
000000c0: b2e4 e8f3 730c 65cf 7a43 0166 95a0 f2d3
000000d0: dcc3 13b3 d193 bb89 99c0 d638 7aba d8d6
000000e0: fbff e76d 1ce6 736e 5613 652a 7ba8 c79e
000000f0: f15e c0d0 69ca fd2b 2d65 25d1 0a4f 89e7
88 -20 50 25 69 -70 -69 -88
-9 -79 119 -54 89 -107 -99 12
84 -117 16 87 101 -16 47 -37
79 78 28 -97 5 26 3 -12
26 -51 -90 117 31 77 92 -80
-90 107 -35 43 98 -59 90 -19
1 38 -60 11 -30 37 -73 39
-59 -5 112 -44 -50 97 -27 127
31 -41 -6 -23 66 -36 98 103
58 29 -12 108 -2 69 6 101
-108 93 -53 80 -66 -109 1 98
66 101 97 104 83 -24 -23 37
-117 -117 105 -78 72 126 75 -21
-95 62 -104 -109 2 -75 -69 -94
-45 46 67 27 40 56 -95 -44
67 6 -50 -14 -81 82 -7 -29
-25 113 16 -49 84 -64 -17 -61
15 -52 -76 -121 -88 29 -106 -93
92 -36 102 67 69 34 -80 -48
90 -10 -124 36 -102 30 -92 12
-13 65 14 -95 -119 21 19 -120
-59 96 -103 -127 71 -101 -24 -113
94 -51 -68 -123 110 -68 -20 63
-38 -26 93 107 -49 27 -18 111
-78 -28 -24 -13 115 12 101 -49
122 67 1 102 -107 -96 -14 -45
-36 -61 19 -77 -47 -109 -69 -119
-103 -64 -42 56 122 -70 -40 -42
-5 -1 -25 109 28 -26 115 110
86 19 101 42 123 -88 -57 -98
-15 94 -64 -48 105 -54 -3 43
45 101 37 -47 10 79 -119 -25

model_1/162/depthwise i1 [1, 3, 3, 336]
00000000: 9a07 b5c6 5741 7f2a 378d 7fed 7fac 6a84
00000010: 92b0 e1a2 3aa2 7fd2 57a2 c17f 0d81 e235
00000020: 4a9f 7f60 ccc1 0ca2 4853 de74 a821 041b
00000030: f8a7 dc7f 3728 7fb3 1763 fa9a 810e 7981
00000040: 2c81 df0a 48fa 82c3 d57f 7fc4 d5ec 1605
00000050: 609a 5037 816f 5ffb da86 0a52 f4e5 d16a
00000060: 0a1c 81f0 0a81 7fa8 422d 7fae 7ffc 5f8b
00000070: 81d1 4eed 911e a655 210f a26b 1443 41c4
00000080: 2f00 6118 e748 f5a8 39b4 a501 9af8 8161
00000090: 243c 65b8 a17f c88f 59f5 819f a471 c8bf
000000a0: c284 cb12 b981 ec3d c583 ac7f 1f9a 7fd6
000000b0: 3336 fd33 d6ea 4868 19bd b846 4279 e9a2
000000c0: 06f4 ea10 3085 d681 7cb5 1bf6 30e0 7fae
000000d0: e097 1881 39af b428 3681 4ac5 c05f c808
000000e0: 4f30 a8ef 5868 846a 7f60 241e 3dd9 6cdb
000000f0: fb5d e396 d0fe 8198 81de 5416 50ee 5990
-102 7 -75 -58 87 65 127 42
55 -115 127 -19 127 -84 106 -124
-110 -80 -31 -94 58 -94 127 -46
87 -94 -63 127 13 -127 -30 53
74 -97 127 96 -52 -63 12 -94
72 83 -34 116 -88 33 4 27
-8 -89 -36 127 55 40 127 -77
23 99 -6 -102 -127 14 121 -127
44 -127 -33 10 72 -6 -126 -61
-43 127 127 -60 -43 -20 22 5
96 -102 80 55 -127 111 95 -5
-38 -122 10 82 -12 -27 -47 106
10 28 -127 -16 10 -127 127 -88
66 45 127 -82 127 -4 95 -117
-127 -47 78 -19 -111 30 -90 85
33 15 -94 107 20 67 65 -60
47 0 97 24 -25 72 -11 -88
57 -76 -91 1 -102 -8 -127 97
36 60 101 -72 -95 127 -56 -113
89 -11 -127 -97 -92 113 -56 -65
-62 -124 -53 18 -71 -127 -20 61
-59 -125 -84 127 31 -102 127 -42
51 54 -3 51 -42 -22 72 104
25 -67 -72 70 66 121 -23 -94
6 -12 -22 16 48 -123 -42 -127
124 -75 27 -10 48 -32 127 -82
-32 -105 24 -127 57 -81 -76 40
54 -127 74 -59 -64 95 -56 8
79 48 -88 -17 88 104 -124 106
127 96 36 30 61 -39 108 -37
-5 93 -29 -106 -48 -2 -127 -104
-127 -34 84 22 80 -18 89 -112

model_1/161/Conv2D i1 [336, 1, 1, 56]
00000000: 5557 07ba 8be5 1447 e02c 2613 3ac4 a7d5
00000010: 1790 2ee5 5000 b2d7 e911 f07d 98ba 5813
00000020: aa84 972e 257d 1f81 a8c0 3e1c 2a0f 11b4
00000030: 4a83 9f2d 022b 492e ef44 92aa 8fbd 9d3e
00000040: a727 7420 3ba5 086f 15a7 a020 e2c8 333a
00000050: e59a c700 0daa deee c4e3 debe a73e 15fc
00000060: 112f 2cec d948 25fe f2a7 7f9c c1d0 0501
00000070: 6578 ca61 a3d6 9a62 4e06 ff1a de91 5b7f
00000080: 3026 c26c a6f3 8af1 4df9 2f0b c532 9a56
00000090: b36e d153 7f57 a465 266b f1bd 7e93 8dc8
000000a0: 01f1 0ab7 77b1 0dd3 aab7 19a5 3364 b7db
000000b0: bd40 7381 5757 5c88 43ec f75f c6b5 e441
000000c0: e675 0b9b a98f 770c 10df 020c cd92 e0a0
000000d0: b1a6 3437 1fea 49d7 7a5d 9f86 4c00 60be
000000e0: 2435 f329 7fe5 d2b8 f8ba 3d87 15f1 749d
000000f0: 310a b018 a590 66d4 f4ca 1feb 4846 6a5e
85 87 7 -70 -117 -27 20 71
-32 44 38 19 58 -60 -89 -43
23 -112 46 -27 80 0 -78 -41
-23 17 -16 125 -104 -70 88 19
-86 -124 -105 46 37 125 31 -127
-88 -64 62 28 42 15 17 -76
74 -125 -97 45 2 43 73 46
-17 68 -110 -86 -113 -67 -99 62
-89 39 116 32 59 -91 8 111
21 -89 -96 32 -30 -56 51 58
-27 -102 -57 0 13 -86 -34 -18
-60 -29 -34 -66 -89 62 21 -4
17 47 44 -20 -39 72 37 -2
-14 -89 127 -100 -63 -48 5 1
101 120 -54 97 -93 -42 -102 98
78 6 -1 26 -34 -111 91 127
48 38 -62 108 -90 -13 -118 -15
77 -7 47 11 -59 50 -102 86
-77 110 -47 83 127 87 -92 101
38 107 -15 -67 126 -109 -115 -56
1 -15 10 -73 119 -79 13 -45
-86 -73 25 -91 51 100 -73 -37
-67 64 115 -127 87 87 92 -120
67 -20 -9 95 -58 -75 -28 65
-26 117 11 -101 -87 -113 119 12
16 -33 2 12 -51 -110 -32 -96
-79 -90 52 55 31 -22 73 -41
122 93 -97 -122 76 0 96 -66
36 53 -13 41 127 -27 -46 -72
-8 -70 61 -121 21 -15 116 -99
49 10 -80 24 -91 -112 102 -44
-12 -54 31 -21 72 70 106 94

model_1/159/Conv2D i1 [56, 1, 1, 336]
00000000: 4895 a10d cc66 0ccd 1ed0 15c3 5de3 d061
00000010: df5c f662 7b59 4b59 dc08 aa12 3d3e 568f
00000020: 432d 4971 63f6 3e5f 66ed d1fc 909c 5566
00000030: b62a 9cc7 8d86 e261 33e8 71c2 061e 6987
00000040: ad53 9e94 add0 3349 627c aadf 904f 8167
00000050: 42e9 d1da 7108 54d8 5ae1 540c 1afc 676f
00000060: ede7 7ad3 7539 bb71 a831 9b39 29e2 fe5b
00000070: b3a2 0804 1e1c 1d6b fb59 c051 38d1 161f
00000080: 8bd4 0c1c 2a99 32ef c84e bd16 6824 bb2b
00000090: 899f e4fa 0d74 b1a3 b598 d834 329f 3ba3
000000a0: 6904 534a 79cb 66c6 340c 408e 7f14 4694
000000b0: 4386 d3fe f2f6 95a6 d7c3 1bd8 069d aa0e
000000c0: c4f1 2409 bda1 8d2f 64c2 b0a7 6ffa 1eac
000000d0: 60c3 d3a9 6abc 58f9 5552 3ed0 4a70 1df1
000000e0: e615 9732 d0fe 5121 c6d1 182e 9d75 c5fe
000000f0: ab4f 7944 f6f7 0b27 0370 4f29 dcf7 c42c
72 -107 -95 13 -52 102 12 -51
30 -48 21 -61 93 -29 -48 97
-33 92 -10 98 123 89 75 89
-36 8 -86 18 61 62 86 -113
67 45 73 113 99 -10 62 95
102 -19 -47 -4 -112 -100 85 102
-74 42 -100 -57 -115 -122 -30 97
51 -24 113 -62 6 30 105 -121
-83 83 -98 -108 -83 -48 51 73
98 124 -86 -33 -112 79 -127 103
66 -23 -47 -38 113 8 84 -40
90 -31 84 12 26 -4 103 111
-19 -25 122 -45 117 57 -69 113
-88 49 -101 57 41 -30 -2 91
-77 -94 8 4 30 28 29 107
-5 89 -64 81 56 -47 22 31
-117 -44 12 28 42 -103 50 -17
-56 78 -67 22 104 36 -69 43
-119 -97 -28 -6 13 116 -79 -93
-75 -104 -40 52 50 -97 59 -93
105 4 83 74 121 -53 102 -58
52 12 64 -114 127 20 70 -108
67 -122 -45 -2 -14 -10 -107 -90
-41 -61 27 -40 6 -99 -86 14
-60 -15 36 9 -67 -95 -115 47
100 -62 -80 -89 111 -6 30 -84
96 -61 -45 -87 106 -68 88 -7
85 82 62 -48 74 112 29 -15
-26 21 -105 50 -48 -2 81 33
-58 -47 24 46 -99 117 -59 -2
-85 79 121 68 -10 -9 11 39
3 112 79 41 -36 -9 -60 44

model_1/158/depthwise i1 [1, 3, 3, 336]
00000000: 683e 46a5 d954 5113 ed24 4aee c805 1627
00000010: 5a83 8151 45f2 6393 7f76 499a 5cf7 8521
00000020: 4334 af22 edb5 0562 4759 fa81 4a96 2cc7
00000030: ff6a a621 326f 5146 3f6a 4616 08f8 1081
00000040: 3563 e40f c165 3487 4585 cd09 50b7 717e
00000050: 8317 d1d6 74a5 47a2 05d9 d691 ac00 85fc
00000060: 200e 6881 4695 d5af e1de 98c4 9a66 5089
00000070: 8bfc 5894 8181 4f81 b441 6642 878f 81a3
00000080: cf8b 74e2 19d4 4aa0 8181 b07f 73e0 bae6
00000090: 2e0c 3aba 1771 6f7a f36c d481 5c2c d251
000000a0: 8464 b250 21ac 8a9e 7f98 8149 0c20 e87f
000000b0: d481 815d 344c 7c7c 225e e9dc 8b0d de1a
000000c0: f2e0 98f2 8102 a3a3 7ffe 353c fb0d 75dc
000000d0: 2d5a 5267 5ddb a1af d5d4 3cbd 5441 5420
000000e0: 9074 77df 05dd 72e5 7f81 aa0a ec85 8347
000000f0: b27b 235d 8138 304b 0d02 7fbc 7fd8 81b5
104 62 70 -91 -39 84 81 19
-19 36 74 -18 -56 5 22 39
90 -125 -127 81 69 -14 99 -109
127 118 73 -102 92 -9 -123 33
67 52 -81 34 -19 -75 5 98
71 89 -6 -127 74 -106 44 -57
-1 106 -90 33 50 111 81 70
63 106 70 22 8 -8 16 -127
53 99 -28 15 -63 101 52 -121
69 -123 -51 9 80 -73 113 126
-125 23 -47 -42 116 -91 71 -94
5 -39 -42 -111 -84 0 -123 -4
32 14 104 -127 70 -107 -43 -81
-31 -34 -104 -60 -102 102 80 -119
-117 -4 88 -108 -127 -127 79 -127
-76 65 102 66 -121 -113 -127 -93
-49 -117 116 -30 25 -44 74 -96
-127 -127 -80 127 115 -32 -70 -26
46 12 58 -70 23 113 111 122
-13 108 -44 -127 92 44 -46 81
-124 100 -78 80 33 -84 -118 -98
127 -104 -127 73 12 32 -24 127
-44 -127 -127 93 52 76 124 124
34 94 -23 -36 -117 13 -34 26
-14 -32 -104 -14 -127 2 -93 -93
127 -2 53 60 -5 13 117 -36
45 90 82 103 93 -37 -95 -81
-43 -44 60 -67 84 65 84 32
-112 116 119 -33 5 -35 114 -27
127 -127 -86 10 -20 -123 -125 71
-78 123 35 93 -127 56 48 75
13 2 127 -68 127 -40 -127 -75

model_1/157/Conv2D i1 [336, 1, 1, 56]
00000000: 73dc 3e57 05ef f246 8a0c 9873 3141 0c2e
00000010: 8e2f bd21 7f38 3059 dae7 da37 5b38 bf34
00000020: ee38 1fe6 bdcf d877 3b74 9eaf 0d47 3fa3
00000030: ef44 f78c cae6 bbd3 e5a6 2845 c943 90d8
00000040: cfb4 ff5b 7592 7fcd 54f2 c3f6 ab2f 27d4
00000050: 8f5a 3c2a c1d6 8ab8 bd16 32ae 4da0 a7b9
00000060: be7e 1e02 c3eb 0898 1e92 4902 5848 b4d9
00000070: 1c4b 1a7d 487d 3b93 f808 cbc8 f0dc aa00
00000080: 8123 6b91 fc39 8490 89f4 3209 c97f b54c
00000090: 2b2b 60ac d224 8ecf 9956 604d a668 581a
000000a0: cabb 0701 6e8e bc18 8dac f0fe 8403 d910
000000b0: e574 f16f e1f6 4768 398d 19b3 1cd9 a6d7
000000c0: 8583 dec6 3f67 866d 13a2 43e7 6371 9e1a
000000d0: 61eb 947f 493b 78a0 32bc 2938 9098 c8f8
000000e0: 4a21 5ca1 cc42 fc44 e014 8859 0351 fe1b
000000f0: 4a33 d1ab 4366 aa3b 406c 89be bd1f 66c9
115 -36 62 87 5 -17 -14 70
-118 12 -104 115 49 65 12 46
-114 47 -67 33 127 56 48 89
-38 -25 -38 55 91 56 -65 52
-18 56 31 -26 -67 -49 -40 119
59 116 -98 -81 13 71 63 -93
-17 68 -9 -116 -54 -26 -69 -45
-27 -90 40 69 -55 67 -112 -40
-49 -76 -1 91 117 -110 127 -51
84 -14 -61 -10 -85 47 39 -44
-113 90 60 42 -63 -42 -118 -72
-67 22 50 -82 77 -96 -89 -71
-66 126 30 2 -61 -21 8 -104
30 -110 73 2 88 72 -76 -39
28 75 26 125 72 125 59 -109
-8 8 -53 -56 -16 -36 -86 0
-127 35 107 -111 -4 57 -124 -112
-119 -12 50 9 -55 127 -75 76
43 43 96 -84 -46 36 -114 -49
-103 86 96 77 -90 104 88 26
-54 -69 7 1 110 -114 -68 24
-115 -84 -16 -2 -124 3 -39 16
-27 116 -15 111 -31 -10 71 104
57 -115 25 -77 28 -39 -90 -41
-123 -125 -34 -58 63 103 -122 109
19 -94 67 -25 99 113 -98 26
97 -21 -108 127 73 59 120 -96
50 -68 41 56 -112 -104 -56 -8
74 33 92 -95 -52 66 -4 68
-32 20 -120 89 3 81 -2 27
74 51 -47 -85 67 102 -86 59
64 108 -119 -66 -67 31 102 -55

model_1/156/Conv2D i1 [56, 1, 1, 192]
00000000: 2f00 5c17 453b 4391 820d e847 a896 8150
00000010: c008 7d88 bc98 3f1e 713e 1d21 8119 efa7
00000020: 864c 2018 56a4 e809 f0f6 1cb1 244b bb35
00000030: fd18 0096 b77d ab5a 7ad2 cc75 034f 7692
00000040: 18b8 3931 e43d 9228 6767 23ab 41f2 6a18
00000050: 307f bf0e b146 fdb6 a767 f3ce 37c6 49a4
00000060: c702 aae7 b0e4 19e1 0c6f 426f 451c 9730
00000070: c202 6cb5 5f34 f147 2436 8675 8736 52ce
00000080: b5bb 1766 e3e2 f7e5 e108 1aea dae4 df0e
00000090: 0742 61cb 4a37 5fe1 9c00 2618 92e7 ae92
000000a0: b2be 3909 255e 9e60 1756 d51c 25d8 c468
000000b0: 7e1e 9e98 ae4d 9e75 0bbd 24a1 a2e1 f460
000000c0: 4d52 a43f 6f98 81d9 0460 94ff c9d5 1ec9
000000d0: 2af5 1977 f908 8eb6 b45a 4038 828c 7545
000000e0: 67ed ac86 9184 083a a5cf 1bf2 d0fa 6d7c
000000f0: 43fe a5e6 2728 5f37 0ec0 8d8f 64dc 70c4
47 0 92 23 69 59 67 -111
-126 13 -24 71 -88 -106 -127 80
-64 8 125 -120 -68 -104 63 30
113 62 29 33 -127 25 -17 -89
-122 76 32 24 86 -92 -24 9
-16 -10 28 -79 36 75 -69 53
-3 24 0 -106 -73 125 -85 90
122 -46 -52 117 3 79 118 -110
24 -72 57 49 -28 61 -110 40
103 103 35 -85 65 -14 106 24
48 127 -65 14 -79 70 -3 -74
-89 103 -13 -50 55 -58 73 -92
-57 2 -86 -25 -80 -28 25 -31
12 111 66 111 69 28 -105 48
-62 2 108 -75 95 52 -15 71
36 54 -122 117 -121 54 82 -50
-75 -69 23 102 -29 -30 -9 -27
-31 8 26 -22 -38 -28 -33 14
7 66 97 -53 74 55 95 -31
-100 0 38 24 -110 -25 -82 -110
-78 -66 57 9 37 94 -98 96
23 86 -43 28 37 -40 -60 104
126 30 -98 -104 -82 77 -98 117
11 -67 36 -95 -94 -31 -12 96
77 82 -92 63 111 -104 -127 -39
4 96 -108 -1 -55 -43 30 -55
42 -11 25 119 -7 8 -114 -74
-76 90 64 56 -126 -116 117 69
103 -19 -84 -122 -111 -124 8 58
-91 -49 27 -14 -48 -6 109 124
67 -2 -91 -26 39 40 95 55
14 -64 -115 -113 100 -36 112 -60

model_1/155/depthwise i1 [1, 3, 3, 192]
00000000: 81fe 7f0a c30c 7fa9 0cbf 7f81 a2f5 df55
00000010: 54d6 2a35 7fb3 6d58 7f22 4bfd 568c 2aa1
00000020: d7cf 840f a381 42a5 6a15 131e 138e adff
00000030: 3d56 8181 ed1f 7f6e a6a8 501b 1624 f754
00000040: 055d d209 5955 5e8c 06f6 3968 8154 3c9c
00000050: 1d8f 0371 2651 e41e 4e5b 7fa6 7f5f ebbd
00000060: 96b8 ce68 4462 8f01 6b0b e6f8 5297 1f07
00000070: b687 f14d 0f92 274a 81c3 140d 7f81 6552
00000080: d381 e3af 6179 ed46 f371 8494 34ad 9481
00000090: 907d 7fd7 9594 11cf 35de 939e a130 e098
000000a0: 3c04 df90 33ce d681 a162 d65d 8c0e e781
000000b0: be91 fe9e d33d 7a23 8119 172c 9c5d 677e
000000c0: 4282 81f0 9ce4 2472 4c67 8fd4 b1b8 7f81
000000d0: 3d5d 24ba cd8b 3684 57d2 9f79 6729 7ff6
000000e0: 81c8 90a0 62bc af28 abe4 2914 c330 bc61
000000f0: 8142 4940 47f7 2d06 6545 7f03 6ebf dbf6
-127 -2 127 10 -61 12 127 -87
12 -65 127 -127 -94 -11 -33 85
84 -42 42 53 127 -77 109 88
127 34 75 -3 86 -116 42 -95
-41 -49 -124 15 -93 -127 66 -91
106 21 19 30 19 -114 -83 -1
61 86 -127 -127 -19 31 127 110
-90 -88 80 27 22 36 -9 84
5 93 -46 9 89 85 94 -116
6 -10 57 104 -127 84 60 -100
29 -113 3 113 38 81 -28 30
78 91 127 -90 127 95 -21 -67
-106 -72 -50 104 68 98 -113 1
107 11 -26 -8 82 -105 31 7
-74 -121 -15 77 15 -110 39 74
-127 -61 20 13 127 -127 101 82
-45 -127 -29 -81 97 121 -19 70
-13 113 -124 -108 52 -83 -108 -127
-112 125 127 -41 -107 -108 17 -49
53 -34 -109 -98 -95 48 -32 -104
60 4 -33 -112 51 -50 -42 -127
-95 98 -42 93 -116 14 -25 -127
-66 -111 -2 -98 -45 61 122 35
-127 25 23 44 -100 93 103 126
66 -126 -127 -16 -100 -28 36 114
76 103 -113 -44 -79 -72 127 -127
61 93 36 -70 -51 -117 54 -124
87 -46 -97 121 103 41 127 -10
-127 -56 -112 -96 98 -68 -81 40
-85 -28 41 20 -61 48 -68 97
-127 66 73 64 71 -9 45 6
101 69 127 3 110 -65 -37 -10

model_1/154/Conv2D i1 [192, 1, 1, 32]
00000000: 9f75 1ad2 4441 7fcc 3f94 946e 1d28 ddde
00000010: 8a3d 76e7 c57a 21a9 873a 6cbf 4837 98d9
00000020: c2fa b8d1 aad6 7a62 8eb1 7bc7 3d1e 3ce5
00000030: 0a75 3d7f 2a7c fc4f 8adc 7019 a37e ce48
00000040: c3d0 82d7 6b5e 5430 40dd 2c38 4153 4c52
00000050: 3638 9739 19b6 cafc b0fe 8539 a77f 21b2
00000060: 327c df0e 47bf 2e0f e871 a53c 3ed2 f4ce
00000070: 6fa4 f010 b5da dcbe 0dea 7f89 6ed8 1325
00000080: f481 c702 f133 89ff 2f22 d508 2998 e44a
00000090: 95da 8844 54fb ccc7 b36b 9aee 648a 5dd7
000000a0: 4d6f 64e2 33f9 ff1b 548d 353a 251a 16ed
000000b0: 30e9 f1ed b2b8 776a 8178 6d04 3994 866f
000000c0: 6887 a6ae ad93 41c7 2cd7 8bb1 7fd3 211b
000000d0: 7bd5 ca62 b010 626f 30ac 92ed 45f3 08be
000000e0: 36c1 7957 be3c 7b7f ab51 aa25 db33 e9f6
000000f0: 7884 be57 03ed 9d60 e471 3fa5 a04c 489b
-97 117 26 -46 68 65 127 -52
63 -108 -108 110 29 40 -35 -34
-118 61 118 -25 -59 122 33 -87
-121 58 108 -65 72 55 -104 -39
-62 -6 -72 -47 -86 -42 122 98
-114 -79 123 -57 61 30 60 -27
10 117 61 127 42 124 -4 79
-118 -36 112 25 -93 126 -50 72
-61 -48 -126 -41 107 94 84 48
64 -35 44 56 65 83 76 82
54 56 -105 57 25 -74 -54 -4
-80 -2 -123 57 -89 127 33 -78
50 124 -33 14 71 -65 46 15
-24 113 -91 60 62 -46 -12 -50
111 -92 -16 16 -75 -38 -36 -66
13 -22 127 -119 110 -40 19 37
-12 -127 -57 2 -15 51 -119 -1
47 34 -43 8 41 -104 -28 74
-107 -38 -120 68 84 -5 -52 -57
-77 107 -102 -18 100 -118 93 -41
77 111 100 -30 51 -7 -1 27
84 -115 53 58 37 26 22 -19
48 -23 -15 -19 -78 -72 119 106
-127 120 109 4 57 -108 -122 111
104 -121 -90 -82 -83 -109 65 -57
44 -41 -117 -79 127 -45 33 27
123 -43 -54 98 -80 16 98 111
48 -84 -110 -19 69 -13 8 -66
54 -63 121 87 -66 60 123 127
-85 81 -86 37 -37 51 -23 -10
120 -124 -66 87 3 -19 -99 96
-28 113 63 -91 -96 76 72 -101

model_1/152/Conv2D i1 [32, 1, 1, 192]
00000000: bf7c 88e8 622d a3ca 6655 b838 71f8 caf1
00000010: a964 e581 5bf2 c2f2 1a37 66b1 8ba2 fa1a
00000020: 9010 5d7f 92fb e544 68f8 dfff 7078 1336
00000030: 67f1 7e64 8fb6 97fb 4472 b966 76ca 20f1
00000040: 96d0 f281 e8d4 3190 7e1b 537c 7829 6024
00000050: fd24 681a b08d 19e1 947c 3835 214d c536
00000060: d02e 70ce c170 f759 892a ce09 a92d 13b4
00000070: 26e1 42dd c1cc 8b1b c6ab 1ab6 4841 776c
00000080: 6114 79d3 65e0 28a9 590f 547f f793 fb8a
00000090: 936b eaa7 57d9 8304 dc1c 5e32 bec9 b9aa
000000a0: 4969 0c40 b1e4 a98a 1ea1 b9a1 50ee 2223
000000b0: 992f d1e4 1772 e099 03ab 6f2a 7d2b cf04
000000c0: eb98 e0b3 d6fb 189b 3f99 8e11 911c 1862
000000d0: c631 bb0c 1cc7 cd24 867e cc75 9569 4cc9
000000e0: 79b4 9c63 4989 3c6c a2df b66c f6f6 9855
000000f0: 6f21 3748 354d 4cb2 62f0 7049 befb e600
-65 124 -120 -24 98 45 -93 -54
102 85 -72 56 113 -8 -54 -15
-87 100 -27 -127 91 -14 -62 -14
26 55 102 -79 -117 -94 -6 26
-112 16 93 127 -110 -5 -27 68
104 -8 -33 -1 112 120 19 54
103 -15 126 100 -113 -74 -105 -5
68 114 -71 102 118 -54 32 -15
-106 -48 -14 -127 -24 -44 49 -112
126 27 83 124 120 41 96 36
-3 36 104 26 -80 -115 25 -31
-108 124 56 53 33 77 -59 54
-48 46 112 -50 -63 112 -9 89
-119 42 -50 9 -87 45 19 -76
38 -31 66 -35 -63 -52 -117 27
-58 -85 26 -74 72 65 119 108
97 20 121 -45 101 -32 40 -87
89 15 84 127 -9 -109 -5 -118
-109 107 -22 -89 87 -39 -125 4
-36 28 94 50 -66 -55 -71 -86
73 105 12 64 -79 -28 -87 -118
30 -95 -71 -95 80 -18 34 35
-103 47 -47 -28 23 114 -32 -103
3 -85 111 42 125 43 -49 4
-21 -104 -32 -77 -42 -5 24 -101
63 -103 -114 17 -111 28 24 98
-58 49 -69 12 28 -57 -51 36
-122 126 -52 117 -107 105 76 -55
121 -76 -100 99 73 -119 60 108
-94 -33 -74 108 -10 -10 -104 85
111 33 55 72 53 77 76 -78
98 -16 112 73 -66 -5 -26 0

model_1/151/depthwise i1 [1, 3, 3, 192]
00000000: a5ea 7f8e 975e 39b0 cb81 efec 81db 7f1e
00000010: ce2c ba0c a07f 7fd6 93b9 db57 2357 151f
00000020: 3868 0a77 06e5 1d99 00b2 4d25 7fee 8192
00000030: 1152 6a00 94b9 201e 55d3 1a87 1b9b 6c16
00000040: 7fec 4d92 a9c6 12e8 2901 f234 6481 7f81
00000050: 1f7f e07d 1b39 0bf2 c0e0 8a8b e881 2581
00000060: 748e 7ffd 7f0a 9a7f 936b 9885 6ad1 dadf
00000070: 012c 1f85 da06 0736 8152 5da1 817f 7b7f
00000080: 2159 810f 81c6 2c7f c460 499c a5bc 8141
00000090: ac64 5200 0e00 dcc4 f4bf 5d5c 9d04 7a32
000000a0: 0a17 b446 4282 7f18 34ab 5fbe ed60 fa62
000000b0: 4ec6 2981 85a3 4481 7937 582b 757f 4d64
000000c0: 5181 af82 a661 0a81 8c72 126f 5c50 7a2c
000000d0: b903 677b fe0f f989 ff67 0a8c 1b97 2f8d
000000e0: 03ba 55fc c381 1a96 73be 4e22 aff0 51a2
000000f0: 0a8b a0f7 bb36 1f7f cca1 bed2 1fae 1215
-91 -22 127 -114 -105 94 57 -80
-53 -127 -17 -20 -127 -37 127 30
-50 44 -70 12 -96 127 127 -42
-109 -71 -37 87 35 87 21 31
56 104 10 119 6 -27 29 -103
0 -78 77 37 127 -18 -127 -110
17 82 106 0 -108 -71 32 30
85 -45 26 -121 27 -101 108 22
127 -20 77 -110 -87 -58 18 -24
41 1 -14 52 100 -127 127 -127
31 127 -32 125 27 57 11 -14
-64 -32 -118 -117 -24 -127 37 -127
116 -114 127 -3 127 10 -102 127
-109 107 -104 -123 106 -47 -38 -33
1 44 31 -123 -38 6 7 54
-127 82 93 -95 -127 127 123 127
33 89 -127 15 -127 -58 44 127
-60 96 73 -100 -91 -68 -127 65
-84 100 82 0 14 0 -36 -60
-12 -65 93 92 -99 4 122 50
10 23 -76 70 66 -126 127 24
52 -85 95 -66 -19 96 -6 98
78 -58 41 -127 -123 -93 68 -127
121 55 88 43 117 127 77 100
81 -127 -81 -126 -90 97 10 -127
-116 114 18 111 92 80 122 44
-71 3 103 123 -2 15 -7 -119
-1 103 10 -116 27 -105 47 -115
3 -70 85 -4 -61 -127 26 -106
115 -66 78 34 -81 -16 81 -94
10 -117 -96 -9 -69 54 31 127
-52 -95 -66 -46 31 -82 18 21

model_1/150/Conv2D i1 [192, 1, 1, 32]
00000000: bd2d 4142 9fdb 1c9d ed81 0d14 fa0d a21e
00000010: 5812 b15c d721 2f59 40f1 dfe6 064b 7e22
00000020: 70db 19ce ea81 26fa 0560 f973 8db0 696f
00000030: 85f7 aff7 16ac a803 4370 8d74 1338 21bf
00000040: ff3f 20d4 685f 8181 d1cb 129e 5a84 904a
00000050: baa1 fc5f 7191 43b6 d215 037c 54f1 e17e
00000060: 1251 0581 7cff ec68 e142 0ef6 1cb0 4957
00000070: 58a0 3342 0a98 ef2b c3e0 1dca 0fe7 5edd
00000080: a6c4 376d 772b 1ccd 9551 ecb8 6c22 ca7f
00000090: 9915 7b26 dd0c ad0b 8157 96e4 46c6 3d5a
000000a0: e0e8 c784 8492 1a8a 9d6f 9626 54cc 7991
000000b0: e23c 8ee1 f8c9 3681 14be eaca c187 5e7c
000000c0: 7e14 ea99 66cb 0c81 fa60 2f89 8312 e137
000000d0: 8e32 3146 4ed7 8a8a b933 b7bc 7b69 b29a
000000e0: ed05 f728 378a 972f 7ccb cfe3 d77f 3641
000000f0: 0c94 ec3b 5617 9daf 7093 a3f5 8c66 e353
-67 45 65 66 -97 -37 28 -99
-19 -127 13 20 -6 13 -94 30
88 18 -79 92 -41 33 47 89
64 -15 -33 -26 6 75 126 34
112 -37 25 -50 -22 -127 38 -6
5 96 -7 115 -115 -80 105 111
-123 -9 -81 -9 22 -84 -88 3
67 112 -115 116 19 56 33 -65
-1 63 32 -44 104 95 -127 -127
-47 -53 18 -98 90 -124 -112 74
-70 -95 -4 95 113 -111 67 -74
-46 21 3 124 84 -15 -31 126
18 81 5 -127 124 -1 -20 104
-31 66 14 -10 28 -80 73 87
88 -96 51 66 10 -104 -17 43
-61 -32 29 -54 15 -25 94 -35
-90 -60 55 109 119 43 28 -51
-107 81 -20 -72 108 34 -54 127
-103 21 123 38 -35 12 -83 11
-127 87 -106 -28 70 -58 61 90
-32 -24 -57 -124 -124 -110 26 -118
-99 111 -106 38 84 -52 121 -111
-30 60 -114 -31 -8 -55 54 -127
20 -66 -22 -54 -63 -121 94 124
126 20 -22 -103 102 -53 12 -127
-6 96 47 -119 -125 18 -31 55
-114 50 49 70 78 -41 -118 -118
-71 51 -73 -68 123 105 -78 -102
-19 5 -9 40 55 -118 -105 47
124 -53 -49 -29 -41 127 54 65
12 -108 -20 59 86 23 -99 -81
112 -109 -93 -11 -116 102 -29 83

model_1/148/Conv2D i1 [32, 1, 1, 192]
00000000: f4f8 856b 142a 4f06 11dd 6ce4 4026 c7ec
00000010: 8486 8664 20cb f7c7 dca1 dc89 581d de46
00000020: ccca bac3 3313 fcd1 94ed b3d4 d386 5e9c
00000030: 2e58 7b67 4064 b600 8891 91e0 12d3 0304
00000040: 073c a04e bcc5 2ba0 56dc 8f2a e4cf 8865
00000050: 04e0 7d87 37ec a81c e9a6 66ba 8c9d 6b9c
00000060: 7b56 d87f 9bda 7cff 9e58 adfc fb31 4a27
00000070: eb64 84e4 b885 fdb1 f25e 2d51 04e8 e130
00000080: ffc7 2af5 815e 1267 5909 751b 197a bcca
00000090: 83c4 78b0 b53e 2e2c c4f8 bf64 de70 9647
000000a0: 97d3 0c5f 70a8 7960 4322 f683 7ebe e0bb
000000b0: 4809 760d bd76 383e 7efd 5d89 2d52 8976
000000c0: 3e31 41e1 9c6f 5645 3398 4d1f a344 ae6b
000000d0: c851 8f07 2de8 5c3d 8c63 1dc9 c099 010f
000000e0: 36c8 49fe 5d16 cbfe c08c 3fba 7465 14b2
000000f0: 4bfb 4d42 ac8c ad32 bc5b c4ca e997 2624
-12 -8 -123 107 20 42 79 6
17 -35 108 -28 64 38 -57 -20
-124 -122 -122 100 32 -53 -9 -57
-36 -95 -36 -119 88 29 -34 70
-52 -54 -70 -61 51 19 -4 -47
-108 -19 -77 -44 -45 -122 94 -100
46 88 123 103 64 100 -74 0
-120 -111 -111 -32 18 -45 3 4
7 60 -96 78 -68 -59 43 -96
86 -36 -113 42 -28 -49 -120 101
4 -32 125 -121 55 -20 -88 28
-23 -90 102 -70 -116 -99 107 -100
123 86 -40 127 -101 -38 124 -1
-98 88 -83 -4 -5 49 74 39
-21 100 -124 -28 -72 -123 -3 -79
-14 94 45 81 4 -24 -31 48
-1 -57 42 -11 -127 94 18 103
89 9 117 27 25 122 -68 -54
-125 -60 120 -80 -75 62 46 44
-60 -8 -65 100 -34 112 -106 71
-105 -45 12 95 112 -88 121 96
67 34 -10 -125 126 -66 -32 -69
72 9 118 13 -67 118 56 62
126 -3 93 -119 45 82 -119 118
62 49 65 -31 -100 111 86 69
51 -104 77 31 -93 68 -82 107
-56 81 -113 7 45 -24 92 61
-116 99 29 -55 -64 -103 1 15
54 -56 73 -2 93 22 -53 -2
-64 -116 63 -70 116 101 20 -78
75 -5 77 66 -84 -116 -83 50
-68 91 -60 -54 -23 -105 38 36

model_1/147/depthwise i1 [1, 3, 3, 192]
00000000: 6be5 fb88 09bc 7f0a a3ac da70 d7d2 fc39
00000010: 7fc2 8181 4325 290e 4f9a d39a 37c8 817f
00000020: 4f3b 98da e65c 7f40 a88d 7fa3 6442 7fda
00000030: 8164 faf9 efca 81e8 10ff dadb 8808 e444
00000040: 2c7f b074 5958 331a 3a27 6f81 ab58 63c2
00000050: 062e 6d8c c58b 9dc4 2681 bdba c035 ec4d
00000060: 12a4 fa6e 56f9 b6f5 8770 bb49 3ce2 23c3
00000070: de92 7f64 3e7f 0ca8 256f 0aaa d179 5bc2
00000080: c857 9403 5e81 7815 9335 98ea 9b4a 817f
00000090: 417f 819f af1f 89b5 81f8 630f 1b6e 7f25
000000a0: 708a 8c7f f27f 1667 9207 3812 c250 2481
000000b0: 7fa5 f514 aa8e 35f8 c0bf 78b8 81ea 50fb
000000c0: 0587 7d81 46ef 4cd5 6781 7f40 7411 af3c
000000d0: 94d8 ac57 914e 29f9 2781 4b62 3e91 f5d8
000000e0: 7fab 2381 dd8a 6936 9883 b863 f07f 82cb
000000f0: 41e6 1f96 1cf7 3ec7 1334 fe56 53bf c6c4
107 -27 -5 -120 9 -68 127 10
-93 -84 -38 112 -41 -46 -4 57
127 -62 -127 -127 67 37 41 14
79 -102 -45 -102 55 -56 -127 127
79 59 -104 -38 -26 92 127 64
-88 -115 127 -93 100 66 127 -38
-127 100 -6 -7 -17 -54 -127 -24
16 -1 -38 -37 -120 8 -28 68
44 127 -80 116 89 88 51 26
58 39 111 -127 -85 88 99 -62
6 46 109 -116 -59 -117 -99 -60
38 -127 -67 -70 -64 53 -20 77
18 -92 -6 110 86 -7 -74 -11
-121 112 -69 73 60 -30 35 -61
-34 -110 127 100 62 127 12 -88
37 111 10 -86 -47 121 91 -62
-56 87 -108 3 94 -127 120 21
-109 53 -104 -22 -101 74 -127 127
65 127 -127 -97 -81 31 -119 -75
-127 -8 99 15 27 110 127 37
112 -118 -116 127 -14 127 22 103
-110 7 56 18 -62 80 36 -127
127 -91 -11 20 -86 -114 53 -8
-64 -65 120 -72 -127 -22 80 -5
5 -121 125 -127 70 -17 76 -43
103 -127 127 64 116 17 -81 60
-108 -40 -84 87 -111 78 41 -7
39 -127 75 98 62 -111 -11 -40
127 -85 35 -127 -35 -118 105 54
-104 -125 -72 99 -16 127 -126 -53
65 -26 31 -106 28 -9 62 -57
19 52 -2 86 83 -65 -58 -60

model_1/146/Conv2D i1 [192, 1, 1, 32]
00000000: b929 1711 7413 1f70 026d 9688 0b81 cecd
00000010: 62a3 7fc7 2fa7 7319 491c bbe6 8bf1 c46d
00000020: cac6 bb58 5727 85b3 d2bb bd81 4419 d69b
00000030: 0895 e5da f45e 2cd0 81d9 1f5d e1df fb76
00000040: 2028 234c a327 16ba 5a9c 7fe0 9efe 0337
00000050: 8bfd 639f cec6 df09 1323 6fd3 3eaf 2e70
00000060: 7f74 1890 974d 6c91 4c5b 77b0 7b88 a3cc
00000070: 8511 01b9 c648 4738 3e6f fcd0 5edc fd3e
00000080: 8294 c0f3 ef15 9bbf 0260 3ed4 e417 0729
00000090: 0dce 0972 7de7 e337 3e7f fddb 7afb b282
000000a0: 046a fa9f fc2e 5dfe 2342 ecc2 c85a 16b8
000000b0: 8ca5 0316 cfd4 1f34 f3b4 7f61 fe8e d856
000000c0: b7ec 15a2 d2b1 82d8 8744 6ccd 5e56 ee08
000000d0: 2fe7 870e 53cb 958a c970 ecd6 0af7 af81
000000e0: 4bc5 82b4 e90e 4802 87e5 967a 616e 61aa
000000f0: 6e63 f60a ed9f a4e2 9381 0b03 ecd8 071e
-71 41 23 17 116 19 31 112
2 109 -106 -120 11 -127 -50 -51
98 -93 127 -57 47 -89 115 25
73 28 -69 -26 -117 -15 -60 109
-54 -58 -69 88 87 39 -123 -77
-46 -69 -67 -127 68 25 -42 -101
8 -107 -27 -38 -12 94 44 -48
-127 -39 31 93 -31 -33 -5 118
32 40 35 76 -93 39 22 -70
90 -100 127 -32 -98 -2 3 55
-117 -3 99 -97 -50 -58 -33 9
19 35 111 -45 62 -81 46 112
127 116 24 -112 -105 77 108 -111
76 91 119 -80 123 -120 -93 -52
-123 17 1 -71 -58 72 71 56
62 111 -4 -48 94 -36 -3 62
-126 -108 -64 -13 -17 21 -101 -65
2 96 62 -44 -28 23 7 41
13 -50 9 114 125 -25 -29 55
62 127 -3 -37 122 -5 -78 -126
4 106 -6 -97 -4 46 93 -2
35 66 -20 -62 -56 90 22 -72
-116 -91 3 22 -49 -44 31 52
-13 -76 127 97 -2 -114 -40 86
-73 -20 21 -94 -46 -79 -126 -40
-121 68 108 -51 94 86 -18 8
47 -25 -121 14 83 -53 -107 -118
-55 112 -20 -42 10 -9 -81 -127
75 -59 -126 -76 -23 14 72 2
-121 -27 -106 122 97 110 97 -86
110 99 -10 10 -19 -97 -92 -30
-109 -127 11 3 -20 -40 7 30

model_1/145/Conv2D i1 [32, 1, 1, 144]
00000000: 4d03 379a e0ba d490 6660 eeac 2a67 9447
00000010: 9f89 7c8a c85d 15de b94e e100 4a19 01b5
00000020: 232c 3067 5056 e2d2 f713 1dc0 f64b 5af0
00000030: 39b4 27a6 0b93 e8c4 3bcd 78a9 936f 5d5b
00000040: 4259 d1a5 ae0c ef33 8af2 91e5 5b0a 814d
00000050: c6c7 5dc5 b57e f10b f1b6 3a53 d2c3 9f16
00000060: a335 424d 3d63 7836 fd44 5ba0 577a 6c8a
00000070: aac8 986d fcd1 1de1 07a3 4bd3 19b0 a25a
00000080: c5be 1ea0 d5c7 8e02 e0a9 f01f 1f4c 3708
00000090: 9474 b556 6296 0bc8 86ec fb09 951d 96f7
000000a0: f39c f8b1 db0c 13aa 9b3a 0eeb 7f89 554c
000000b0: 82fc 2e25 e429 c12e 72d1 054e 6424 4a4f
000000c0: 6e6b d28b c036 6bf9 aab7 00ac bfd2 68c1
000000d0: c60e adfd 7e91 4e7d 3375 0c7c ec89 b762
000000e0: f2ff 34ab ff97 d021 bf38 1cfe 0f1d bc90
000000f0: c85a 4436 f671 1776 ff9d 5852 0949 9272
77 3 55 -102 -32 -70 -44 -112
102 96 -18 -84 42 103 -108 71
-97 -119 124 -118 -56 93 21 -34
-71 78 -31 0 74 25 1 -75
35 44 48 103 80 86 -30 -46
-9 19 29 -64 -10 75 90 -16
57 -76 39 -90 11 -109 -24 -60
59 -51 120 -87 -109 111 93 91
66 89 -47 -91 -82 12 -17 51
-118 -14 -111 -27 91 10 -127 77
-58 -57 93 -59 -75 126 -15 11
-15 -74 58 83 -46 -61 -97 22
-93 53 66 77 61 99 120 54
-3 68 91 -96 87 122 108 -118
-86 -56 -104 109 -4 -47 29 -31
7 -93 75 -45 25 -80 -94 90
-59 -66 30 -96 -43 -57 -114 2
-32 -87 -16 31 31 76 55 8
-108 116 -75 86 98 -106 11 -56
-122 -20 -5 9 -107 29 -106 -9
-13 -100 -8 -79 -37 12 19 -86
-101 58 14 -21 127 -119 85 76
-126 -4 46 37 -28 41 -63 46
114 -47 5 78 100 36 74 79
110 107 -46 -117 -64 54 107 -7
-86 -73 0 -84 -65 -46 104 -63
-58 14 -83 -3 126 -111 78 125
51 117 12 124 -20 -119 -73 98
-14 -1 52 -85 -1 -105 -48 33
-65 56 28 -2 15 29 -68 -112
-56 90 68 54 -10 113 23 118
-1 -99 88 82 9 73 -110 114

model_1/144/depthwise i1 [1, 3, 3, 144]
00000000: b881 cfb2 58a1 bf27 8127 8655 4c2c 2a63
00000010: 7f6e c745 459b 2a63 73de 98de 72bc b884
00000020: a62e 81b7 40bf 19dd 50cb 5e7d 7fb6 9a47
00000030: 81d8 0fb4 8155 6078 9c7f 38b2 dd4a c1a2
00000040: ce62 b1c3 fba8 61ca 509c 9e81 7e66 0b4e
00000050: 8c81 ac2f 0df5 99be f856 072b 5e8a d66a
00000060: c4fc df9e 7f40 980e 08c9 232f 810c 2c47
00000070: 3a39 47d6 4f94 bfd3 6c2f c0c8 9716 38ef
00000080: 0a55 96a5 cd15 bc0f 2e93 31e9 aa5d 3efd
00000090: 7e1b 0a9d 292d 0173 0753 168c 7f02 1391
000000a0: fd52 8181 7fde c106 ac81 f8a7 d17b 5447
000000b0: 9168 9fe8 e2c4 13ba 4bd7 db2a f909 9c0e
000000c0: 10d6 7fa1 4bf4 7e86 9ca7 190f a209 7376
000000d0: e265 3ca5 7fc8 1bc6 7f3e 7f98 65f7 3252
000000e0: 9842 fa81 3afd 6f81 a2b8 5528 7f89 7fd5
000000f0: 9a50 8174 6477 3a9c 817f 5b40 7bff f343
-72 -127 -49 -78 88 -95 -65 39
-127 39 -122 85 76 44 42 99
127 110 -57 69 69 -101 42 99
115 -34 -104 -34 114 -68 -72 -124
-90 46 -127 -73 64 -65 25 -35
80 -53 94 125 127 -74 -102 71
-127 -40 15 -76 -127 85 96 120
-100 127 56 -78 -35 74 -63 -94
-50 98 -79 -61 -5 -88 97 -54
80 -100 -98 -127 126 102 11 78
-116 -127 -84 47 13 -11 -103 -66
-8 86 7 43 94 -118 -42 106
-60 -4 -33 -98 127 64 -104 14
8 -55 35 47 -127 12 44 71
58 57 71 -42 79 -108 -65 -45
108 47 -64 -56 -105 22 56 -17
10 85 -106 -91 -51 21 -68 15
46 -109 49 -23 -86 93 62 -3
126 27 10 -99 41 45 1 115
7 83 22 -116 127 2 19 -111
-3 82 -127 -127 127 -34 -63 6
-84 -127 -8 -89 -47 123 84 71
-111 104 -97 -24 -30 -60 19 -70
75 -41 -37 42 -7 9 -100 14
16 -42 127 -95 75 -12 126 -122
-100 -89 25 15 -94 9 115 118
-30 101 60 -91 127 -56 27 -58
127 62 127 -104 101 -9 50 82
-104 66 -6 -127 58 -3 111 -127
-94 -72 85 40 127 -119 127 -43
-102 80 -127 116 100 119 58 -100
-127 127 91 64 123 -1 -13 67

model_1/143/Conv2D i1 [144, 1, 1, 24]
00000000: 3493 de28 7bd6 be90 deaa 1da0 24b2 ae09
00000010: 2f69 a23a 4b81 4bad 7292 037f d54e 7584
00000020: 519d 3c5b 1d63 51ac 82ac 77cc e9b5 5e87
00000030: 55d9 85e0 27bd 91c6 f39a 0396 41cf 15d5
00000040: 7379 170a 7f50 b04c eb37 bed5 848d 3263
00000050: 05c4 6d8c 16b2 4bde f364 4881 4fe3 915f
00000060: d6ee 4bd0 0330 890b 3940 de31 a1dc 8f7f
00000070: 0d88 40aa d01e 2f0a 5381 2bac f28f b65f
00000080: 113b 0ba2 551c 7619 8eef 1cf3 d6dc 9589
00000090: e63f e8ab 263e acdc 7b0e 971a 3981 0283
000000a0: 7bc4 00a2 cbe3 c827 d27f 26f0 2d35 b014
000000b0: dc01 35e2 cf69 95b2 5644 33b1 8188 70ec
000000c0: 17ac eb28 1bb8 138d d604 fa46 e89e 510e
000000d0: 9b14 5079 7f47 ce1f c3ad 045e 82a9 f39c
000000e0: 7d11 85fb 4ac9 087b 81fa 60b3 c797 bc46
000000f0: f191 9187 be01 8136 6bb5 c1a6 e717 c76a
52 -109 -34 40 123 -42 -66 -112
-34 -86 29 -96 36 -78 -82 9
47 105 -94 58 75 -127 75 -83
114 -110 3 127 -43 78 117 -124
81 -99 60 91 29 99 81 -84
-126 -84 119 -52 -23 -75 94 -121
85 -39 -123 -32 39 -67 -111 -58
-13 -102 3 -106 65 -49 21 -43
115 121 23 10 127 80 -80 76
-21 55 -66 -43 -124 -115 50 99
5 -60 109 -116 22 -78 75 -34
-13 100 72 -127 79 -29 -111 95
-42 -18 75 -48 3 48 -119 11
57 64 -34 49 -95 -36 -113 127
13 -120 64 -86 -48 30 47 10
83 -127 43 -84 -14 -113 -74 95
17 59 11 -94 85 28 118 25
-114 -17 28 -13 -42 -36 -107 -119
-26 63 -24 -85 38 62 -84 -36
123 14 -105 26 57 -127 2 -125
123 -60 0 -94 -53 -29 -56 39
-46 127 38 -16 45 53 -80 20
-36 1 53 -30 -49 105 -107 -78
86 68 51 -79 -127 -120 112 -20
23 -84 -21 40 27 -72 19 -115
-42 4 -6 70 -24 -98 81 14
-101 20 80 121 127 71 -50 31
-61 -83 4 94 -126 -87 -13 -100
125 17 -123 -5 74 -55 8 123
-127 -6 96 -77 -57 -105 -68 70
-15 -111 -111 -121 -66 1 -127 54
107 -75 -63 -90 -25 23 -57 106

model_1/141/Conv2D i1 [24, 1, 1, 144]
00000000: 961d 5cf3 e164 6091 5e6d aed8 a8f0 dac4
00000010: b533 a0de 7b58 4436 3e22 33a5 b8a2 09e7
00000020: 211f ce4b 08d6 ec66 e1ad 6be0 1069 73c9
00000030: 18b3 2ab2 9f1b 3c6a 62f8 c7f1 d773 7b04
00000040: 6a38 bb4d d7fe 9ca8 1a90 7db0 d632 cd26
00000050: 7a42 1efd cac9 3720 f590 4b25 163b 2d04
00000060: bad1 6bd0 7723 9ab1 3c81 d275 d026 18fa
00000070: a301 9d7d 1779 c5d1 4828 a9e3 9f47 f6a8
00000080: 760b 07dd a7eb 8868 7728 3453 262a 29ed
00000090: 889e 06d5 4add d1a7 0bf1 d05d cb88 bbfe
000000a0: 0a9d b597 5fc5 a77f e7ab 37c8 7d35 ae41
000000b0: 2ca1 2cef dfd2 a81e a6bc 7c2e b394 c12f
000000c0: 7679 8a36 c87d d415 e26c 6fd8 d38c 5067
000000d0: 7c8e 700c 32b4 a8a3 e1d4 d20a 603b f808
000000e0: 05ac 1429 441c d6d7 b4a4 c796 48aa acad
000000f0: 7e5d ade1 ed0f 5192 c1d8 b4ce 47c4 b3e2
-106 29 92 -13 -31 100 96 -111
94 109 -82 -40 -88 -16 -38 -60
-75 51 -96 -34 123 88 68 54
62 34 51 -91 -72 -94 9 -25
33 31 -50 75 8 -42 -20 102
-31 -83 107 -32 16 105 115 -55
24 -77 42 -78 -97 27 60 106
98 -8 -57 -15 -41 115 123 4
106 56 -69 77 -41 -2 -100 -88
26 -112 125 -80 -42 50 -51 38
122 66 30 -3 -54 -55 55 32
-11 -112 75 37 22 59 45 4
-70 -47 107 -48 119 35 -102 -79
60 -127 -46 117 -48 38 24 -6
-93 1 -99 125 23 121 -59 -47
72 40 -87 -29 -97 71 -10 -88
118 11 7 -35 -89 -21 -120 104
119 40 52 83 38 42 41 -19
-120 -98 6 -43 74 -35 -47 -89
11 -15 -48 93 -53 -120 -69 -2
10 -99 -75 -105 95 -59 -89 127
-25 -85 55 -56 125 53 -82 65
44 -95 44 -17 -33 -46 -88 30
-90 -68 124 46 -77 -108 -63 47
118 121 -118 54 -56 125 -44 21
-30 108 111 -40 -45 -116 80 103
124 -114 112 12 50 -76 -88 -93
-31 -44 -46 10 96 59 -8 8
5 -84 20 41 68 28 -42 -41
-76 -92 -57 -106 72 -86 -84 -83
126 93 -83 -31 -19 15 81 -110
-63 -40 -76 -50 71 -60 -77 -30

model_1/140/depthwise i1 [1, 3, 3, 144]
00000000: fb85 7d78 a497 ac94 8142 3033 7feb 81f3
00000010: 3f06 2bef 6edf a25e 0544 8390 aec5 8981
00000020: 2e81 c1f9 c04b 134c b141 6717 5cf0 9976
00000030: 396d 617f 047c a54a 7fab c5ee bfff 8192
00000040: 7126 817f 99fa 0c91 55cd 8170 07c0 0cc3
00000050: a212 1f7d c717 2c76 3ae1 c28c d181 ed07
00000060: 1ed9 9ff5 9e0b 1355 d64d 7f41 5d11 0b4c
00000070: f1f6 bb5a 6325 933d 02ed 4f08 eee9 814b
00000080: 5181 cfb3 cad7 aff8 6c5b 3b31 6b36 3d7f
00000090: 8675 b5d9 7f8d d1b2 48aa 0736 58e5 fac4
000000a0: ef31 139b 4e13 6e44 ac81 817b 8149 7554
000000b0: ec50 87a3 7755 b6a4 6584 81c5 b377 4ba4
000000c0: 7faf 5236 247b 1bb3 7491 c58b 8213 821e
000000d0: df7f e086 8181 81c7 c3b8 ada0 5c63 8186
000000e0: 0e19 81da a91e e381 c099 4607 3cc7 7f1c
000000f0: a397 7ff4 d57f a068 ddce 7881 119b 207f
-5 -123 125 120 -92 -105 -84 -108
-127 66 48 51 127 -21 -127 -13
63 6 43 -17 110 -33 -94 94
5 68 -125 -112 -82 -59 -119 -127
46 -127 -63 -7 -64 75 19 76
-79 65 103 23 92 -16 -103 118
57 109 97 127 4 124 -91 74
127 -85 -59 -18 -65 -1 -127 -110
113 38 -127 127 -103 -6 12 -111
85 -51 -127 112 7 -64 12 -61
-94 18 31 125 -57 23 44 118
58 -31 -62 -116 -47 -127 -19 7
30 -39 -97 -11 -98 11 19 85
-42 77 127 65 93 17 11 76
-15 -10 -69 90 99 37 -109 61
2 -19 79 8 -18 -23 -127 75
81 -127 -49 -77 -54 -41 -81 -8
108 91 59 49 107 54 61 127
-122 117 -75 -39 127 -115 -47 -78
72 -86 7 54 88 -27 -6 -60
-17 49 19 -101 78 19 110 68
-84 -127 -127 123 -127 73 117 84
-20 80 -121 -93 119 85 -74 -92
101 -124 -127 -59 -77 119 75 -92
127 -81 82 54 36 123 27 -77
116 -111 -59 -117 -126 19 -126 30
-33 127 -32 -122 -127 -127 -127 -57
-61 -72 -83 -96 92 99 -127 -122
14 25 -127 -38 -87 30 -29 -127
-64 -103 70 7 60 -57 127 28
-93 -105 127 -12 -43 127 -96 104
-35 -50 120 -127 17 -101 32 127

model_1/139/Conv2D i1 [144, 1, 1, 24]
00000000: bfc9 e6cd cae4 c93e d5fc 3c67 be8e 1a34
00000010: c8ee e3d1 0dd9 a57f d41c 688c 707f dbf6
00000020: 866b 1720 6ff0 d21a ff1b 56b7 af15 f2e2
00000030: 7f1a 0d0e c2e2 ebc7 8f95 7fc6 892a d104
00000040: 117c 3943 c58d 6e75 6bd1 544d b070 6a66
00000050: ed40 f005 d481 ffc3 c27f 0ae4 5dda 8dd8
00000060: 5ffc d956 1220 aa96 e1aa 31bd e9b4 db30
00000070: 92be 7f58 61ea 2a1a 2660 64c5 4a7f 05a2
00000080: ac46 426b afc8 9525 73f8 b27f 3602 8d2d
00000090: b4aa f1da 9284 5882 4c7b c891 8464 e649
000000a0: 4dbd 484c b781 0156 7869 3f7e 2ef8 a7a0
000000b0: 9de6 1b6f c075 9d0b 41e7 816b d54c 4400
000000c0: 1181 16db 1c05 de16 43c5 6212 3455 dede
000000d0: 3f0b c455 2013 0803 6d05 4a86 7f51 8473
000000e0: 24aa e1cc 8b57 474f e86f 68d1 8bcc 573c
000000f0: 1db2 dd6d ca8a 81ef cf27 a90c 5119 6d87
-65 -55 -26 -51 -54 -28 -55 62
-43 -4 60 103 -66 -114 26 52
-56 -18 -29 -47 13 -39 -91 127
-44 28 104 -116 112 127 -37 -10
-122 107 23 32 111 -16 -46 26
-1 27 86 -73 -81 21 -14 -30
127 26 13 14 -62 -30 -21 -57
-113 -107 127 -58 -119 42 -47 4
17 124 57 67 -59 -115 110 117
107 -47 84 77 -80 112 106 102
-19 64 -16 5 -44 -127 -1 -61
-62 127 10 -28 93 -38 -115 -40
95 -4 -39 86 18 32 -86 -106
-31 -86 49 -67 -23 -76 -37 48
-110 -66 127 88 97 -22 42 26
38 96 100 -59 74 127 5 -94
-84 70 66 107 -81 -56 -107 37
115 -8 -78 127 54 2 -115 45
-76 -86 -15 -38 -110 -124 88 -126
76 123 -56 -111 -124 100 -26 73
77 -67 72 76 -73 -127 1 86
120 105 63 126 46 -8 -89 -96
-99 -26 27 111 -64 117 -99 11
65 -25 -127 107 -43 76 68 0
17 -127 22 -37 28 5 -34 22
67 -59 98 18 52 85 -34 -34
63 11 -60 85 32 19 8 3
109 5 74 -122 127 81 -124 115
36 -86 -31 -52 -117 87 71 79
-24 111 104 -47 -117 -52 87 60
29 -78 -35 109 -54 -118 -127 -17
-49 39 -87 12 81 25 109 -121

model_1/137/Conv2D i1 [24, 1, 1, 144]
00000000: 294b 0e55 1b18 4b45 2141 5187 4385 a6ad
00000010: 6a86 406a 359e 1dbe 0c7c 3599 5ce2 cce6
00000020: cb89 4182 12db 8ca1 59a0 220a bbcb 22bb
00000030: 28d9 4cbc 7b41 a435 aba8 6806 50ee 4d55
00000040: 6340 38a5 37a5 436a 1a2e 37d5 53af d7d6
00000050: e7e8 4097 bc1b 743b 6d71 5d19 f520 1a85
00000060: 5c61 fae1 2d55 0ed0 9173 a87f 9434 866d
00000070: 883a 64e1 a3c1 6ada fac7 0707 df20 93f3
00000080: 14d3 f788 88a9 ef61 c418 45a9 bb4f fc58
00000090: 001f 4565 a985 99f1 0990 857f 46f4 4f41
000000a0: 7f3f d5b4 ff22 5ef3 5f85 e1e0 8fe7 2afa
000000b0: 5944 45f9 a2da a0c5 d979 1fd6 14b3 ca13
000000c0: 6de1 a36c bfda 0548 0a73 854c 32f9 8ff8
000000d0: 61ea f1f2 e390 f8ac 5c52 02b2 75fe cb72
000000e0: 939e e18e f6b9 7712 5a6d 64e5 f9a8 827d
000000f0: 3973 d9d3 d327 c4c7 14e9 cba2 364e 3d16
41 75 14 85 27 24 75 69
33 65 81 -121 67 -123 -90 -83
106 -122 64 106 53 -98 29 -66
12 124 53 -103 92 -30 -52 -26
-53 -119 65 -126 18 -37 -116 -95
89 -96 34 10 -69 -53 34 -69
40 -39 76 -68 123 65 -92 53
-85 -88 104 6 80 -18 77 85
99 64 56 -91 55 -91 67 106
26 46 55 -43 83 -81 -41 -42
-25 -24 64 -105 -68 27 116 59
109 113 93 25 -11 32 26 -123
92 97 -6 -31 45 85 14 -48
-111 115 -88 127 -108 52 -122 109
-120 58 100 -31 -93 -63 106 -38
-6 -57 7 7 -33 32 -109 -13
20 -45 -9 -120 -120 -87 -17 97
-60 24 69 -87 -69 79 -4 88
0 31 69 101 -87 -123 -103 -15
9 -112 -123 127 70 -12 79 65
127 63 -43 -76 -1 34 94 -13
95 -123 -31 -32 -113 -25 42 -6
89 68 69 -7 -94 -38 -96 -59
-39 121 31 -42 20 -77 -54 19
109 -31 -93 108 -65 -38 5 72
10 115 -123 76 50 -7 -113 -8
97 -22 -15 -14 -29 -112 -8 -84
92 82 2 -78 117 -2 -53 114
-109 -98 -31 -114 -10 -71 119 18
90 109 100 -27 -7 -88 -126 125
57 115 -39 -45 -45 39 -60 -57
20 -23 -53 -94 54 78 61 22
