mbv2.tflite (tflite, 966712 bytes, 53 tensors)

model_1/172/Conv2D i1 [2, 1, 1, 1280]
-74 41 44 -47 42 71 -51 -85
109 -86 -121 -114 21 -68 -114 -32
-52 -45 121 0 80 102 96 -91
-35 13 1 -33 -106 42 29 124
49 -120 11 34 106 79 -36 80
-71 18 -124 106 118 -95 -110 -64
-40 48 -70 71 113 -18 44 -72
123 35 -74 -100 -120 85 -77 0
-18 -2 -96 -9 -9 -38 80 -95
108 22 -111 54 86 -42 20 -100
-91 40 96 -39 -29 -15 -11 -44
75 -89 -35 -96 35 101 44 -119
-22 -63 -76 111 120 -109 77 52
-29 -8 -107 16 31 -76 -5 72
112 60 47 -98 32 77 -94 66
113 113 101 -67 17 -101 38 80
-103 -41 32 64 -60 -124 95 126
113 -99 -84 22 -87 -12 -102 -52
-84 -73 -69 91 51 63 25 107
100 104 -74 63 95 30 -116 -93
75 -37 117 74 114 -17 -91 40
104 10 -67 55 4 106 82 -102
73 -85 80 94 -40 -126 53 -126
-116 -101 91 -3 50 -53 -8 -91
17 -6 -90 103 68 13 -72 43
54 108 -6 -9 74 -16 53 -7
-39 -124 -7 -9 -81 72 -104 -105
72 57 -19 -36 -98 85 -127 -29
-122 -58 -18 99 -55 96 -99 -47
32 -75 46 45 40 112 95 -80
-40 118 41 97 8 63 -17 -74
72 99 22 68 45 -95 34 2
00000000: b629 2cd1 2a47 cdab 6daa 878e 15bc 8ee0
00000010: ccd3 7900 5066 60a5 dd0d 01df 962a 1d7c
00000020: 3188 0b22 6a4f dc50 b912 846a 76a1 92c0
00000030: d830 ba47 71ee 2cb8 7b23 b69c 8855 b300
00000040: eefe a0f7 f7da 50a1 6c16 9136 56d6 149c
00000050: a528 60d9 e3f1 f5d4 4ba7 dda0 2365 2c89
00000060: eac1 b46f 7893 4d34 e3f8 9510 1fb4 fb48
00000070: 703c 2f9e 204d a242 7171 65bd 119b 2650
00000080: 99d7 2040 c484 5f7e 719d ac16 a9f4 9acc
00000090: acb7 bb5b 333f 196b 6468 b63f 5f1e 8ca3
000000a0: 4bdb 754a 72ef a528 680a bd37 046a 529a
000000b0: 49ab 505e d882 3582 8c9b 5bfd 32cb f8a5
000000c0: 11fa a667 440d b82b 366c faf7 4af0 35f9
000000d0: d984 f9f7 af48 9897 4839 eddc 9e55 81e3
000000e0: 86c6 ee63 c960 9dd1 20b5 2e2d 2870 5fb0
000000f0: d876 2961 083f efb6 4863 1644 2da1 2202

model_1/168/Conv2D i1 [1280, 1, 1, 160]
19 -10 -26 -74 -116 75 -124 -20
25 79 78 49 17 -44 -30 75
-17 61 117 -77 -86 52 -51 29
122 -85 -58 -118 -91 -104 -8 -88
-110 -95 -88 -103 117 -58 14 -104
37 -80 73 -42 -37 -32 123 91
-100 -9 64 104 -15 -90 -69 48
-123 -66 122 -77 3 -108 117 63
45 -45 126 110 -124 -123 -23 -47
-31 -60 121 8 59 -67 -5 -127
13 112 -121 -59 58 1 -26 100
-41 89 -70 -43 88 75 51 -76
13 -116 -44 -44 49 3 27 -57
-52 -35 -119 9 -59 -63 37 -51
-15 -108 14 -4 21 -107 116 114
-85 -5 27 -43 -72 -81 67 120
-108 64 -88 35 -68 123 -33 72
-77 34 -102 50 -46 -38 -44 38
12 -113 19 115 124 -126 -89 92
8 -27 -7 -55 -111 14 39 -92
56 -43 38 51 -104 58 8 19
59 79 -45 -27 -48 -98 -98 31
89 122 47 28 122 -119 116 31
45 112 -74 81 24 3 -116 126
41 -98 -124 127 109 34 -29 -76
104 61 -33 121 44 -114 -20 34
6 -3 -1 -22 126 45 -1 -126
58 75 16 96 -69 -114 116 100
-3 -125 -48 83 -101 -43 3 13
-8 82 49 -30 107 -123 47 14
91 -113 -67 -82 -107 -8 -56 -23
71 -110 99 -109 -100 -125 -26 80
00000000: 13f6 e6b6 8c4b 84ec 194f 4e31 11d4 e24b
00000010: ef3d 75b3 aa34 cd1d 7aab c68a a598 f8a8
00000020: 92a1 a899 75c6 0e98 25b0 49d6 dbe0 7b5b
00000030: 9cf7 4068 f1a6 bb30 85be 7ab3 0394 753f
00000040: 2dd3 7e6e 8485 e9d1 e1c4 7908 3bbd fb81
00000050: 0d70 87c5 3a01 e664 d759 bad5 584b 33b4
00000060: 0d8c d4d4 3103 1bc7 ccdd 8909 c5c1 25cd
00000070: f194 0efc 1595 7472 abfb 1bd5 b8af 4378
00000080: 9440 a823 bc7b df48 b322 9a32 d2da d426
00000090: 0c8f 1373 7c82 a75c 08e5 f9c9 910e 27a4
000000a0: 38d5 2633 983a 0813 3b4f d3e5 d09e 9e1f
000000b0: 597a 2f1c 7a89 741f 2d70 b651 1803 8c7e
000000c0: 299e 847f 6d22 e3b4 683d df79 2c8e ec22
000000d0: 06fd ffea 7e2d ff82 3a4b 1060 bb8e 7464
000000e0: fd83 d053 9bd5 030d f852 31e2 6b85 2f0e
000000f0: 5b8f bdae 95f8 c8e9 4792 6393 9c83 e650

model_1/167/Conv2D i1 [160, 1, 1, 480]
88 118 -88 1 -68 -31 93 -99
24 87 116 -123 -69 -124 -30 77
-107 25 -36 13 59 60 46 -13
5 -78 42 69 85 -106 67 -112
74 16 57 104 -14 59 -105 83
-87 -94 121 44 14 123 -71 -16
8 59 -84 -112 82 92 -125 49
74 49 -21 -2 21 30 -111 -26
-93 111 78 85 38 -91 113 -34
-28 -120 65 120 93 112 -39 97
78 -45 60 -118 0 99 13 4
-85 65 58 -50 76 -68 -8 6
127 -126 98 119 -69 34 39 -74
40 28 38 101 -96 -46 68 97
-11 -16 -54 -61 -17 49 -14 -90
-7 88 25 65 -115 -24 -116 -20
-55 95 64 23 1 -66 -20 -2
-24 106 -59 29 -48 -90 31 67
95 22 -92 21 -103 120 -126 -26
73 -72 105 93 -2 22 -50 -24
-50 -98 -8 49 35 74 -57 -106
112 31 124 -99 -35 -54 17 -9
-59 -101 -60 -64 -57 89 56 -65
-59 102 127 18 81 -47 50 -64
68 -118 74 -124 43 -120 61 38
-55 -15 50 -40 -45 124 -33 -121
28 105 -30 35 101 113 82 -97
76 -99 96 -49 60 57 110 88
83 -101 83 -51 -13 -41 14 -45
-41 -32 -97 26 -41 -121 93 42
-63 -120 64 -107 42 63 25 -109
-92 -47 68 -17 -105 14 2 -48
00000000: 5876 a801 bce1 5d9d 1857 7485 bb84 e24d
00000010: 9519 dc0d 3b3c 2ef3 05b2 2a45 5596 4390
00000020: 4a10 3968 f23b 9753 a9a2 792c 0e7b b9f0
00000030: 083b ac90 525c 8331 4a31 ebfe 151e 91e6
00000040: a36f 4e55 26a5 71de e488 4178 5d70 d961
00000050: 4ed3 3c8a 0063 0d04 ab41 3ace 4cbc f806
00000060: 7f82 6277 bb22 27b6 281c 2665 a0d2 4461
00000070: f5f0 cac3 ef31 f2a6 f958 1941 8de8 8cec
00000080: c95f 4017 01be ecfe e86a c51d d0a6 1f43
00000090: 5f16 a415 9978 82e6 49b8 695d fe16 cee8
000000a0: ce9e f831 234a c796 701f 7c9d ddca 11f7
000000b0: c59b c4c0 c759 38bf c566 7f12 51d1 32c0
000000c0: 448a 4a84 2b88 3d26 c9f1 32d8 d37c df87
000000d0: 1c69 e223 6571 529f 4c9d 60cf 3c39 6e58
000000e0: 539b 53cd f3d7 0ed3 d7e0 9f1a d787 5d2a
000000f0: c188 4095 2a3f 1993 a4d1 44ef 970e 02d0

model_1/166/depthwise i1 [1, 3, 3, 480]
-127 36 -86 -41 23 127 75 -114
28 127 12 122 -90 -81 127 83
-127 -19 -112 -89 127 -31 107 -126
-93 18 -86 103 -31 14 -4 113
-76 -17 72 20 -14 94 11 -23
-88 35 50 -98 -110 -53 -75 94
-74 127 -55 -37 58 -127 -47 72
28 127 -18 -20 85 -127 -9 6
-71 23 109 86 109 -74 102 59
-56 -127 -116 100 -12 24 9 -7
50 22 70 95 45 6 40 7
80 106 71 -11 -28 97 -117 4
82 -6 30 38 -80 -127 127 -127
-69 118 -85 86 14 67 -92 -71
89 88 89 112 28 14 -56 -22
70 14 108 37 68 75 -84 -19
127 -24 37 -127 -9 127 -53 -127
127 -1 -76 -14 -57 36 127 -11
84 -127 43 32 -127 -78 -113 -81
118 -127 -127 -95 -11 53 -127 75
127 18 48 -11 86 -11 16 46
-86 127 31 -127 127 73 100 62
-113 112 -39 -73 32 4 66 -127
77 123 17 -67 -103 90 41 93
127 124 -127 88 -107 121 39 15
-58 -97 -47 7 114 15 -46 -108
-37 -80 -61 127 51 47 104 -10
-2 22 81 127 88 125 28 27
68 -11 -42 116 47 -96 28 37
-21 108 81 -50 -32 53 -3 -67
-90 127 -60 -37 127 -38 16 -2
-5 0 -102 69 113 77 -127 -58
00000000: 8124 aad7 177f 4b8e 1c7f 0c7a a6af 7f53
00000010: 81ed 90a7 7fe1 6b82 a312 aa67 e10e fc71
00000020: b4ef 4814 f25e 0be9 a823 329e 92cb b55e
00000030: b67f c9db 3a81 d148 1c7f eeec 5581 f706
00000040: b917 6d56 6db6 663b c881 8c64 f418 09f9
00000050: 3216 465f 2d06 2807 506a 47f5 e461 8b04
00000060: 52fa 1e26 b081 7f81 bb76 ab56 0e43 a4b9
00000070: 5958 5970 1c0e c8ea 460e 6c25 444b aced
00000080: 7fe8 2581 f77f cb81 7fff b4f2 c724 7ff5
00000090: 5481 2b20 81b2 8faf 7681 81a1 f535 814b
000000a0: 7f12 30f5 56f5 102e aa7f 1f81 7f49 643e
000000b0: 8f70 d9b7 2004 4281 4d7b 11bd 995a 295d
000000c0: 7f7c 8158 9579 270f c69f d107 720f d294
000000d0: dbb0 c37f 332f 68f6 fe16 517f 587d 1c1b
000000e0: 44f5 d674 2fa0 1c25 eb6c 51ce e035 fdbd
000000f0: a67f c4db 7fda 10fe fb00 9a45 714d 81c6

model_1/165/Conv2D i1 [480, 1, 1, 80]
93 -7 -29 -17 53 -2 -127 -31
-6 108 -66 -72 -9 -18 -49 -58
-44 -123 102 117 83 94 71 109
-75 -91 35 123 -87 65 19 -125
32 118 -18 -89 107 107 -110 -34
-29 69 -14 -12 -110 109 115 -78
-118 -125 127 1 40 39 -86 75
-58 93 10 -77 -46 -5 64 -56
-52 97 -95 86 -121 107 16 -42
116 98 -124 -33 38 -32 116 -18
-66 -126 -33 -124 87 -29 -102 -106
28 -27 -114 32 -21 -29 57 -69
45 80 -117 -34 100 -8 -24 -17
-50 16 -95 -5 -82 117 39 63
46 -34 -82 -127 44 37 -43 -23
109 109 -7 9 68 95 38 98
-69 96 0 -51 -100 73 -126 49
-105 -31 122 -103 -22 47 52 89
44 109 44 58 95 -81 15 80
126 114 126 -39 -72 23 18 22
-127 74 127 -43 40 -48 -29 37
-94 -117 17 72 75 -63 -4 0
-94 -2 113 63 -63 86 -69 -108
44 71 25 65 -126 -101 -21 19
-44 86 -106 -48 111 25 43 -46
-12 127 -16 77 -22 115 -59 -75
-10 -56 -20 67 123 -123 42 11
81 -101 -30 51 -105 8 49 93
-69 -20 114 20 115 103 99 125
29 26 -89 -72 32 116 92 -50
-111 -56 -12 -39 118 -21 -104 41
110 -11 47 -97 -65 110 36 17
00000000: 5df9 e3ef 35fe 81e1 fa6c beb8 f7ee cfc6
00000010: d485 6675 535e 476d b5a5 237b a941 1383
00000020: 2076 eea7 6b6b 92de e345 f2f4 926d 73b2
00000030: 8a83 7f01 2827 aa4b c65d 0ab3 d2fb 40c8
00000040: cc61 a156 876b 10d6 7462 84df 26e0 74ee
00000050: be82 df84 57e3 9a96 1ce5 8e20 ebe3 39bb
00000060: 2d50 8bde 64f8 e8ef ce10 a1fb ae75 273f
00000070: 2ede ae81 2c25 d5e9 6d6d f909 445f 2662
00000080: bb60 00cd 9c49 8231 97e1 7a99 ea2f 3459
00000090: 2c6d 2c3a 5faf 0f50 7e72 7ed9 b817 1216
000000a0: 814a 7fd5 28d0 e325 a28b 1148 4bc1 fc00
000000b0: a2fe 713f c156 bb94 2c47 1941 829b eb13
000000c0: d456 96d0 6f19 2bd2 f47f f04d ea73 c5b5
000000d0: f6c8 ec43 7b85 2a0b 519b e233 9708 315d
000000e0: bbec 7214 7367 637d 1d1a a7b8 2074 5cce
000000f0: 91c8 f4d9 76eb 9829 6ef5 2f9f bf6e 2411

model_1/163/Conv2D i1 [80, 1, 1, 480]
-91 82 121 67 -65 13 36 -19
-24 110 -46 78 -113 75 -83 -32
-124 -98 -33 -88 23 -93 -8 35
70 -69 23 45 -53 121 -3 -126
-126 123 -77 -55 99 80 89 -48
-126 -50 32 -122 -25 86 69 23
-47 103 -73 24 116 44 85 26
46 101 -65 -90 -6 -31 -120 -7
42 17 -95 -63 58 6 -10 -7
-117 -52 40 121 -112 99 73 -7
64 58 -105 13 -85 28 105 -37
50 -76 -42 -74 61 -86 91 -22
-56 -61 -78 126 116 -65 -125 76
-50 117 23 59 52 -107 -34 -28
125 9 -94 1 22 -101 -14 -62
18 -23 72 -72 57 -8 70 -71
57 49 -33 -43 -71 13 -92 -15
1 103 126 -53 -96 35 -42 114
121 98 -85 89 42 33 127 0
-121 -67 36 -49 87 80 71 -127
-55 -73 -82 -116 80 -20 44 -14
69 19 -7 -112 96 22 50 10
-64 -70 6 59 10 80 38 124
17 56 -40 -17 -48 113 -18 43
17 -89 -60 5 122 3 85 -61
83 116 -11 6 -20 -40 93 94
-36 20 -24 41 10 103 -55 119
-101 -2 69 123 80 106 34 43
-90 19 59 60 101 -112 23 110
-86 -119 -52 124 -61 109 -93 50
-26 37 89 -2 -8 -69 124 -45
-108 -9 -78 -32 114 -24 -42 -54
00000000: a552 7943 bf0d 24ed e86e d24e 8f4b ade0
00000010: 849e dfa8 17a3 f823 46bb 172d cb79 fd82
00000020: 827b b3c9 6350 59d0 82ce 2086 e756 4517
00000030: d167 b718 742c 551a 2e65 bfa6 fae1 88f9
00000040: 2a11 a1c1 3a06 f6f9 8bcc 2879 9063 49f9
00000050: 403a 970d ab1c 69db 32b4 d6b6 3daa 5bea
00000060: c8c3 b27e 74bf 834c ce75 173b 3495 dee4
00000070: 7d09 a201 169b f2c2 12e9 48b8 39f8 46b9
00000080: 3931 dfd5 b90d a4f1 0167 7ecb a023 d672
00000090: 7962 ab59 2a21 7f00 87bd 24cf 5750 4781
000000a0: c9b7 ae8c 50ec 2cf2 4513 f990 6016 320a
000000b0: c0ba 063b 0a50 267c 1138 d8ef d071 ee2b
000000c0: 11a7 c405 7a03 55c3 5374 f506 ecd8 5d5e
000000d0: dc14 e829 0a67 c977 9bfe 457b 506a 222b
000000e0: a613 3b3c 6590 176e aa89 cc7c c36d a332
000000f0: e625 59fe f8bb 7cd3 94f7 b2e0 72e8 d6ca

model_1/162/depthwise i1 [1, 3, 3, 480]
48 -12 -30 116 -84 109 -99 -27
77 -89 -32 -26 68 108 -24 12
119 -66 51 23 -127 116 -87 -122
104 15 -34 69 -25 113 -98 6
125 -112 31 127 111 -64 12 -127
-115 13 -127 -127 2 2 -127 -127
-86 92 15 -85 -86 -6 -127 -45
-127 -19 -63 -31 -19 -83 17 -9
-22 108 -100 -31 -52 -99 24 -127
-93 -87 8 98 -37 110 127 -96
76 5 -44 -127 -83 13 5 -51
-10 -104 -127 -58 -84 0 -74 97
-86 127 -96 42 -108 -2 98 -117
24 -1 -88 89 39 -127 -120 -96
60 0 52 -127 70 127 84 111
-122 23 -127 -53 69 52 77 -28
-63 99 101 127 -94 -108 -104 -122
-58 37 40 -81 -53 -22 -74 -71
-21 117 107 -40 21 78 33 -1
125 98 127 -30 -117 125 100 58
84 84 81 103 18 43 77 -81
-25 -127 45 -99 88 82 -127 17
-127 -15 -6 -127 86 33 127 -67
62 -17 98 -121 20 -107 118 -95
-13 61 10 -127 -115 90 58 -62
122 -110 120 -68 84 -127 24 -117
127 -116 -8 -126 55 64 -8 120
-68 -69 19 13 -122 -27 -108 5
56 -54 58 92 -127 53 -105 4
61 22 -2 95 80 -58 38 -77
21 72 -90 61 -9 -63 -84 -102
72 35 -19 -110 123 -86 -107 119
00000000: 30f4 e274 ac6d 9de5 4da7 e0e6 446c e80c
00000010: 77be 3317 8174 a986 680f de45 e771 9e06
00000020: 7d90 1f7f 6fc0 0c81 8d0d 8181 0202 8181
00000030: aa5c 0fab aafa 81d3 81ed c1e1 edad 11f7
00000040: ea6c 9ce1 cc9d 1881 a3a9 0862 db6e 7fa0
00000050: 4c05 d481 ad0d 05cd f698 81c6 ac00 b661
00000060: aa7f a02a 94fe 628b 18ff a859 2781 88a0
00000070: 3c00 3481 467f 546f 8617 81cb 4534 4de4
00000080: c163 657f a294 9886 c625 28af cbea b6b9
00000090: eb75 6bd8 154e 21ff 7d62 7fe2 8b7d 643a
000000a0: 5454 5167 122b 4daf e781 2d9d 5852 8111
000000b0: 81f1 fa81 5621 7fbd 3eef 6287 1495 76a1
000000c0: f33d 0a81 8d5a 3ac2 7a92 78bc 5481 188b
000000d0: 7f8c f882 3740 f878 bcbb 130d 86e5 9405
000000e0: 38ca 3a5c 8135 9704 3d16 fe5f 50c6 26b3
000000f0: 1548 a63d f7c1 ac9a 4823 ed92 7baa 9577

model_1/161/Conv2D i1 [480, 1, 1, 80]
-45 -26 -20 -57 50 -14 -34 -127
-42 -48 87 -11 123 -62 21 39
-116 -76 97 -109 -70 -11 93 2
74 125 -124 -47 -67 32 -61 -24
-94 34 44 104 90 -48 103 -95
15 113 81 -51 114 -59 14 97
16 -11 -41 -107 52 -73 -18 -105
-85 107 109 -91 -34 112 74 13
47 89 -98 14 -93 35 66 107
-95 95 84 123 79 59 105 35
29 62 -111 62 -24 99 -100 -97
72 28 59 122 -17 16 12 109
127 -50 -76 23 -93 -88 -103 -65
-13 -51 -87 -81 -112 -69 39 -6
-55 49 45 97 -78 -108 70 94
29 -41 -75 -114 -101 -106 4 69
74 -52 115 -53 -119 -27 35 91
-126 62 -46 -12 -111 -7 -41 -99
-30 74 -85 20 124 -21 -106 95
-42 126 118 81 124 -25 -35 -69
127 16 34 44 126 -121 -105 -40
67 122 121 -37 10 -78 19 -97
106 -86 -120 88 5 111 98 -74
-93 25 -108 -107 64 28 -118 -123
82 63 43 118 43 -94 0 -43
-123 -59 -11 -86 -99 107 -18 48
-67 -32 120 -100 -82 50 40 8
39 27 -47 84 102 -73 83 7
-109 -52 86 112 -117 -40 4 -105
86 110 -88 -47 96 -76 -83 -93
107 -58 107 -3 -121 104 -101 72
-74 -106 -72 40 -88 11 -119 -124
00000000: d3e6 ecc7 32f2 de81 d6d0 57f5 7bc2 1527
00000010: 8cb4 6193 baf5 5d02 4a7d 84d1 bd20 c3e8
00000020: a222 2c68 5ad0 67a1 0f71 51cd 72c5 0e61
00000030: 10f5 d795 34b7 ee97 ab6b 6da5 de70 4a0d
00000040: 2f59 9e0e a323 426b a15f 547b 4f3b 6923
00000050: 1d3e 913e e863 9c9f 481c 3b7a ef10 0c6d
00000060: 7fce b417 a3a8 99bf f3cd a9af 90bb 27fa
00000070: c931 2d61 b294 465e 1dd7 b58e 9b96 0445
00000080: 4acc 73cb 89e5 235b 823e d2f4 91f9 d79d
00000090: e24a ab14 7ceb 965f d67e 7651 7ce7 ddbb
000000a0: 7f10 222c 7e87 97d8 437a 79db 0ab2 139f
000000b0: 6aaa 8858 056f 62b6 a319 9495 401c 8a85
000000c0: 523f 2b76 2ba2 00d5 85c5 f5aa 9d6b ee30
000000d0: bde0 789c ae32 2808 271b d154 66b7 5307
000000e0: 93cc 5670 8bd8 0497 566e a8d1 60b4 ada3
000000f0: 6bc6 6bfd 8768 9b48 b696 b828 a80b 8984

model_1/159/Conv2D i1 [80, 1, 1, 480]
65 -116 -50 40 -35 112 -60 -17
48 -25 -72 -8 46 103 11 -14
105 106 -29 -47 103 107 45 -1
-6 18 57 76 119 -15 -54 -77
48 -111 83 -124 72 86 44 -115
87 -76 43 124 72 -120 -61 -92
-78 2 -84 77 -14 -109 -112 49
-61 -112 -124 -124 -113 -17 -90 101
89 -125 -69 23 102 -121 -116 -1
-27 -2 89 -125 69 -109 -87 -51
-115 -92 103 108 42 -54 90 -20
-96 106 -115 86 89 -110 113 107
20 12 5 -74 -58 -34 -17 -67
75 -65 -46 51 17 -39 -5 -89
-30 -73 111 -63 -5 -34 88 0
124 -74 85 -100 67 1 -3 124
-75 -115 105 15 31 65 -9 110
-118 56 -63 -60 14 -85 -120 -58
4 -72 19 -43 64 -75 -121 86
108 -97 3 -23 34 99 -40 -76
34 121 -41 1 -110 -52 -124 -120
103 -58 93 26 49 89 -2 2
37 -111 43 -126 -83 -17 115 42
23 -64 -63 77 -5 102 98 -60
-1 46 103 29 -104 66 103 10
-48 106 69 -99 -57 115 100 -108
65 117 3 80 -8 -119 35 -21
28 -45 62 -104 100 -74 -48 98
-7 105 -69 95 13 89 -35 -93
-126 62 13 -120 48 -4 -5 81
79 41 -67 82 -98 -96 -119 -55
-111 103 28 -87 -90 100 66 69
00000000: 418c ce28 dd70 c4ef 30e7 b8f8 2e67 0bf2
00000010: 696a e3d1 676b 2dff fa12 394c 77f1 cab3
00000020: 3091 5384 4856 2c8d 57b4 2b7c 4888 c3a4
00000030: b202 ac4d f293 9031 c390 8484 8fef a665
00000040: 5983 bb17 6687 8cff e5fe 5983 4593 a9cd
00000050: 8da4 676c 2aca 5aec a06a 8d56 5992 716b
00000060: 140c 05b6 c6de efbd 4bbf d233 11d9 fba7
00000070: e2b7 6fc1 fbde 5800 7cb6 559c 4301 fd7c
00000080: b58d 690f 1f41 f76e 8a38 c1c4 0eab 88c6
00000090: 04b8 13d5 40b5 8756 6c9f 03e9 2263 d8b4
000000a0: 2279 d701 92cc 8488 67c6 5d1a 3159 fe02
000000b0: 2591 2b82 adef 732a 17c0 c14d fb66 62c4
000000c0: ff2e 671d 9842 670a d06a 459d c773 6494
000000d0: 4175 0350 f889 23eb 1cd3 3e98 64b6 d062
000000e0: f969 bb5f 0d59 dda3 823e 0d88 30fc fb51
000000f0: 4f29 bd52 9ea0 89c9 9167 1ca9 a664 4245

model_1/158/depthwise i1 [1, 3, 3, 480]
-15 -127 -52 -1 -103 88 1 4
74 -117 86 102 106 -74 -46 -45
101 31 -105 14 113 -80 82 -90
-124 -34 -42 -116 98 114 12 8
-127 -127 -109 -117 16 120 81 112
-127 84 38 -78 -16 -46 127 -124
127 -118 -90 61 111 -40 -125 -107
40 110 -50 -127 -31 -69 -127 -95
76 -23 127 79 48 21 -127 -95
123 19 120 -116 -30 30 -38 -36
-54 -125 127 -127 -115 -111 -51 -39
82 -1 -28 25 6 -27 14 -34
101 -84 63 -26 -29 97 -127 -70
82 25 58 13 -112 -22 -124 -11
91 -2 -27 1 -126 -13 -5 -49
69 47 48 15 90 109 -45 45
78 -82 -15 -127 16 50 -55 -14
-127 72 -3 -60 37 44 -127 -67
-121 48 -26 26 45 76 -38 127
76 -124 84 124 113 -70 -22 24
127 -25 74 70 81 29 122 -23
-74 100 -40 111 -65 -68 42 8
-1 103 7 93 -21 -6 -127 -72
-66 79 -110 95 -15 69 64 -50
124 45 114 -102 -6 31 -127 10
51 -19 20 -81 -29 -15 -43 110
-127 -7 17 34 -14 -80 108 -103
15 -64 -28 -15 127 -121 -99 62
-87 -78 -37 28 127 6 21 89
-113 -3 -6 -26 -114 -20 127 -116
-38 -14 41 58 -73 123 127 -73
97 75 32 17 52 -13 -33 -126
00000000: f181 ccff 9958 0104 4a8b 5666 6ab6 d2d3
00000010: 651f 970e 71b0 52a6 84de d68c 6272 0c08
00000020: 8181 938b 1078 5170 8154 26b2 f0d2 7f84
00000030: 7f8a a63d 6fd8 8395 286e ce81 e1bb 81a1
00000040: 4ce9 7f4f 3015 81a1 7b13 788c e21e dadc
00000050: ca83 7f81 8d91 cdd9 52ff e419 06e5 0ede
00000060: 65ac 3fe6 e361 81ba 5219 3a0d 90ea 84f5
00000070: 5bfe e501 82f3 fbcf 452f 300f 5a6d d32d
00000080: 4eae f181 1032 c9f2 8148 fdc4 252c 81bd
00000090: 8730 e61a 2d4c da7f 4c84 547c 71ba ea18
000000a0: 7fe7 4a46 511d 7ae9 b664 d86f bfbc 2a08
000000b0: ff67 075d ebfa 81b8 be4f 925f f145 40ce
000000c0: 7c2d 729a fa1f 810a 33ed 14af e3f1 d56e
000000d0: 81f9 1122 f2b0 6c99 0fc0 e4f1 7f87 9d3e
000000e0: a9b2 db1c 7f06 1559 8ffd fae6 8eec 7f8c
000000f0: daf2 293a b77b 7fb7 614b 2011 34f3 df82

model_1/157/Conv2D i1 [480, 1, 1, 80]
-108 33 43 27 -18 75 -50 68
-86 -94 -95 -82 -76 -26 -92 102
-99 23 13 -71 21 38 92 47
96 13 42 -18 40 -53 -99 -99
-119 -63 39 -119 123 84 80 -48
-32 25 -28 -114 31 3 -95 -47
62 105 -24 -127 61 111 -84 94
-34 111 47 -60 -63 -37 -71 -17
57 -105 111 -6 112 92 56 31
11 115 -79 -56 39 92 114 -90
72 75 -101 -108 64 -109 33 -61
-53 -117 90 -30 27 -88 95 -41
-46 -22 -39 -110 -53 -103 -94 -103
8 -119 9 -16 -54 113 114 -99
-57 97 -110 37 82 -104 34 112
121 127 43 70 -92 -4 -18 -3
-77 32 124 107 -101 -38 67 -113
-46 41 -109 -101 94 5 98 -87
17 -83 115 -119 83 -78 -106 92
18 63 -49 -98 2 25 69 -58
79 37 24 19 -70 78 -70 59
-85 -127 61 61 -69 81 -97 32
54 119 74 -33 101 122 -89 32
-79 -66 0 -59 -68 -42 40 16
101 -26 76 105 -98 -1 -8 -81
-50 93 31 68 -55 62 51 48
-119 120 126 40 -66 72 -116 20
79 99 62 -106 -66 97 -116 104
-52 56 -76 -115 -82 12 37 91
119 -7 11 -1 57 -65 127 -95
118 76 -33 89 -88 -36 -2 -14
-102 15 109 38 -95 24 14 -16
00000000: 9421 2b1b ee4b ce44 aaa2 a1ae b4e6 a466
00000010: 9d17 0db9 1526 5c2f 600d 2aee 28cb 9d9d
00000020: 89c1 2789 7b54 50d0 e019 e48e 1f03 a1d1
00000030: 3e69 e881 3d6f ac5e de6f 2fc4 c1db b9ef
00000040: 3997 6ffa 705c 381f 0b73 b1c8 275c 72a6
00000050: 484b 9b94 4093 21c3 cb8b 5ae2 1ba8 5fd7
00000060: d2ea d992 cb99 a299 0889 09f0 ca71 729d
00000070: c761 9225 5298 2270 797f 2b46 a4fc eefd
00000080: b320 7c6b 9bda 438f d229 939b 5e05 62a9
00000090: 11ad 7389 53b2 965c 123f cf9e 0219 45c6
000000a0: 4f25 1813 ba4e ba3b ab81 3d3d bb51 9f20
000000b0: 3677 4adf 657a a720 b1be 00c5 bcd6 2810
000000c0: 65e6 4c69 9eff f8af ce5d 1f44 c93e 3330
000000d0: 8978 7e28 be48 8c14 4f63 3e96 be61 8c68
000000e0: cc38 b48d ae0c 255b 77f9 0bff 39bf 7fa1
000000f0: 764c df59 a8dc fef2 9a0f 6d26 a118 0ef0

model_1/156/Conv2D i1 [80, 1, 1, 288]
30 -116 -94 -29 52 21 -29 -83
110 95 -127 -119 119 88 96 75
10 -86 -119 106 -52 105 21 64
-28 26 22 11 -67 -40 -34 38
79 -97 -43 -30 109 -90 -7 -103
43 -59 -127 -4 39 -25 30 35
66 -84 -53 127 -48 -43 -118 -99
34 57 -27 -88 119 52 0 25
104 83 -40 105 -116 -101 -95 29
-40 -124 -86 -93 58 -112 -3 -39
116 -127 -99 -42 61 70 104 -70
30 -48 -86 21 -44 59 -50 82
-109 -55 -114 -88 95 -4 7 -10
-106 39 -36 73 -62 -18 12 101
-110 101 26 79 78 126 124 21
71 -120 3 50 56 17 -42 37
86 42 -82 113 -43 33 -64 94
80 13 -57 -43 -46 -103 45 -114
-97 29 49 -84 -41 -76 -14 49
-77 -38 1 -5 114 -8 -107 -50
-90 -51 97 -107 24 48 111 -107
33 -87 -86 -114 105 97 50 -9
-13 -64 -42 31 63 -44 -6 62
27 -103 118 -23 -71 83 31 89
-7 69 -17 6 -54 119 -41 65
-43 -115 122 50 24 6 -120 31
-94 66 -126 28 -45 123 -74 35
-81 -47 77 98 -112 -24 -33 89
89 75 35 -103 -27 -119 -48 -79
-127 -98 -1 -78 -90 17 52 -120
-90 -58 -9 112 -16 0 -120 -1
74 -120 -94 -65 83 -74 125 -72
00000000: 1e8c a2e3 3415 e3ad 6e5f 8189 7758 604b
00000010: 0aaa 896a cc69 1540 e41a 160b bdd8 de26
00000020: 4f9f d5e2 6da6 f999 2bc5 81fc 27e7 1e23
00000030: 42ac cb7f d0d5 8a9d 2239 e5a8 7734 0019
00000040: 6853 d869 8c9b a11d d884 aaa3 3a90 fdd9
00000050: 7481 9dd6 3d46 68ba 1ed0 aa15 d43b ce52
00000060: 93c9 8ea8 5ffc 07f6 9627 dc49 c2ee 0c65
00000070: 9265 1a4f 4e7e 7c15 4788 0332 3811 d625
00000080: 562a ae71 d521 c05e 500d c7d5 d299 2d8e
00000090: 9f1d 31ac d7b4 f231 b3da 01fb 72f8 95ce
000000a0: a6cd 6195 1830 6f95 21a9 aa8e 6961 32f7
000000b0: f3c0 d61f 3fd4 fa3e 1b99 76e9 b953 1f59
000000c0: f945 ef06 ca77 d741 d58d 7a32 1806 881f
000000d0: a242 821c d37b b623 afd1 4d62 90e8 df59
000000e0: 594b 2399 e589 d0b1 819e ffb2 a611 3488
000000f0: a6c6 f770 f000 88ff 4a88 a2bf 53b6 7db8

model_1/155/depthwise i1 [1, 3, 3, 288]
57 127 -111 -61 61 -95 -41 76
104 -72 18 -94 90 97 -105 -43
-16 124 -109 -127 -127 -127 127 -127
-127 42 -127 -14 39 -127 67 19
9 -25 11 -116 102 -103 -29 82
-18 22 11 116 38 79 -4 -68
-19 -50 -29 29 -127 22 -4 -99
39 5 24 127 127 127 -127 27
43 43 88 -127 -59 127 -19 -60
-124 4 -127 -109 -21 97 -113 -86
127 -79 47 -98 -46 -127 74 -84
-26 -5 -18 35 -76 108 51 -102
47 -118 42 52 -127 -58 -118 -127
107 23 64 -101 127 2 100 -11
21 -9 -49 38 111 -25 -127 -28
30 76 -10 127 127 -65 70 -70
127 36 -119 -10 -35 -111 -65 55
-127 -127 46 57 127 -26 -127 44
-127 -28 19 127 49 27 -70 -118
-67 -127 -29 -18 114 -127 101 -91
-57 -74 95 -37 35 127 -89 18
98 -32 -39 57 -34 -48 17 112
97 -17 127 -4 23 -118 -34 -18
7 -113 29 87 127 106 -92 -10
-84 -63 -65 -102 -22 -73 108 -127
47 -73 -27 -33 111 -48 47 -127
17 -40 -48 -49 59 90 127 -40
-127 88 -71 127 45 79 -80 39
-43 49 -127 61 120 125 35 -81
-127 -110 42 39 30 92 -117 99
113 115 21 -127 27 83 102 -123
52 -51 54 92 -61 33 1 -62
00000000: 397f 91c3 3da1 d74c 68b8 12a2 5a61 97d5
00000010: f07c 9381 8181 7f81 812a 81f2 2781 4313
00000020: 09e7 0b8c 6699 e352 ee16 0b74 264f fcbc
00000030: edce e31d 8116 fc9d 2705 187f 7f7f 811b
00000040: 2b2b 5881 c57f edc4 8404 8193 eb61 8faa
00000050: 7fb1 2f9e d281 4aac e6fb ee23 b46c 339a
00000060: 2f8a 2a34 81c6 8a81 6b17 409b 7f02 64f5
00000070: 15f7 cf26 6fe7 81e4 1e4c f67f 7fbf 46ba
00000080: 7f24 89f6 dd91 bf37 8181 2e39 7fe6 812c
00000090: 81e4 137f 311b ba8a bd81 e3ee 7281 65a5
000000a0: c7b6 5fdb 237f a712 62e0 d939 ded0 1170
000000b0: 61ef 7ffc 178a deee 078f 1d57 7f6a a4f6
000000c0: acc1 bf9a eab7 6c81 2fb7 e5df 6fd0 2f81
000000d0: 11d8 d0cf 3b5a 7fd8 8158 b97f 2d4f b027
000000e0: d531 813d 787d 23af 8192 2a27 1e5c 8b63
000000f0: 7173 1581 1b53 6685 34cd 365c c321 01c2

model_1/154/Conv2D i1 [288, 1, 1, 48]
2 -3 -108 -89 -41 38 112 -67
-57 -122 -127 7 -72 -91 76 16
-127 87 60 40 -109 -111 109 87
69 -125 -32 -33 -35 -126 33 78
-61 -103 37 -122 -63 -4 -62 80
-99 -101 -20 -44 -22 -27 -110 126
80 91 77 -11 -120 -12 -29 11
107 -123 48 97 87 -103 -35 45
-92 82 77 111 64 117 103 -114
122 52 -97 126 28 21 17 -20
127 77 119 23 -12 19 -19 67
117 -41 75 -39 -89 -7 -52 -9
-116 -109 63 14 30 56 36 19
-65 55 31 -63 -107 -35 -125 -49
113 36 -54 -66 -81 20 30 -120
60 6 63 -127 -47 35 103 21
-35 -107 25 -71 -95 -72 18 72
15 46 74 93 44 -77 -29 110
57 34 -125 90 103 -31 -27 97
-17 -26 -2 2 0 -13 -75 -46
25 -65 101 55 66 117 -85 51
-5 -47 52 19 115 90 109 38
69 80 -56 79 39 -82 -12 42
56 127 12 -15 -56 89 -91 -20
2 -49 -114 -73 -65 -24 75 -55
-76 9 -98 -26 58 13 -121 73
-87 10 -58 13 0 82 -8 117
-99 -117 90 -98 22 118 127 84
79 -120 8 -100 115 82 25 117
78 -121 -45 -86 -124 -31 116 53
113 119 55 23 95 -27 -122 -43
-60 73 67 -97 -2 -92 -46 -21
00000000: 02fd 94a7 d726 70bd c786 8107 b8a5 4c10
00000010: 8157 3c28 9391 6d57 4583 e0df dd82 214e
00000020: c399 2586 c1fc c250 9d9b ecd4 eae5 927e
00000030: 505b 4df5 88f4 e30b 6b85 3061 5799 dd2d
00000040: a452 4d6f 4075 678e 7a34 9f7e 1c15 11ec
00000050: 7f4d 7717 f413 ed43 75d7 4bd9 a7f9 ccf7
00000060: 8c93 3f0e 1e38 2413 bf37 1fc1 95dd 83cf
00000070: 7124 cabe af14 1e88 3c06 3f81 d123 6715
00000080: dd95 19b9 a1b8 1248 0f2e 4a5d 2cb3 e36e
00000090: 3922 835a 67e1 e561 efe6 fe02 00f3 b5d2
000000a0: 19bf 6537 4275 ab33 fbd1 3413 735a 6d26
000000b0: 4550 c84f 27ae f42a 387f 0cf1 c859 a5ec
000000c0: 02cf 8eb7 bfe8 4bc9 b409 9ee6 3a0d 8749
000000d0: a90a c60d 0052 f875 9d8b 5a9e 1676 7f54
000000e0: 4f88 089c 7352 1975 4e87 d3aa 84e1 7435
000000f0: 7177 3717 5fe5 86d5 c449 439f fea4 d2eb

model_1/152/Conv2D i1 [48, 1, 1, 288]
32 32 82 10 101 -28 -110 58
83 44 44 -34 -10 -118 -74 -74
121 85 21 75 -117 -108 21 60
-68 -91 10 -17 79 -78 -114 101
112 -46 -104 117 -27 -92 74 70
-26 -92 -42 53 -124 12 -33 -69
-1 -49 123 -44 -60 -46 -7 5
-12 28 47 -66 -99 -114 -13 1
-119 98 89 -81 -61 85 99 -33
-36 -31 -105 27 -28 -124 38 -9
-77 39 -97 22 68 31 -104 13
2 -20 -73 51 99 114 -16 53
-127 -114 -5 64 -89 -109 -41 110
62 -3 12 52 -10 -34 -36 83
-122 -109 -121 -27 -40 65 16 73
23 21 25 -63 26 -82 16 47
-39 87 62 -126 65 -35 -125 63
81 87 -35 -32 27 51 68 -11
75 37 -96 -10 87 27 2 -23
-48 -91 89 1 -70 -13 8 -38
80 -56 -13 46 -53 24 50 125
57 85 -113 -115 63 -63 116 116
73 98 24 -78 -19 -27 -80 106
-97 1 -63 61 -70 15 107 110
-47 -51 -77 96 77 123 -21 -115
14 87 99 -36 28 -9 36 24
102 74 11 1 -115 -30 -114 20
-34 116 94 -71 58 94 4 -83
-102 -58 -56 86 127 65 -31 -92
-57 -107 94 -122 57 -75 69 13
-69 8 -39 -119 -53 111 89 -24
-109 119 -20 46 42 -49 -91 -63
00000000: 2020 520a 65e4 923a 532c 2cde f68a b6b6
00000010: 7955 154b 8b94 153c bca5 0aef 4fb2 8e65
00000020: 70d2 9875 e5a4 4a46 e6a4 d635 840c dfbb
00000030: ffcf 7bd4 c4d2 f905 f41c 2fbe 9d8e f301
00000040: 8962 59af c355 63df dce1 971b e484 26f7
00000050: b327 9f16 441f 980d 02ec b733 6372 f035
00000060: 818e fb40 a793 d76e 3efd 0c34 f6de dc53
00000070: 8693 87e5 d841 1049 1715 19c1 1aae 102f
00000080: d957 3e82 41dd 833f 5157 dde0 1b33 44f5
00000090: 4b25 a0f6 571b 02e9 d0a5 5901 baf3 08da
000000a0: 50c8 f32e cb18 327d 3955 8f8d 3fc1 7474
000000b0: 4962 18b2 ede5 b06a 9f01 c13d ba0f 6b6e
000000c0: d1cd b360 4d7b eb8d 0e57 63dc 1cf7 2418
000000d0: 664a 0b01 8de2 8e14 de74 5eb9 3a5e 04ad
000000e0: 9ac6 c856 7f41 e1a4 c795 5e86 39b5 450d
000000f0: bb08 d989 cb6f 59e8 9377 ec2e 2acf a5c1

model_1/151/depthwise i1 [1, 3, 3, 288]
94 55 21 117 127 14 -84 -106
99 75 73 81 -118 -127 115 27
-97 -95 -98 96 -122 -85 -78 -127
121 -63 33 106 63 -92 26 -82
127 117 -78 40 -127 -63 52 -98
-108 -41 93 84 9 -127 61 17
-118 111 -87 -112 82 -25 -39 -22
-15 -65 -122 -32 33 73 127 -113
127 -12 66 41 -91 -127 82 -127
-95 -73 90 -21 -86 46 -70 -45
99 28 55 -123 -43 -4 -95 39
127 80 18 -105 -97 123 -127 -73
34 -99 -55 116 127 -13 -64 95
29 -88 -105 -114 -21 -97 -107 127
-65 -101 -105 -116 -29 -93 16 -45
127 127 10 8 -127 88 127 107
-16 -32 -79 72 -28 -29 -49 18
8 -73 -8 -44 49 -127 -71 -81
34 -33 8 -37 -41 -60 -127 -47
-12 127 127 -7 -29 57 53 -15
65 -60 90 -42 -64 127 -85 -28
43 -127 -1 -53 127 78 -90 -101
31 -68 78 -127 26 123 108 49
-70 -123 32 -39 -63 -59 46 18
127 23 7 39 34 -98 -101 -48
51 -105 127 127 48 -69 -24 -7
-60 127 107 -36 57 56 66 -28
-82 -56 68 120 111 -104 17 79
127 -84 48 108 -120 47 62 -127
86 84 -127 24 -127 -98 127 121
70 17 -127 -21 -40 45 -127 -70
125 -25 64 -45 39 -40 45 121
00000000: 5e37 1575 7f0e ac96 634b 4951 8a81 731b
00000010: 9fa1 9e60 86ab b281 79c1 216a 3fa4 1aae
00000020: 7f75 b228 81c1 349e 94d7 5d54 0981 3d11
00000030: 8a6f a990 52e7 d9ea f1bf 86e0 2149 7f8f
00000040: 7ff4 4229 a581 5281 a1b7 5aeb aa2e bad3
00000050: 631c 3785 d5fc a127 7f50 1297 9f7b 81b7
00000060: 229d c974 7ff3 c05f 1da8 978e eb9f 957f
00000070: bf9b 978c e3a3 10d3 7f7f 0a08 8158 7f6b
00000080: f0e0 b148 e4e3 cf12 08b7 f8d4 3181 b9af
00000090: 22df 08db d7c4 81d1 f47f 7ff9 e339 35f1
000000a0: 41c4 5ad6 c07f abe4 2b81 ffcb 7f4e a69b
000000b0: 1fbc 4e81 1a7b 6c31 ba85 20d9 c1c5 2e12
000000c0: 7f17 0727 229e 9bd0 3397 7f7f 30bb e8f9
000000d0: c47f 6bdc 3938 42e4 aec8 4478 6f98 114f
000000e0: 7fac 306c 882f 3e81 5654 8118 819e 7f79
000000f0: 4611 81eb d82d 81ba 7de7 40d3 27d8 2d79

model_1/150/Conv2D i1 [288, 1, 1, 48]
82 -108 14 -114 47 -18 -104 -17
-37 71 -10 23 85 94 -92 -4
-3 -86 35 -13 -38 -76 -48 -50
-19 125 75 -59 -57 -100 -127 -73
25 -52 62 53 -52 -91 9 67
61 -30 4 -61 -120 38 -121 34
-115 -102 56 -32 -75 4 -118 26
-12 -46 64 21 -77 -12 -80 32
27 114 -25 86 -44 6 -125 -86
-118 33 51 7 32 111 -2 8
127 -40 68 -107 22 126 -120 91
55 68 115 -123 -89 107 5 -64
81 -54 90 -93 -69 -127 -63 -84
54 -83 42 2 -76 47 121 -25
-60 -101 85 78 -126 -67 -9 -9
-91 95 -79 -14 95 109 120 -30
10 47 -88 -104 80 26 -99 36
-16 -35 39 79 -31 38 -67 60
-40 -37 32 -51 -56 14 -56 56
-115 11 75 6 3 14 -66 115
61 91 78 45 36 0 37 76
97 -38 114 -51 19 -113 -92 63
-9 -21 -90 37 35 -21 25 82
10 -114 127 -25 -124 -82 -35 -89
53 61 -66 31 -104 -59 -111 -50
-6 -105 -107 -79 -14 26 106 -23
74 37 20 23 111 89 26 43
78 -101 -15 -108 8 35 108 -21
21 -105 -66 -6 -109 127 -11 54
-84 -96 30 44 -5 101 -106 -8
98 11 -109 59 -16 -124 15 -100
43 72 93 -67 121 52 -127 -80
00000000: 5294 0e8e 2fee 98ef db47 f617 555e a4fc
00000010: fdaa 23f3 dab4 d0ce ed7d 4bc5 c79c 81b7
00000020: 19cc 3e35 cca5 0943 3de2 04c3 8826 8722
00000030: 8d9a 38e0 b504 8a1a f4d2 4015 b3f4 b020
00000040: 1b72 e756 d406 83aa 8a21 3307 206f fe08
00000050: 7fd8 4495 167e 885b 3744 7385 a76b 05c0
00000060: 51ca 5aa3 bb81 c1ac 36ad 2a02 b42f 79e7
00000070: c49b 554e 82bd f7f7 a55f b1f2 5f6d 78e2
00000080: 0a2f a898 501a 9d24 f0dd 274f e126 bd3c
00000090: d8db 20cd c80e c838 8d0b 4b06 030e be73
000000a0: 3d5b 4e2d 2400 254c 61da 72cd 138f a43f
000000b0: f7eb a625 23eb 1952 0a8e 7fe7 84ae dda7
000000c0: 353d be1f 98c5 91ce fa97 95b1 f21a 6ae9
000000d0: 4a25 1417 6f59 1a2b 4e9b f194 0823 6ceb
000000e0: 1597 befa 937f f536 aca0 1e2c fb65 96f8
000000f0: 620b 933b f084 0f9c 2b48 5dbd 7934 81b0

model_1/148/Conv2D i1 [48, 1, 1, 288]
-34 100 93 -73 57 13 -122 -53
102 46 88 -21 90 96 55 -10
33 -82 -38 34 74 111 22 19
109 -38 21 98 120 9 -45 -61
6 56 -75 120 77 98 -66 81
114 53 -124 79 -75 -94 15 -113
9 -24 28 114 -118 -84 -23 115
37 102 45 87 122 125 -38 35
-74 0 -107 108 94 39 48 -38
41 36 -126 -56 -84 -13 75 -64
8 -121 68 20 102 39 -19 -121
-39 -56 117 97 -98 -22 -35 41
125 -107 17 34 -73 66 72 97
76 -2 -51 121 -19 83 -5 81
62 -25 118 51 94 -25 -70 39
-92 8 -44 6 113 110 -79 -104
-28 17 97 4 101 109 -48 -27
-109 107 -57 79 -55 86 -118 -88
81 98 120 -57 16 55 100 100
113 -65 74 110 -44 -36 111 -6
-59 -35 -2 -96 -59 -8 -17 -66
-119 -17 106 -52 30 2 51 17
89 1 71 -120 -3 37 106 -103
121 -126 -61 35 -44 110 -122 -60
-102 -18 6 -88 109 6 -77 19
28 94 66 12 123 100 98 20
-71 4 -105 105 -101 65 51 113
76 -20 -99 50 -24 63 -107 -8
-104 -66 -106 -45 -82 47 -107 90
-86 30 -127 42 73 100 -82 44
-53 -55 -95 -20 79 121 97 -69
82 118 102 -13 119 105 41 -91
00000000: de64 5db7 390d 86cb 662e 58eb 5a60 37f6
00000010: 21ae da22 4a6f 1613 6dda 1562 7809 d3c3
00000020: 0638 b578 4d62 be51 7235 844f b5a2 0f8f
00000030: 09e8 1c72 8aac e973 2566 2d57 7a7d da23
00000040: b600 956c 5e27 30da 2924 82c8 acf3 4bc0
00000050: 0887 4414 6627 ed87 d9c8 7561 9eea dd29
00000060: 7d95 1122 b742 4861 4cfe cd79 ed53 fb51
00000070: 3ee7 7633 5ee7 ba27 a408 d406 716e b198
00000080: e411 6104 656d d0e5 936b c74f c956 8aa8
00000090: 5162 78c7 1037 6464 71bf 4a6e d4dc 6ffa
000000a0: c5dd fea0 c5f8 efbe 89ef 6acc 1e02 3311
000000b0: 5901 4788 fd25 6a99 7982 c323 d46e 86c4
000000c0: 9aee 06a8 6d06 b313 1c5e 420c 7b64 6214
000000d0: b904 9769 9b41 3371 4cec 9d32 e83f 95f8
000000e0: 98be 96d3 ae2f 955a aa1e 812a 4964 ae2c
000000f0: cbc9 a1ec 4f79 61bb 5276 66f3 7769 29a5

model_1/147/depthwise i1 [1, 3, 3, 288]
74 40 67 -127 11 74 -127 33
127 53 121 -103 -35 -89 -10 32
-127 -59 -41 -125 -114 -93 -79 74
-86 -31 94 -1 74 -94 -118 -67
-70 75 -75 14 -108 -100 127 61
51 69 38 -11 -127 -101 5 -114
-127 -48 112 -26 19 63 55 -38
-85 127 61 -27 16 -87 91 -18
27 39 108 -127 98 105 120 43
34 -112 -90 -20 123 124 -76 118
-51 -66 -47 127 20 33 -90 86
45 127 32 86 -103 44 -127 6
99 44 81 -115 13 127 -59 79
74 -43 -3 88 -21 2 -110 87
-46 18 127 -9 127 -127 -15 -31
-124 116 119 -75 8 -30 -49 78
107 -120 -9 -59 -127 113 7 9
26 -127 -70 -125 -27 -45 -47 -96
120 -127 126 127 125 127 83 -127
-118 92 -119 -127 59 47 57 -112
127 127 127 0 -105 -95 80 -27
7 -60 -96 -24 -77 -77 93 -115
-6 -127 127 -22 -126 -36 -127 -113
94 -41 -38 64 48 72 46 -13
127 -72 -66 16 -51 96 -29 106
127 99 127 -99 0 -41 127 127
-127 -13 62 31 37 61 6 -69
-23 -90 -116 31 -50 -108 18 127
119 -111 97 -91 48 76 -64 106
-48 -82 -9 69 114 86 -64 78
-127 5 -57 -95 -57 58 -3 -8
-102 -127 52 -125 -107 -20 87 118
00000000: 4a28 4381 0b4a 8121 7f35 7999 dda7 f620
00000010: 81c5 d783 8ea3 b14a aae1 5eff 4aa2 8abd
00000020: ba4b b50e 949c 7f3d 3345 26f5 819b 058e
00000030: 81d0 70e6 133f 37da ab7f 3de5 10a9 5bee
00000040: 1b27 6c81 6269 782b 2290 a6ec 7b7c b476
00000050: cdbe d17f 1421 a656 2d7f 2056 992c 8106
00000060: 632c 518d 0d7f c54f 4ad5 fd58 eb02 9257
00000070: d212 7ff7 7f81 f1e1 8474 77b5 08e2 cf4e
00000080: 6b88 f7c5 8171 0709 1a81 ba83 e5d3 d1a0
00000090: 7881 7e7f 7d7f 5381 8a5c 8981 3b2f 3990
000000a0: 7f7f 7f00 97a1 50e5 07c4 a0e8 b3b3 5d8d
000000b0: fa81 7fea 82dc 818f 5ed7 da40 3048 2ef3
000000c0: 7fb8 be10 cd60 e36a 7f63 7f9d 00d7 7f7f
000000d0: 81f3 3e1f 253d 06bb e9a6 8c1f ce94 127f
000000e0: 7791 61a5 304c c06a d0ae f745 7256 c04e
000000f0: 8105 c7a1 c73a fdf8 9a81 3483 95ec 5776

model_1/146/Conv2D i1 [288, 1, 1, 48]
-61 20 45 -7 48 80 -80 12
3 -16 92 35 81 37 96 -28
30 -82 57 18 88 92 -113 -106
-27 28 -25 -47 -11 127 101 73
-107 -76 64 -102 -13 13 89 28
-61 -104 80 -53 -57 91 -77 -74
-70 52 32 -27 -39 -61 75 -114
3 71 15 -12 -5 -86 109 -19
51 -90 56 -80 -96 -17 -48 64
-59 -127 -55 29 115 96 -1 61
-87 46 -100 13 21 -11 -62 0
-2 31 -31 104 -101 -9 -22 72
-43 118 -49 98 120 -87 -89 122
34 -32 -30 95 -107 -30 -99 -81
-80 71 -13 97 95 8 -116 24
76 122 127 -72 10 -38 -120 -29
57 -51 22 104 74 -93 24 -118
5 -105 18 33 -38 10 -10 48
127 59 -127 59 -16 95 75 75
5 110 -85 -75 39 -112 18 -108
-22 -82 -35 118 38 117 33 101
60 90 84 -24 94 79 -7 120
-92 -104 -86 12 111 114 56 120
-90 17 96 -39 -126 39 -65 -40
49 -12 -74 -91 -66 -110 99 -83
-120 -113 75 -31 45 44 -2 47
-11 -109 -70 10 112 66 -55 84
88 -61 105 -78 36 -81 -120 -99
-119 11 32 15 30 -127 39 -16
86 32 -83 23 40 -86 102 49
101 81 109 -125 24 115 68 83
-90 -83 -118 55 127 -19 -7 -97
00000000: c314 2df9 3050 b00c 03f0 5c23 5125 60e4
00000010: 1eae 3912 585c 8f96 e51c e7d1 f57f 6549
00000020: 95b4 409a f30d 591c c398 50cb c75b b3b6
00000030: ba34 20e5 d9c3 4b8e 0347 0ff4 fbaa 6ded
00000040: 33a6 38b0 a0ef d040 c581 c91d 7360 ff3d
00000050: a92e 9c0d 15f5 c200 fe1f e168 9bf7 ea48
00000060: d576 cf62 78a9 a77a 22e0 e25f 95e2 9daf
00000070: b047 f361 5f08 8c18 4c7a 7fb8 0ada 88e3
00000080: 39cd 1668 4aa3 188a 0597 1221 da0a f630
00000090: 7f3b 813b f05f 4b4b 056e abb5 2790 1294
000000a0: eaae dd76 2675 2165 3c5a 54e8 5e4f f978
000000b0: a498 aa0c 6f72 3878 a611 60d9 8227 bfd8
000000c0: 31f4 b6a5 be92 63ad 888f 4be1 2d2c fe2f
000000d0: f593 ba0a 7042 c954 58c3 69b2 24af 889d
000000e0: 890b 200f 1e81 27f0 5620 ad17 28aa 6631
000000f0: 6551 6d83 1873 4453 a6ad 8a37 7fed f99f

model_1/145/Conv2D i1 [48, 1, 1, 192]
125 -54 22 34 -35 -99 -85 32
62 19 -90 21 -17 -31 70 101
105 124 -40 3 62 -23 127 -1
-75 -112 -121 -86 72 34 108 115
83 -11 -61 0 -28 50 -57 14
89 -113 69 109 80 -111 -114 122
4 -106 -25 -1 54 -32 -99 117
-47 68 -3 118 -24 -21 -111 105
65 10 86 -81 -1 -7 58 77
-81 121 -116 -92 -43 -92 -107 52
46 -58 -87 8 31 59 73 -61
-103 30 -94 115 -38 5 64 -9
60 125 24 119 44 -56 -127 -41
-78 -86 -8 25 -79 64 73 85
105 18 -51 23 90 -113 122 99
43 94 -46 -25 9 9 -72 -121
57 115 -42 45 -60 -100 104 -72
32 114 -26 -16 103 22 -68 72
-75 93 18 103 -66 -25 87 121
98 0 -15 -85 13 28 -125 -118
-59 29 96 50 -87 70 105 73
95 -97 9 -70 27 121 8 -34
55 -87 -67 112 70 -68 89 -10
58 -121 19 58 -121 -39 101 48
67 -99 17 18 -123 97 -122 -113
12 39 83 92 15 35 48 28
-61 -121 17 -99 62 38 -13 -73
-91 117 39 35 -114 -60 -61 117
82 27 85 11 27 57 6 -110
60 -103 0 71 40 115 122 55
-61 -121 13 62 -32 116 -98 120
-56 -63 -25 -107 -94 39 -21 31
00000000: 7dca 1622 dd9d ab20 3e13 a615 efe1 4665
00000010: 697c d803 3ee9 7fff b590 87aa 4822 6c73
00000020: 53f5 c300 e432 c70e 598f 456d 5091 8e7a
00000030: 0496 e7ff 36e0 9d75 d144 fd76 e8eb 9169
00000040: 410a 56af fff9 3a4d af79 8ca4 d5a4 9534
00000050: 2ec6 a908 1f3b 49c3 991e a273 da05 40f7
00000060: 3c7d 1877 2cc8 81d7 b2aa f819 b140 4955
00000070: 6912 cd17 5a8f 7a63 2b5e d2e7 0909 b887
00000080: 3973 d62d c49c 68b8 2072 e6f0 6716 bc48
00000090: b55d 1267 bee7 5779 6200 f1ab 0d1c 838a
000000a0: c51d 6032 a946 6949 5f9f 09ba 1b79 08de
000000b0: 37a9 bd70 46bc 59f6 3a87 133a 87d9 6530
000000c0: 439d 1112 8561 868f 0c27 535c 0f23 301c
000000d0: c387 119d 3e26 f3b7 a575 2723 8ec4 c375
000000e0: 521b 550b 1b39 0692 3c99 0047 2873 7a37
000000f0: c387 0d3e e074 9e78 c8c1 e795 a227 eb1f

model_1/144/depthwise i1 [1, 3, 3, 192]
66 127 -22 -113 -10 -59 23 -105
127 85 42 -66 127 -52 -23 74
-90 75 63 2 -51 36 127 -93
-6 33 101 -118 -102 -52 -101 7
55 96 81 -13 2 108 43 -127
37 -127 -51 -126 121 -100 91 -104
94 -36 80 -79 99 -47 19 -73
-27 84 127 -47 72 -87 116 14
23 -127 -101 -38 -98 127 -76 -65
-94 -77 -75 -110 119 127 9 40
47 127 127 -71 -36 114 80 8
49 13 -70 -20 -37 -119 -127 127
29 -108 98 -84 -99 -14 101 -127
-38 -127 9 51 127 90 -17 -19
-57 -112 -97 111 116 70 16 36
-19 -63 -11 -12 -77 -73 -81 -88
101 60 -12 45 52 45 25 54
85 -60 -92 -9 -91 101 77 -105
105 36 109 -94 -127 -35 38 18
-97 101 121 21 -120 -39 27 21
-10 -127 -48 -45 -48 -28 65 125
102 -69 94 13 -123 56 -121 127
-57 -98 -116 -117 -69 -3 -36 -50
5 -63 -84 -127 56 67 70 59
74 53 -115 -127 87 127 127 -24
50 -43 -46 49 67 53 127 -45
-10 118 29 48 59 45 85 -13
9 -7 -70 105 113 -17 -45 -37
39 46 61 72 -78 108 -23 -31
-95 -79 13 -58 -46 -34 127 -41
78 -29 -21 -53 -82 125 -34 -54
-63 -17 126 127 -35 -67 115 114
00000000: 427f ea8f f6c5 1797 7f55 2abe 7fcc e94a
00000010: a64b 3f02 cd24 7fa3 fa21 658a 9acc 9b07
00000020: 3760 51f3 026c 2b81 2581 cd82 799c 5b98
00000030: 5edc 50b1 63d1 13b7 e554 7fd1 48a9 740e
00000040: 1781 9bda 9e7f b4bf a2b3 b592 777f 0928
00000050: 2f7f 7fb9 dc72 5008 310d baec db89 817f
00000060: 1d94 62ac 9df2 6581 da81 0933 7f5a efed
00000070: c790 9f6f 7446 1024 edc1 f5f4 b3b7 afa8
00000080: 653c f42d 342d 1936 55c4 a4f7 a565 4d97
00000090: 6924 6da2 81dd 2612 9f65 7915 88d9 1b15
000000a0: f681 d0d3 d0e4 417d 66bb 5e0d 8538 877f
000000b0: c79e 8c8b bbfd dcce 05c1 ac81 3843 463b
000000c0: 4a35 8d81 577f 7fe8 32d5 d231 4335 7fd3
000000d0: f676 1d30 3b2d 55f3 09f9 ba69 71ef d3db
000000e0: 272e 3d48 b26c e9e1 a1b1 0dc6 d2de 7fd7
000000f0: 4ee3 ebcb ae7d deca c1ef 7e7f ddbd 7372

model_1/143/Conv2D i1 [192, 1, 1, 32]
105 23 -90 -119 -21 112 -77 -118
-30 44 95 -93 2 -69 -28 -127
53 -98 -28 -23 -100 105 69 76
-112 20 60 71 -57 19 43 4
-12 33 -91 22 41 113 -5 127
39 125 89 -115 87 -124 5 14
-91 -104 31 -115 -81 106 -5 -2
-118 -124 45 -101 28 -41 71 -82
-107 -90 -18 -120 65 35 -94 -53
-20 77 -14 -45 105 -65 -65 127
71 -113 82 123 100 25 1 -38
-46 -8 46 -51 -10 -109 114 78
-41 -43 -7 -108 -38 -103 -21 97
-119 -119 -121 -123 22 -53 -65 -59
-77 127 89 -54 -85 -34 -75 50
-70 -94 108 114 52 76 -107 38
-48 -35 98 -104 -115 -110 -10 60
99 -121 59 -56 -14 17 -9 -127
26 61 67 -83 122 53 -72 -33
-10 -18 -15 40 -112 -100 -97 -89
39 68 48 -108 95 120 127 113
-22 -42 -10 -14 75 127 91 -53
-70 -48 68 -56 -31 91 86 80
18 53 5 -126 107 72 35 87
67 -58 -97 -104 59 -48 -127 75
108 -27 -100 64 -49 57 -1 -27
113 50 39 -95 -25 65 65 62
-104 -100 -110 15 -42 -4 -34 68
22 -113 -120 -40 73 -89 -17 -7
80 71 100 6 -82 -101 89 -10
-127 -109 75 111 -82 83 -117 -43
-18 -109 -90 79 97 61 -123 -59
00000000: 6917 a689 eb70 b38a e22c 5fa3 02bb e481
00000010: 359e e4e9 9c69 454c 9014 3c47 c713 2b04
00000020: f421 a516 2971 fb7f 277d 598d 5784 050e
00000030: a598 1f8d af6a fbfe 8a84 2d9b 1cd7 47ae
00000040: 95a6 ee88 4123 a2cb ec4d f2d3 69bf bf7f
00000050: 478f 527b 6419 01da d2f8 2ecd f693 724e
00000060: d7d5 f994 da99 eb61 8989 8785 16cb bfc5
00000070: b37f 59ca abde b532 baa2 6c72 344c 9526
00000080: d0dd 6298 8d92 f63c 6387 3bc8 f211 f781
00000090: 1a3d 43ad 7a35 b8df f6ee f128 909c 9fa7
000000a0: 2744 3094 5f78 7f71 ead6 f6f2 4b7f 5bcb
000000b0: bad0 44c8 e15b 5650 1235 0582 6b48 2357
000000c0: 43c6 9f98 3bd0 814b 6ce5 9c40 cf39 ffe5
000000d0: 7132 27a1 e741 413e 989c 920f d6fc de44
000000e0: 168f 88d8 49a7 eff9 5047 6406 ae9b 59f6
000000f0: 8193 4b6f ae53 8bd5 ee93 a64f 613d 85c5

model_1/141/Conv2D i1 [32, 1, 1, 192]
17 54 74 49 52 36 -69 -91
101 36 53 -21 -57 -112 -53 65
-27 113 -89 124 -112 90 -44 18
-115 -71 115 -39 53 98 126 -109
20 -37 -87 -99 36 -65 96 12
32 54 -56 -69 -49 -42 95 121
-9 -50 69 43 87 -104 -122 -38
-71 17 73 -27 -15 -73 -2 -106
-49 84 69 -4 -53 -105 -4 110
95 -16 118 0 26 -114 109 1
113 48 -8 64 -32 -122 26 -9
98 -42 -7 -45 -124 -73 59 -56
-87 -114 35 -50 93 -125 127 120
-72 -100 -108 -15 -121 75 62 8
40 67 -61 -34 -2 -72 -40 91
-69 -40 -2 -73 21 -69 -19 -125
106 -12 116 94 -120 73 100 2
74 36 -49 -61 -117 115 46 -17
-9 -66 -60 -14 125 -50 -45 9
123 -21 -120 8 -18 -20 30 -82
-38 28 -92 84 59 111 -45 79
-125 88 115 -43 -10 60 -48 -78
-104 -94 82 79 -12 7 94 64
-30 31 -87 39 115 -105 -47 -85
69 85 3 13 40 -118 11 -121
31 -111 2 127 -95 -127 22 -6
-31 -21 -52 70 4 91 -102 -10
45 -31 -23 -68 57 30 -64 -94
37 -22 -50 -44 87 124 -31 95
127 -75 -98 -88 -12 97 -62 -95
-26 62 -22 -29 -90 -3 19 47
-64 32 96 6 38 108 64 -124
00000000: 1136 4a31 3424 bba5 6524 35eb c790 cb41
00000010: e571 a77c 905a d412 8db9 73d9 3562 7e93
00000020: 14db a99d 24bf 600c 2036 c8bb cfd6 5f79
00000030: f7ce 452b 5798 86da b911 49e5 f1b7 fe96
00000040: cf54 45fc cb97 fc6e 5ff0 7600 1a8e 6d01
00000050: 7130 f840 e086 1af7 62d6 f9d3 84b7 3bc8
00000060: a98e 23ce 5d83 7f78 b89c 94f1 874b 3e08
00000070: 2843 c3de feb8 d85b bbd8 feb7 15bb ed83
00000080: 6af4 745e 8849 6402 4a24 cfc3 8b73 2eef
00000090: f7be c4f2 7dce d309 7beb 8808 eeec 1eae
000000a0: da1c a454 3b6f d34f 8358 73d5 f63c d0b2
000000b0: 98a2 524f f407 5e40 e21f a927 7397 d1ab
000000c0: 4555 030d 288a 0b87 1f91 027f a181 16fa
000000d0: e1eb cc46 045b 9af6 2de1 e9bc 391e c0a2
000000e0: 25ea ced4 577c e15f 7fb5 9ea8 f461 c2a1
000000f0: e63e eae3 a6fd 132f c020 6006 266c 4084

model_1/140/depthwise i1 [1, 3, 3, 192]
55 36 115 127 115 -42 -122 -127
82 -73 75 -39 -106 -7 7 -68
-46 13 -41 21 -17 94 -71 28
127 118 -87 -16 66 104 -24 -88
127 -58 113 11 25 9 28 -62
-127 -42 5 -107 -1 -90 -57 127
-37 59 127 -60 -50 -34 52 -77
49 50 -55 -57 107 -119 9 -25
-101 45 127 79 -112 -17 75 125
-124 -68 -125 -50 -14 -64 96 10
73 -127 127 -127 -96 -30 47 90
-70 69 71 -70 -55 -89 -55 -6
-44 114 95 -127 14 98 79 -127
45 -119 12 -4 40 92 -125 123
-101 -38 11 -73 33 119 -68 -63
42 -127 117 -39 104 127 -54 -127
70 13 113 -4 16 -18 127 26
123 -72 80 -37 -27 127 -26 -52
64 9 -60 -95 -79 108 117 -127
-54 -127 38 -8 -14 -123 21 127
85 30 94 53 -70 -37 -37 7
-82 127 127 71 -8 -59 32 31
111 104 -3 -35 -55 -127 -14 -11
-30 -127 121 64 116 -127 -125 -124
90 113 -127 -47 106 49 -48 27
-127 70 124 -83 53 -38 -91 -88
99 13 -26 -76 -12 -51 -57 91
-44 -90 -52 102 61 -94 59 -18
36 -127 90 127 -42 127 19 48
69 -46 34 84 -57 -127 -71 93
-3 -57 -46 32 -127 -102 65 88
-56 -73 41 -69 -17 75 108 13
00000000: 3724 737f 73d6 8681 52b7 4bd9 96f9 07bc
00000010: d20d d715 ef5e b91c 7f76 a9f0 4268 e8a8
00000020: 7fc6 710b 1909 1cc2 81d6 0595 ffa6 c77f
00000030: db3b 7fc4 cede 34b3 3132 c9c7 6b89 09e7
00000040: 9b2d 7f4f 90ef 4b7d 84bc 83ce f2c0 600a
00000050: 4981 7f81 a0e2 2f5a ba45 47ba c9a7 c9fa
00000060: d472 5f81 0e62 4f81 2d89 0cfc 285c 837b
00000070: 9bda 0bb7 2177 bcc1 2a81 75d9 687f ca81
00000080: 460d 71fc 10ee 7f1a 7bb8 50db e57f e6cc
00000090: 4009 c4a1 b16c 7581 ca81 26f8 f285 157f
000000a0: 551e 5e35 badb db07 ae7f 7f47 f8c5 201f
000000b0: 6f68 fddd c981 f2f5 e281 7940 7481 8384
000000c0: 5a71 81d1 6a31 d01b 8146 7cad 35da a5a8
000000d0: 630d e6b4 f4cd c75b d4a6 cc66 3da2 3bee
000000e0: 2481 5a7f d67f 1330 45d2 2254 c781 b95d
000000f0: fdc7 d220 819a 4158 c8b7 29bb ef4b 6c0d

model_1/139/Conv2D i1 [192, 1, 1, 32]
106 -13 -42 119 -113 117 11 119
83 -6 105 87 109 43 -108 -127
91 120 93 -87 40 22 -46 -39
-63 40 -91 15 -72 -70 41 -38
105 21 -3 -22 127 86 15 -8
-48 -59 -35 -17 107 104 108 19
-3 4 95 -53 -46 107 -91 110
18 27 -79 99 -54 -61 -84 87
95 50 -112 -45 96 66 -103 -28
-2 6 10 -40 -104 51 11 127
-94 -83 60 101 -59 76 -15 91
-106 126 48 84 82 120 -122 -40
-127 -27 -77 -90 -80 -107 69 -88
10 -27 127 29 89 15 66 -16
-39 -84 -28 -106 42 -25 49 -31
-53 -12 -37 28 -3 52 -60 -32
-49 -106 -34 115 87 121 -82 106
11 -83 -42 -3 -116 3 -22 -102
81 99 126 -109 -19 -111 57 31
-100 -55 92 32 -123 -127 47 113
-70 -20 38 -120 65 -23 44 127
-114 6 -56 -126 118 27 103 89
-123 24 -125 -73 31 -123 84 88
-89 29 25 -70 78 -74 83 -43
71 63 -99 -85 47 106 -8 116
47 -6 -39 -75 -69 -94 -62 80
-114 100 -127 -101 -12 113 -50 -88
-20 -11 -84 40 -67 33 52 -41
5 18 58 -125 -115 -30 -32 -115
-114 78 -85 -127 2 51 -109 -60
12 -93 -28 24 -116 -89 2 -114
65 34 98 -120 -82 90 -80 -30
00000000: 6af3 d677 8f75 0b77 53fa 6957 6d2b 9481
00000010: 5b78 5da9 2816 d2d9 c128 a50f b8ba 29da
00000020: 6915 fdea 7f56 0ff8 d0c5 ddef 6b68 6c13
00000030: fd04 5fcb d26b a56e 121b b163 cac3 ac57
00000040: 5f32 90d3 6042 99e4 fe06 0ad8 9833 0b7f
00000050: a2ad 3c65 c54c f15b 967e 3054 5278 86d8
00000060: 81e5 b3a6 b095 45a8 0ae5 7f1d 590f 42f0
00000070: d9ac e496 2ae7 31e1 cbf4 db1c fd34 c4e0
00000080: cf96 de73 5779 ae6a 0bad d6fd 8c03 ea9a
00000090: 5163 7e93 ed91 391f 9cc9 5c20 8581 2f71
000000a0: baec 2688 41e9 2c7f 8e06 c882 761b 6759
000000b0: 8518 83b7 1f85 5458 a71d 19ba 4eb6 53d5
000000c0: 473f 9dab 2f6a f874 2ffa d9b5 bba2 c250
000000d0: 8e64 819b f471 cea8 ecf5 ac28 bd21 34d7
000000e0: 0512 3a83 8de2 e08d 8e4e ab81 0233 93c4
000000f0: 0ca3 e418 8ca7 028e 4122 6288 ae5a b0e2

model_1/137/Conv2D i1 [32, 1, 1, 192]
50 5 89 111 -40 118 86 60
21 -63 123 0 11 -77 -125 112
66 -101 -122 -80 -100 -21 74 -36
-73 97 -88 127 80 108 -63 65
64 36 8 59 -25 -39 -83 85
-96 35 -74 122 -7 -95 51 -9
39 -47 -126 124 27 19 -111 123
-116 104 59 2 0 -3 32 115
113 49 97 -83 -102 -53 106 -74
71 77 60 -66 -16 -113 40 -21
-19 49 -3 38 -91 -12 -36 15
52 -95 -26 -112 -103 -27 115 -61
-17 51 10 105 56 -8 92 69
-107 40 -70 10 -124 127 109 18
-48 -61 56 47 -83 10 68 -111
-101 108 89 -97 -96 50 10 -9
77 8 -68 -109 -79 79 -18 94
29 53 104 115 -54 -6 -74 -17
-10 42 -106 52 -73 108 18 104
-82 66 70 92 106 -84 49 103
113 -82 -39 116 -48 -111 124 105
111 -92 -46 10 -22 126 -113 34
106 -87 59 -49 51 71 96 -93
-21 -64 -29 85 17 -23 17 -33
106 22 -3 -67 109 -17 109 54
-45 -87 37 -101 -92 -122 67 -30
-14 22 -120 -118 -86 26 125 -59
-104 115 14 -26 56 -31 14 -68
111 -103 -55 20 65 -94 -24 -58
60 95 -18 2 119 13 -36 -23
-115 -60 28 26 -72 108 -5 65
-7 -78 -116 -12 28 -33 -75 -46
00000000: 3205 596f d876 563c 15c1 7b00 0bb3 8370
00000010: 429b 86b0 9ceb 4adc b761 a87f 506c c141
00000020: 4024 083b e7d9 ad55 a023 b67a f9a1 33f7
00000030: 27d1 827c 1b13 917b 8c68 3b02 00fd 2073
00000040: 7131 61ad 9acb 6ab6 474d 3cbe f08f 28eb
00000050: ed31 fd26 a5f4 dc0f 34a1 e690 99e5 73c3
00000060: ef33 0a69 38f8 5c45 9528 ba0a 847f 6d12
00000070: d0c3 382f ad0a 4491 9b6c 599f a032 0af7
00000080: 4d08 bc93 b14f ee5e 1d35 6873 cafa b6ef
00000090: f62a 9634 b76c 1268 ae42 465c 6aac 3167
000000a0: 71ae d974 d091 7c69 6fa4 d20a ea7e 8f22
000000b0: 6aa9 3bcf 3347 60a3 ebc0 e355 11e9 11df
000000c0: 6a16 fdbd 6def 6d36 d3a9 259b a486 43e2
000000d0: f216 888a aa1a 7dc5 9873 0ee6 38e1 0ebc
000000e0: 6f99 c914 41a2 e8c6 3c5f ee02 770d dce9
000000f0: 8dc4 1c1a b86c fb41 f9b2 8cf4 1cdf b5d2

model_1/136/depthwise i1 [1, 3, 3, 192]
-50 27 87 -88 105 -79 65 -127
125 -2 107 75 -34 -11 -7 -84
123 -32 127 -46 56 43 -42 -85
-40 3 74 63 55 4 -32 -66
105 -69 103 -79 37 20 119 97
94 112 36 -110 32 -98 -25 -39
1 127 -109 1 95 -7 -59 -65
-84 -50 -85 17 -37 -42 105 76
14 1 -7 -127 86 -4 -21 -18
-43 -31 -122 60 77 -111 -109 92
-31 39 -127 38 -81 46 -127 127
83 -68 20 60 78 93 106 -76
-71 96 -107 -44 126 -22 -86 -35
61 5 -70 -127 26 -127 48 93
-39 -107 83 27 40 -71 -93 127
-44 126 -127 127 51 127 -20 -95
-127 61 7 118 -120 127 -58 13
-9 -83 -52 -39 8 -69 15 -118
31 82 -34 -94 -58 -95 80 -97
127 -5 -123 -24 -66 -127 -97 99
30 -122 -49 -7 120 89 55 127
-65 -77 51 49 126 -54 22 -127
-100 62 -120 -26 -83 -113 62 127
19 -4 86 127 -126 116 43 95
-32 33 111 37 115 -107 -89 115
115 59 -29 -31 -72 40 88 -63
-12 -57 97 -82 26 -34 127 -19
106 -63 -71 -25 -89 -90 127 1
10 -60 17 13 30 -20 -27 -101
127 85 75 127 127 104 -68 -93
-53 -126 3 -127 -93 90 106 65
-127 -8 79 115 116 70 112 -74
00000000: ce1b 57a8 69b1 4181 7dfe 6b4b def5 f9ac
00000010: 7be0 7fd2 382b d6ab d803 4a3f 3704 e0be
00000020: 69bb 67b1 2514 7761 5e70 2492 209e e7d9
00000030: 017f 9301 5ff9 c5bf acce ab11 dbd6 694c
00000040: 0e01 f981 56fc ebee d5e1 863c 4d91 935c
00000050: e127 8126 af2e 817f 53bc 143c 4e5d 6ab4
00000060: b960 95d4 7eea aadd 3d05 ba81 1a81 305d
00000070: d995 531b 28b9 a37f d47e 817f 337f eca1
00000080: 813d 0776 887f c60d f7ad ccd9 08bb 0f8a
00000090: 1f52 dea2 c6a1 509f 7ffb 85e8 be81 9f63
000000a0: 1e86 cff9 7859 377f bfb3 3331 7eca 1681
000000b0: 9c3e 88e6 ad8f 3e7f 13fc 567f 8274 2b5f
000000c0: e021 6f25 7395 a773 733b e3e1 b828 58c1
000000d0: f4c7 61ae 1ade 7fed 6ac1 b9e7 a7a6 7f01
000000e0: 0ac4 110d 1eec e59b 7f55 4b7f 7f68 bca3
000000f0: cb82 0381 a35a 6a41 81f8 4f73 7446 70b6
