mbv2_r64_100.tflite (tflite, 741376 bytes, 53 tensors)

model_1/output_0/MatMul i1 [100, 1280] scale=0.000220083 zero_point=0
000000 47 76 ff 70 32 2b 6f 59 8c bc 6a 45 6b ae 4f 36
       0.015625894 0.025969794 -0.000220083 0.024649296 0.01100415 0.009463569 0.024429213 0.019587388 -0.025529629 -0.014965644 0.023328798 0.015185728 0.023548882 -0.018046806 0.017386558 0.011884483
000010 d7 af 37 aa fd f6 93 2f e3 78 a4 72 95 d7 16 d8
       -0.009023403 -0.017826723 0.012104565 -0.018927138 -0.00066024903 -0.00220083 -0.023989048 0.010343901 -0.006382407 0.026409961 -0.020247636 0.025089463 -0.023548882 -0.009023403 0.004841826 -0.00880332
000020 06 5c 2a 3e 55 64 03 ed 3b d5 64 2f 56 b6 8d e8
       0.0013204981 0.020247636 0.009243486 0.013645146 0.018707056 0.0220083 0.00066024903 -0.004181577 0.012984897 -0.009463569 0.0220083 0.010343901 0.018927138 -0.016286142 -0.025309546 -0.0052819923
000030 2a f8 75 7b 15 95 a4 46 e8 db da 87 b8 b2 a1 6d
       0.009243486 -0.001760664 0.025749711 0.02707021 0.004621743 -0.023548882 -0.020247636 0.01540581 -0.0052819923 -0.008143071 -0.008363154 -0.026630044 -0.015845977 -0.017166475 -0.020907886 0.023989048
000040 ee cb dd c0 46 ae 2c 21 ba 8c cd 36 58 48 a4 89
       -0.003961494 -0.011664399 -0.007702905 -0.014085312 0.01540581 -0.018046806 0.009683652 0.0072627394 -0.01540581 -0.025529629 -0.011224234 0.011884483 0.019367304 0.015845977 -0.020247636 -0.026189879
000050 5a ea 88 8c 74 fb 01 20 18 5b a5 ae ec 9d 07 a2
       0.019807471 -0.004841826 -0.026409961 -0.025529629 0.025529629 -0.001100415 0.000220083 0.007042656 0.0052819923 0.020027554 -0.020027554 -0.018046806 -0.00440166 -0.021788217 0.001540581 -0.020687802
000060 0d c2 2d 58 10 5f 2a df 8a 47 a2 92 64 af f2 5f
       0.002861079 -0.013645146 0.0099037355 0.019367304 0.003521328 0.020907886 0.009243486 -0.0072627394 -0.025969794 0.015625894 -0.020687802 -0.02420913 0.0220083 -0.017826723 -0.003081162 0.020907886
000070 2f 92 3c dc bf 0c 6c f7 02 55 eb 87 9a bc cb c9
       0.010343901 -0.02420913 0.013204981 -0.007922988 -0.014305395 0.0026409961 0.023768965 -0.001980747 0.000440166 0.018707056 -0.004621743 -0.026630044 -0.022448467 -0.014965644 -0.011664399 -0.012104565
000080 39 aa 36 d6 dd 27 9b 36 1e 1a 14 fa 5d f9 a8 84
       0.012544732 -0.018927138 0.011884483 -0.009243486 -0.007702905 0.008583237 -0.022228384 0.011884483 0.0066024903 0.005722158 0.00440166 -0.0013204981 0.020467719 -0.001540581 -0.019367304 -0.027290292
000090 ea cb 1e a1 10 0c 5e b2 30 04 51 52 cc df 98 c5
       -0.004841826 -0.011664399 0.0066024903 -0.020907886 0.003521328 0.0026409961 0.020687802 -0.017166475 0.0105639845 0.000880332 0.017826723 0.018046806 -0.011444316 -0.0072627394 -0.022888632 -0.012984897
0000a0 05 8d 97 d0 7b f4 ed ea f3 4c 75 be d0 65 1b 2e
       0.001100415 -0.025309546 -0.023108715 -0.0105639845 0.02707021 -0.0026409961 -0.004181577 -0.004841826 -0.002861079 0.016726308 0.025749711 -0.014525479 -0.0105639845 0.022228384 0.0059422413 0.010123818
0000b0 70 5e 20 47 86 e7 97 d6 bb 06 57 12 56 4e 7a 4f
       0.024649296 0.020687802 0.007042656 0.015625894 -0.026850127 -0.005502075 -0.023108715 -0.009243486 -0.015185728 0.0013204981 0.019147221 0.003961494 0.018927138 0.017166475 0.026850127 0.017386558
0000c0 18 c9 a6 d8 69 4e 94 e7 21 56 bd 74 12 0d 55 18
       0.0052819923 -0.012104565 -0.019807471 -0.00880332 0.023108715 0.017166475 -0.023768965 -0.005502075 0.0072627394 0.018927138 -0.014745561 0.025529629 0.003961494 0.002861079 0.018707056 0.0052819923
0000d0 35 4f 1d 35 22 4f a5 a5 a6 fc 78 8e 2b 7b 21 45
       0.011664399 0.017386558 0.006382407 0.011664399 0.007482822 0.017386558 -0.020027554 -0.020027554 -0.019807471 -0.000880332 0.026409961 -0.025089463 0.009463569 0.02707021 0.0072627394 0.015185728
0000e0 82 b4 eb 5b 89 a7 9f 29 72 54 53 bd fa e1 69 83
       -0.02773046 -0.016726308 -0.004621743 0.020027554 -0.026189879 -0.019587388 -0.021348052 0.009023403 0.025089463 0.018486973 0.01826689 -0.014745561 -0.0013204981 -0.006822573 0.023108715 -0.027510377
0000f0 37 30 6c a1 d5 a5 04 36 9a 7a f4 0d ec d2 24 8e
       0.012104565 0.0105639845 0.023768965 -0.020907886 -0.009463569 -0.020027554 0.000880332 0.011884483 -0.022448467 0.026850127 -0.0026409961 0.002861079 -0.00440166 -0.010123818 0.007922988 -0.025089463

model_1/168/Conv2D i1 [1280, 1, 1, 112]
000000 68 17 0e d7 99 49 40 61 59 e4 9d 58 60 28 9f b5
       104 23 14 -41 -103 73 64 97 89 -28 -99 88 96 40 -97 -75
000010 28 e0 5c e7 83 9c b4 2b 7e 65 50 aa e0 71 01 67
       40 -32 92 -25 -125 -100 -76 43 126 101 80 -86 -32 113 1 103
000020 0d b1 bb f2 9f af c5 33 a7 13 8a 6d 38 6b bf a4
       13 -79 -69 -14 -97 -81 -59 51 -89 19 -118 109 56 107 -65 -92
000030 2c dd 71 25 1e e6 f4 fb 65 e3 62 08 c7 8b df 89
       44 -35 113 37 30 -26 -12 -5 101 -29 98 8 -57 -117 -33 -119
000040 bb 9b 38 a2 f8 03 cd e5 76 d6 a3 0c 2d 9d 37 5b
       -69 -101 56 -94 -8 3 -51 -27 118 -42 -93 12 45 -99 55 91
000050 9d 70 29 e4 bc d7 1c e2 99 36 82 b9 b2 ef 2b 81
       -99 112 41 -28 -68 -41 28 -30 -103 54 -126 -71 -78 -17 43 -127
000060 ba 4c 29 4a 8e 6d ed f3 21 fd fd 19 c4 df 79 aa
       -70 76 41 74 -114 109 -19 -13 33 -3 -3 25 -60 -33 121 -86
000070 4d 81 3d 4f d2 10 38 42 87 1b 47 49 a7 33 0c a1
       77 -127 61 79 -46 16 56 66 -121 27 71 73 -89 51 12 -95
000080 91 3f 5e de d1 c1 64 7e c7 21 07 9b 7c 75 0c d2
       -111 63 94 -34 -47 -63 100 126 -57 33 7 -101 124 117 12 -46
000090 65 9e e7 8b d3 39 4f f8 be db 78 88 31 17 6f dd
       101 -98 -25 -117 -45 57 79 -8 -66 -37 120 -120 49 23 111 -35
0000a0 39 cf 7e 59 9b 6a 56 50 71 24 62 04 99 12 44 a8
       57 -49 126 89 -101 106 86 80 113 36 98 4 -103 18 68 -88
0000b0 3e 55 5f 4d 1d 95 9a a1 a4 75 a0 f4 70 cb 27 09
       62 85 95 77 29 -107 -102 -95 -92 117 -96 -12 112 -53 39 9
0000c0 e6 72 1a ce e5 6d 51 a5 5e cd 41 c3 9f 75 a8 8b
       -26 114 26 -50 -27 109 81 -91 94 -51 65 -61 -97 117 -88 -117
0000d0 be 12 5d da 94 4a ba ec fb 1f 8a ea d4 49 06 fa
       -66 18 93 -38 -108 74 -70 -20 -5 31 -118 -22 -44 73 6 -6
0000e0 12 5a 30 bf 75 3f 06 89 af 65 66 16 e5 a7 e5 af
       18 90 48 -65 117 63 6 -119 -81 101 102 22 -27 -89 -27 -81
0000f0 23 bc 89 e0 eb c7 3a 05 e9 81 b1 98 3b ba d3 20
       35 -68 -119 -32 -21 -57 58 5 -23 -127 -79 -104 59 -70 -45 32

model_1/167/Conv2D i1 [112, 1, 1, 336]
000000 22 51 e8 25 55 7c 48 f4 dc 17 ea b1 59 cf e1 f9
       34 81 -24 37 85 124 72 -12 -36 23 -22 -79 89 -49 -31 -7
000010 25 91 ec de b8 33 d9 31 f6 1e 8a 79 b5 86 09 29
       37 -111 -20 -34 -72 51 -39 49 -10 30 -118 121 -75 -122 9 41
000020 c6 09 7d 01 3d 92 24 ba ab 1f 25 98 fb b4 a0 93
       -58 9 125 1 61 -110 36 -70 -85 31 37 -104 -5 -76 -96 -109
000030 e0 54 7e 01 e0 4d 87 aa d9 5a 7e 9e b7 23 f9 8d
       -32 84 126 1 -32 77 -121 -86 -39 90 126 -98 -73 35 -7 -115
000040 7e 0a 48 bc 1f ea a8 77 08 73 74 d5 ed cf 02 d8
       126 10 72 -68 31 -22 -88 119 8 115 116 -43 -19 -49 2 -40
000050 47 b5 32 32 29 93 c2 4d e6 e4 2a 13 b9 73 21 92
       71 -75 50 50 41 -109 -62 77 -26 -28 42 19 -71 115 33 -110
000060 ef 4d 41 c1 73 4c 36 42 95 7f 30 3a b1 a8 c8 3f
       -17 77 65 -63 115 76 54 66 -107 127 48 58 -79 -88 -56 63
000070 16 df 32 2b c9 71 36 cf b4 f1 e6 0a a9 07 f8 78
       22 -33 50 43 -55 113 54 -49 -76 -15 -26 10 -87 7 -8 120
000080 d1 41 56 0b c6 99 38 00 e7 7b e8 ed 7b 9c 88 32
       -47 65 86 11 -58 -103 56 0 -25 123 -24 -19 123 -100 -120 50
000090 96 5c 23 ca 41 a1 4b 28 8c 88 7b 3c 98 a1 bc 1e
       -106 92 35 -54 65 -95 75 40 -116 -120 123 60 -104 -95 -68 30
0000a0 9c eb c1 67 4e b1 7f 9e a3 2a cc e3 2c 5d 21 e6
       -100 -21 -63 103 78 -79 127 -98 -93 42 -52 -29 44 93 33 -26
0000b0 fb b4 20 a0 83 7e 40 e8 fc af c5 5d 45 46 f7 b4
       -5 -76 32 -96 -125 126 64 -24 -4 -81 -59 93 69 70 -9 -76
0000c0 da af 15 09 bf 91 76 94 05 83 a9 a1 d7 c3 75 61
       -38 -81 21 9 -65 -111 118 -108 5 -125 -87 -95 -41 -61 117 97
0000d0 ff 4b b7 1d 60 31 31 66 85 35 53 22 f7 50 31 85
       -1 75 -73 29 96 49 49 102 -123 53 83 34 -9 80 49 -123
0000e0 25 3c 0e f7 e7 42 ba 06 e6 fa dc 06 c0 0c cb 3a
       37 60 14 -9 -25 66 -70 6 -26 -6 -36 6 -64 12 -53 58
0000f0 c9 9c 45 42 1c f1 ff 1e 6d 12 3b 62 c2 dc c1 1a
       -55 -100 69 66 28 -15 -1 30 109 18 59 98 -62 -36 -63 26

model_1/166/depthwise i1 [1, 3, 3, 336]
000000 c0 ea 47 69 f1 de 63 aa c1 a6 7f 7f 81 75 51 bb
       -64 -22 71 105 -15 -34 99 -86 -63 -90 127 127 -127 117 81 -69
000010 79 74 7e 28 5f 3a 0c ac 9f 0b 81 7f d4 b5 70 94
       121 116 126 40 95 58 12 -84 -97 11 -127 127 -44 -75 112 -108
000020 cd a9 87 f2 62 d8 02 bd 9d 91 8d 1a b7 fc 97 7f
       -51 -87 -121 -14 98 -40 2 -67 -99 -111 -115 26 -73 -4 -105 127
000030 17 82 78 d2 59 c7 42 ac d2 15 78 0b b0 be 81 05
       23 -126 120 -46 89 -57 66 -84 -46 21 120 11 -80 -66 -127 5
000040 40 a0 04 a9 0e ff 6a 6f 3b 74 ac 99 2d 75 a5 c9
       64 -96 4 -87 14 -1 106 111 59 116 -84 -103 45 117 -91 -55
000050 3d af df ee 87 7f 28 73 12 7f 48 86 61 6c dd 18
       61 -81 -33 -18 -121 127 40 115 18 127 72 -122 97 108 -35 24
000060 10 3f 7f eb 5c 46 2c e2 60 21 b7 59 91 11 81 db
       16 63 127 -21 92 70 44 -30 96 33 -73 89 -111 17 -127 -37
000070 ef c9 69 13 1a f1 7f 88 47 86 91 6e af 53 81 cd
       -17 -55 105 19 26 -15 127 -120 71 -122 -111 110 -81 83 -127 -51
000080 ed 49 54 45 eb c6 bf 48 37 02 54 57 67 61 f5 4b
       -19 73 84 69 -21 -58 -65 72 55 2 84 87 103 97 -11 75
000090 bd 7f 81 e5 e7 14 ca 81 d6 c5 71 74 71 e4 bb d9
       -67 127 -127 -27 -25 20 -54 -127 -42 -59 113 116 113 -28 -69 -39
0000a0 b1 0c 2f 63 8a 1a 1e 0d b3 f5 4c 43 56 12 8c d5
       -79 12 47 99 -118 26 30 13 -77 -11 76 67 86 18 -116 -43
0000b0 22 67 58 02 be 69 36 35 56 65 ba 3f 7f 8f cb 50
       34 103 88 2 -66 105 54 53 86 101 -70 63 127 -113 -53 80
0000c0 ad ec 55 6d 98 29 00 38 e1 f2 18 08 3a c8 98 a2
       -83 -20 85 109 -104 41 0 56 -31 -14 24 8 58 -56 -104 -94
0000d0 0e 7d 11 51 ad 60 81 09 7f 6f a9 0f ac d9 7f df
       14 125 17 81 -83 96 -127 9 127 111 -87 15 -84 -39 127 -33
0000e0 1f 9d 47 9e 98 99 7f 11 72 2d 2b 7f 53 39 41 e5
       31 -99 71 -98 -104 -103 127 17 114 45 43 127 83 57 65 -27
0000f0 c0 03 3b 81 a3 a0 8c a5 dc 89 37 3f fa f7 16 cc
       -64 3 59 -127 -93 -96 -116 -91 -36 -119 55 63 -6 -9 22 -52

model_1/165/Conv2D i1 [336, 1, 1, 56]
000000 02 1f 9a 0c b3 78 45 52 55 e3 26 43 a4 cd 8a 93
       2 31 -102 12 -77 120 69 82 85 -29 38 67 -92 -51 -118 -109
000010 7b ba 7e 64 bc 50 32 6e 63 a4 4c ff da 4d de 81
       123 -70 126 100 -68 80 50 110 99 -92 76 -1 -38 77 -34 -127
000020 e3 ac 46 b3 c4 c7 e5 76 56 c2 01 19 ee 97 36 3d
       -29 -84 70 -77 -60 -57 -27 118 86 -62 1 25 -18 -105 54 61
000030 86 15 2e 12 09 81 d2 1b 1b d3 65 1b e6 53 8e 34
       -122 21 46 18 9 -127 -46 27 27 -45 101 27 -26 83 -114 52
000040 45 44 bc 25 c5 f0 f0 b0 18 64 65 8a b3 24 3b 77
       69 68 -68 37 -59 -16 -16 -80 24 100 101 -118 -77 36 59 119
000050 4b d7 da 43 e8 d9 4a ae ef 07 a0 97 7e 09 58 e0
       75 -41 -38 67 -24 -39 74 -82 -17 7 -96 -105 126 9 88 -32
000060 81 4b df a1 75 2a ca 13 d9 36 10 4a 20 78 e5 1a
       -127 75 -33 -95 117 42 -54 19 -39 54 16 74 32 120 -27 26
000070 d6 c9 1b 92 ac 14 c7 b1 a3 08 45 31 2e 1f c9 74
       -42 -55 27 -110 -84 20 -57 -79 -93 8 69 49 46 31 -55 116
000080 ba 74 02 2f 98 c6 b8 a1 32 ac 5c 96 06 9e 0d 9e
       -70 116 2 47 -104 -58 -72 -95 50 -84 92 -106 6 -98 13 -98
000090 8a 9e 41 c5 9d 89 b5 0c 2b 6b 5a c7 7d b0 6e 21
       -118 -98 65 -59 -99 -119 -75 12 43 107 90 -57 125 -80 110 33
0000a0 0a 36 cf 27 bb 12 ef 7f 86 87 4a 84 7a 06 91 e0
       10 54 -49 39 -69 18 -17 127 -122 -121 74 -124 122 6 -111 -32
0000b0 0f 2b 81 26 19 1d 00 04 4e 71 2a 58 5f 61 b8 69
       15 43 -127 38 25 29 0 4 78 113 42 88 95 97 -72 105
0000c0 7a d2 6b 3d 1b a9 cb d8 b7 61 b4 03 3c ed c0 63
       122 -46 107 61 27 -87 -53 -40 -73 97 -76 3 60 -19 -64 99
0000d0 c8 91 0d 04 97 00 ae a1 50 ae d8 0e 61 e2 ad 92
       -56 -111 13 4 -105 0 -82 -95 80 -82 -40 14 97 -30 -83 -110
0000e0 60 48 f1 6f 91 7f 4c 43 ad 7b 1b f8 1f 65 12 af
       96 72 -15 111 -111 127 76 67 -83 123 27 -8 31 101 18 -81
0000f0 0b 3e d1 6a b6 82 c6 50 43 5f 52 ce 92 13 12 07
       11 62 -47 106 -74 -126 -58 80 67 95 82 -50 -110 19 18 7

model_1/163/Conv2D i1 [56, 1, 1, 336]
000000 d8 99 ea 4d ca 86 84 f6 ad 81 bd 1d 25 08 f6 2f
       -40 -103 -22 77 -54 -122 -124 -10 -83 -127 -67 29 37 8 -10 47
000010 9a 49 93 18 70 8f 7f 1f 12 2b 61 17 6a f3 5f bf
       -102 73 -109 24 112 -113 127 31 18 43 97 23 106 -13 95 -65
000020 97 dd e0 1c a7 e2 ea 8d 46 1d 2c 39 3c 4a 50 bf
       -105 -35 -32 28 -89 -30 -22 -115 70 29 44 57 60 74 80 -65
000030 49 18 0f bd 7d 40 03 a4 4d 11 cf c5 f5 26 3c a8
       73 24 15 -67 125 64 3 -92 77 17 -49 -59 -11 38 60 -88
000040 14 49 24 c7 41 cb 9c df 3e 3c b8 7e 5b a0 f1 a0
       20 73 36 -57 65 -53 -100 -33 62 60 -72 126 91 -96 -15 -96
000050 b4 b6 8f a7 18 d8 c3 92 c3 42 2f 73 b7 c6 2e c6
       -76 -74 -113 -89 24 -40 -61 -110 -61 66 47 115 -73 -58 46 -58
000060 3e 45 5a a1 57 33 31 71 7c 92 e2 dd 8a b1 91 21
       62 69 90 -95 87 51 49 113 124 -110 -30 -35 -118 -79 -111 33
000070 9e ac 33 1f 68 47 bd 92 fc fd 05 78 1d 58 68 21
       -98 -84 51 31 104 71 -67 -110 -4 -3 5 120 29 88 104 33
000080 90 e4 6f 8b 86 08 d4 ea bd 38 c7 43 c7 bd 52 18
       -112 -28 111 -117 -122 8 -44 -22 -67 56 -57 67 -57 -67 82 24
000090 56 7a 4a 5d 3e 9e d6 9f ec f8 d3 cb 40 05 ea d9
       86 122 74 93 62 -98 -42 -97 -20 -8 -45 -53 64 5 -22 -39
0000a0 e7 32 67 21 39 4f 86 7e ef 22 b3 c8 1f b4 c2 03
       -25 50 103 33 57 79 -122 126 -17 34 -77 -56 31 -76 -62 3
0000b0 20 1e 57 e0 30 9e ee 6b 2c 58 98 44 60 af 85 9a
       32 30 87 -32 48 -98 -18 107 44 88 -104 68 96 -81 -123 -102
0000c0 ad e5 e4 f2 64 a9 95 a5 11 c1 c2 04 2b 08 39 63
       -83 -27 -28 -14 100 -87 -107 -91 17 -63 -62 4 43 8 57 99
0000d0 7a ad de 7e 01 9c e0 6f f0 8b 72 db 06 fb 76 4e
       122 -83 -34 126 1 -100 -32 111 -16 -117 114 -37 6 -5 118 78
0000e0 01 87 c6 58 27 af b9 9b a8 a9 20 61 4c e6 90 8a
       1 -121 -58 88 39 -81 -71 -101 -88 -87 32 97 76 -26 -112 -118
0000f0 65 e7 fd 34 b7 94 eb 9a bb eb bb 7b f2 83 97 af
       101 -25 -3 52 -73 -108 -21 -102 -69 -21 -69 123 -14 -125 -105 -81

model_1/162/depthwise i1 [1, 3, 3, 336]
000000 81 81 3f 40 48 98 81 74 87 41 36 b8 9b 69 5c 85
       -127 -127 63 64 72 -104 -127 116 -121 65 54 -72 -101 105 92 -123
000010 a3 09 0a 65 78 de 40 7c 0e 34 34 0b 20 aa 10 cd
       -93 9 10 101 120 -34 64 124 14 52 52 11 32 -86 16 -51
000020 84 96 17 48 75 82 d4 43 43 d5 55 61 82 1a da b9
       -124 -106 23 72 117 -126 -44 67 67 -43 85 97 -126 26 -38 -71
000030 68 dc c7 93 11 56 ad 6e 03 b6 dc 10 7f 78 30 59
       104 -36 -57 -109 17 86 -83 110 3 -74 -36 16 127 120 48 89
000040 7c 52 32 02 f0 89 85 12 9c 29 11 7f 0c df 1a 1b
       124 82 50 2 -16 -119 -123 18 -100 41 17 127 12 -33 26 27
000050 76 ab 0e 81 18 81 7f da 9b 8f 5a 92 3f 05 f2 90
       118 -85 14 -127 24 -127 127 -38 -101 -113 90 -110 63 5 -14 -112
000060 24 b6 7f e5 42 1c 53 38 4d d4 7f 10 9e 9e ce f4
       36 -74 127 -27 66 28 83 56 77 -44 127 16 -98 -98 -50 -12
000070 af 02 db 6f f0 23 88 1b c8 ee 2a 7f 1b 61 ba b1
       -81 2 -37 111 -16 35 -120 27 -56 -18 42 127 27 97 -70 -79
000080 fa 52 2b 5d dd 4e ab 70 4f 03 6b c9 18 7f 9d 50
       -6 82 43 93 -35 78 -85 112 79 3 107 -55 24 127 -99 80
000090 7f 19 c2 ce f4 7f 17 81 c1 8c 05 39 98 81 94 0c
       127 25 -62 -50 -12 127 23 -127 -63 -116 5 57 -104 -127 -108 12
0000a0 a8 07 ec 36 25 48 d7 63 d3 4b 7f fc 7f ea be c9
       -88 7 -20 54 37 72 -41 99 -45 75 127 -4 127 -22 -66 -55
0000b0 7f 81 d3 7f 73 69 2c f8 62 cc 6d 81 64 67 6e 8d
       127 -127 -45 127 115 105 44 -8 98 -52 109 -127 100 103 110 -115
0000c0 2a 64 43 ae 81 ce df a1 7f f9 81 fa 07 81 81 9e
       42 100 67 -82 -127 -50 -33 -95 127 -7 -127 -6 7 -127 -127 -98
0000d0 1b f3 ce 34 ff b6 10 cf 5e 96 2c 20 8f b2 6a df
       27 -13 -50 52 -1 -74 16 -49 94 -106 44 32 -113 -78 106 -33
0000e0 2f b0 34 db bb f5 91 29 c6 e7 01 f8 6a 25 33 34
       47 -80 52 -37 -69 -11 -111 41 -58 -25 1 -8 106 37 51 52
0000f0 62 1b 54 b2 7f 0b db 58 43 a1 69 8c 39 dc ee ce
       98 27 84 -78 127 11 -37 88 67 -95 105 -116 57 -36 -18 -50

model_1/161/Conv2D i1 [336, 1, 1, 56]
000000 81 c4 ed 73 9a cc 93 ee 1f d2 9f 61 0d 02 fb c5
       -127 -60 -19 115 -102 -52 -109 -18 31 -46 -97 97 13 2 -5 -59
000010 05 23 5e 2e 0f f9 da bd 12 68 b2 a6 44 d2 c6 87
       5 35 94 46 15 -7 -38 -67 18 104 -78 -90 68 -46 -58 -121
000020 c9 9a c3 fe fb 06 5d 4f 44 3f b0 28 49 1d d9 2e
       -55 -102 -61 -2 -5 6 93 79 68 63 -80 40 73 29 -39 46
000030 64 7e 3d 64 5e ab 2f 9d ba 79 61 41 f6 92 4d d1
       100 126 61 100 94 -85 47 -99 -70 121 97 65 -10 -110 77 -47
000040 4b 82 5a 5b 95 99 a8 6f 45 4f 72 57 9c 81 8a 93
       75 -126 90 91 -107 -103 -88 111 69 79 114 87 -100 -127 -118 -109
000050 72 b1 1b ae f5 c0 5c f1 3d 89 c6 e6 23 c6 08 0e
       114 -79 27 -82 -11 -64 92 -15 61 -119 -58 -26 35 -58 8 14
000060 41 11 a8 6f 02 4a 59 a9 78 4d 2a 1d ae 90 b2 d4
       65 17 -88 111 2 74 89 -87 120 77 42 29 -82 -112 -78 -44
000070 fc 91 9e b2 92 b0 6f 59 aa 66 1e f2 7f bf 72 65
       -4 -111 -98 -78 -110 -80 111 89 -86 102 30 -14 127 -65 114 101
000080 64 3a 95 cc ec 66 97 aa 8d 81 86 23 ed 96 c5 8a
       100 58 -107 -52 -20 102 -105 -86 -115 -127 -122 35 -19 -106 -59 -118
000090 be e2 e4 d8 29 f8 ae 4d 14 c4 3e 41 73 4c 8e e7
       -66 -30 -28 -40 41 -8 -82 77 20 -60 62 65 115 76 -114 -25
0000a0 6f 70 a1 9e ce 7a aa 82 ab 88 96 7d 71 08 cb 86
       111 112 -95 -98 -50 122 -86 -126 -85 -120 -106 125 113 8 -53 -122
0000b0 d8 3a b6 fd 86 2d 16 34 8b 7a 1a 13 81 1b d1 c1
       -40 58 -74 -3 -122 45 22 52 -117 122 26 19 -127 27 -47 -63
0000c0 23 fc 77 97 f5 90 f2 79 62 5e ea d0 a3 63 bd a0
       35 -4 119 -105 -11 -112 -14 121 98 94 -22 -48 -93 99 -67 -96
0000d0 43 e3 ca 18 33 5f 36 31 36 46 63 97 e1 23 ab 1f
       67 -29 -54 24 51 95 54 49 54 70 99 -105 -31 35 -85 31
0000e0 50 3c 0f b7 ae 12 84 0e 33 0a 59 ef c1 e5 fe dd
       80 60 15 -73 -82 18 -124 14 51 10 89 -17 -63 -27 -2 -35
0000f0 e7 0d 9a 64 e9 37 c5 3a 14 39 82 4a 6c e3 71 91
       -25 13 -102 100 -23 55 -59 58 20 57 -126 74 108 -29 113 -111

model_1/159/Conv2D i1 [56, 1, 1, 336]
000000 7c c5 01 b8 96 27 ba 78 f7 a2 16 14 cb 6c 5a 25
       124 -59 1 -72 -106 39 -70 120 -9 -94 22 20 -53 108 90 37
000010 9c 04 56 9e e0 22 96 e4 23 b8 ed e5 61 6e db 06
       -100 4 86 -98 -32 34 -106 -28 35 -72 -19 -27 97 110 -37 6
000020 8d 0e 90 8f 7a 39 b4 3c a6 e7 d0 2c 69 ef ca 41
       -115 14 -112 -113 122 57 -76 60 -90 -25 -48 44 105 -17 -54 65
000030 72 f3 b9 a7 8a 43 12 01 5f ed 25 cc 78 ff 56 fc
       114 -13 -71 -89 -118 67 18 1 95 -19 37 -52 120 -1 86 -4
000040 18 c0 b4 af c8 4f 23 3d 03 e9 a3 41 8d 4a fa 77
       24 -64 -76 -81 -56 79 35 61 3 -23 -93 65 -115 74 -6 119
000050 3e c9 9c 20 4d 07 f5 c1 40 e2 9c b3 60 9a 1c 08
       62 -55 -100 32 77 7 -11 -63 64 -30 -100 -77 96 -102 28 8
000060 1f c0 6d ab 26 f4 bd ad f5 5f 0c 13 2f 11 73 fc
       31 -64 109 -85 38 -12 -67 -83 -11 95 12 19 47 17 115 -4
000070 f9 ea 97 4c f1 a4 32 dd 86 32 7a 49 1b ee 1c e1
       -7 -22 -105 76 -15 -92 50 -35 -122 50 122 73 27 -18 28 -31
000080 25 1b d9 12 eb 2e 7f ae ef 98 cd 2d 25 b8 d2 c6
       37 27 -39 18 -21 46 127 -82 -17 -104 -51 45 37 -72 -46 -58
000090 9f 04 2e 56 79 c6 d4 73 17 68 0a a3 bc 83 f9 a9
       -97 4 46 86 121 -58 -44 115 23 104 10 -93 -68 -125 -7 -87
0000a0 23 0c 8c 63 60 13 38 be ff 88 b1 5c 37 5d db 59
       35 12 -116 99 96 19 56 -66 -1 -120 -79 92 55 93 -37 89
0000b0 c4 b6 6b bb 8a 2c 45 2e 09 fa ad 42 c9 35 dd 02
       -60 -74 107 -69 -118 44 69 46 9 -6 -83 66 -55 53 -35 2
0000c0 a7 f5 4f 8a a9 7a 9d 68 54 ad 91 a3 35 d6 c0 83
       -89 -11 79 -118 -87 122 -99 104 84 -83 -111 -93 53 -42 -64 -125
0000d0 33 91 d2 ed 0b bd 5f 13 17 92 f9 52 b9 48 8f 13
       51 -111 -46 -19 11 -67 95 19 23 -110 -7 82 -71 72 -113 19
0000e0 83 46 3f d8 ec 01 d9 d5 71 8e 82 79 c8 b2 2e 18
       -125 70 63 -40 -20 1 -39 -43 113 -114 -126 121 -56 -78 46 24
0000f0 81 01 6b 96 84 dd 0e c3 e3 7d 15 e1 7b 1d e2 fc
       -127 1 107 -106 -124 -35 14 -61 -29 125 21 -31 123 29 -30 -4

model_1/158/depthwise i1 [1, 3, 3, 336]
000000 60 0b 33 88 06 38 34 41 46 47 10 87 fd c5 ce ca
       96 11 51 -120 6 56 52 65 70 71 16 -121 -3 -59 -50 -54
000010 7f a7 72 cb c2 c7 76 a6 3a d6 e0 7f 74 e4 0f 7f
       127 -89 114 -53 -62 -57 118 -90 58 -42 -32 127 116 -28 15 127
000020 bf de 60 e9 de dd 81 89 59 1f 67 e6 10 db 7f 20
       -65 -34 96 -23 -34 -35 -127 -119 89 31 103 -26 16 -37 127 32
000030 09 75 61 fd 18 36 2a 20 90 36 68 3f 8f 81 c2 cd
       9 117 97 -3 24 54 42 32 -112 54 104 63 -113 -127 -62 -51
000040 6b fa 6d 7f b5 90 81 c1 62 18 ea f9 fc 48 7f be
       107 -6 109 127 -75 -112 -127 -63 98 24 -22 -7 -4 72 127 -66
000050 81 b1 9d 2f 51 0d 23 f0 73 bf af ae 92 b5 69 8f
       -127 -79 -99 47 81 13 35 -16 115 -65 -81 -82 -110 -75 105 -113
000060 8b 93 e5 2a 03 a1 e2 c1 81 be 6e 2c a5 ef 7b d4
       -117 -109 -27 42 3 -95 -30 -63 -127 -66 110 44 -91 -17 123 -44
000070 19 05 cd c0 7c 05 6f 3f 96 64 8d 7f cf 09 bc 98
       25 5 -51 -64 124 5 111 63 -106 100 -115 127 -49 9 -68 -104
000080 fe 7f 7f 88 67 b7 11 69 50 7f 7f e0 2a 23 7f 8e
       -2 127 127 -120 103 -73 17 105 80 127 127 -32 42 35 127 -114
000090 d4 a3 b9 6a e3 3e 57 83 81 87 8d 86 df b5 09 5f
       -44 -93 -71 106 -29 62 87 -125 -127 -121 -115 -122 -33 -75 9 95
0000a0 aa 7d 33 3b 3e 1b 15 7f c2 51 52 8d 03 68 81 ad
       -86 125 51 59 62 27 21 127 -62 81 82 -115 3 104 -127 -83
0000b0 de e9 4e 81 e0 65 16 fd 8e 20 92 8f 39 81 fc 81
       -34 -23 78 -127 -32 101 22 -3 -114 32 -110 -113 57 -127 -4 -127
0000c0 17 20 67 eb 27 44 a1 b7 12 32 06 8a 1f ec 54 14
       23 32 103 -21 39 68 -95 -73 18 50 6 -118 31 -20 84 20
0000d0 75 d1 3b 6f b2 30 2c c7 5e 68 97 31 81 5d db 7f
       117 -47 59 111 -78 48 44 -57 94 104 -105 49 -127 93 -37 127
0000e0 50 34 81 5e 81 e8 9d 4e 9e df 94 06 b7 b4 bd 68
       80 52 -127 94 -127 -24 -99 78 -98 -33 -108 6 -73 -76 -67 104
0000f0 f4 e7 82 81 33 5a f0 d8 f8 f3 7f 16 c1 71 86 84
       -12 -25 -126 -127 51 90 -16 -40 -8 -13 127 22 -63 113 -122 -124

model_1/157/Conv2D i1 [336, 1, 1, 56]
000000 eb 79 6d 82 3d 49 60 11 81 f9 a0 4c 96 7c dc ac
       -21 121 109 -126 61 73 96 17 -127 -7 -96 76 -106 124 -36 -84
000010 91 3d cc b7 8a 01 cb a8 5a 32 ac ec 50 ee 97 09
       -111 61 -52 -73 -118 1 -53 -88 90 50 -84 -20 80 -18 -105 9
000020 3c 67 4a d5 38 95 38 e6 51 4d 58 76 75 9b 34 88
       60 103 74 -43 56 -107 56 -26 81 77 88 118 117 -101 52 -120
000030 3d d6 fe 8c 83 ef 38 cd 6c 7f b6 d3 04 c2 4c 6a
       61 -42 -2 -116 -125 -17 56 -51 108 127 -74 -45 4 -62 76 106
000040 c8 66 0f f6 06 a0 81 79 e1 31 14 e9 41 1a 79 c1
       -56 102 15 -10 6 -96 -127 121 -31 49 20 -23 65 26 121 -63
000050 42 08 36 4f bc 07 04 73 53 66 00 26 a7 94 e7 05
       66 8 54 79 -68 7 4 115 83 102 0 38 -89 -108 -25 5
000060 e5 a2 cf 83 fb 59 85 6b 79 81 18 bf e1 34 f0 27
       -27 -94 -49 -125 -5 89 -123 107 121 -127 24 -65 -31 52 -16 39
000070 1b 56 68 76 a8 12 ae 50 96 4f 71 b0 50 85 9a d8
       27 86 104 118 -88 18 -82 80 -106 79 113 -80 80 -123 -102 -40
000080 48 63 86 e8 27 a5 aa 98 ec 76 2f 98 db 5d b0 fd
       72 99 -122 -24 39 -91 -86 -104 -20 118 47 -104 -37 93 -80 -3
000090 96 f6 cf c4 0f 39 6e a6 28 74 a4 9f c5 ad 05 2b
       -106 -10 -49 -60 15 57 110 -90 40 116 -92 -97 -59 -83 5 43
0000a0 65 ea cb c3 83 7f 5e cc 39 40 5d d3 5e 34 08 e3
       101 -22 -53 -61 -125 127 94 -52 57 64 93 -45 94 52 8 -29
0000b0 63 f7 0a 10 81 96 51 f3 db 34 2d 2e aa 4f 52 86
       99 -9 10 16 -127 -106 81 -13 -37 52 45 46 -86 79 82 -122
0000c0 b2 c3 ec b6 06 61 65 0f 57 75 c8 9c df a3 1e 50
       -78 -61 -20 -74 6 97 101 15 87 117 -56 -100 -33 -93 30 80
0000d0 4f e7 bd 57 9a 22 fb f1 67 92 03 18 61 b7 b8 8f
       79 -25 -67 87 -102 34 -5 -15 103 -110 3 24 97 -73 -72 -113
0000e0 6c 76 fa 41 ad ff bb 1e 1a ba 5f 58 07 7f 2a a1
       108 118 -6 65 -83 -1 -69 30 26 -70 95 88 7 127 42 -95
0000f0 61 17 39 ad 93 6f 37 49 bd df 46 08 8f 33 47 b1
       97 23 57 -83 -109 111 55 73 -67 -33 70 8 -113 51 71 -79

model_1/156/Conv2D i1 [56, 1, 1, 192]
000000 d3 25 e2 08 d5 91 3c ee 95 a8 39 81 97 71 21 0d
       -45 37 -30 8 -43 -111 60 -18 -107 -88 57 -127 -105 113 33 13
000010 4a 7e f3 a2 05 ff 65 c4 e3 73 2f e0 71 5f 01 89
       74 126 -13 -94 5 -1 101 -60 -29 115 47 -32 113 95 1 -119
000020 e8 ba 1b 6f 30 2d 91 e8 b9 6e 2f 17 ca ba 3e 0b
       -24 -70 27 111 48 45 -111 -24 -71 110 47 23 -54 -70 62 11
000030 bf 1a e1 00 1c db dd 4e 23 ad b4 d5 85 72 78 a5
       -65 26 -31 0 28 -37 -35 78 35 -83 -76 -43 -123 114 120 -91
000040 b1 cb 01 93 54 32 c5 74 fc 0d db ba 4c 40 90 0a
       -79 -53 1 -109 84 50 -59 116 -4 13 -37 -70 76 64 -112 10
000050 9d 34 a9 1d 9b 60 9f 77 0e 3b 57 a6 e6 3a 62 d9
       -99 52 -87 29 -101 96 -97 119 14 59 87 -90 -26 58 98 -39
000060 c8 a7 49 e9 c1 5a 6a e8 c0 a1 94 28 bc 5d 02 db
       -56 -89 73 -23 -63 90 106 -24 -64 -95 -108 40 -68 93 2 -37
000070 1f 46 59 e3 fc c6 b0 20 a0 b6 7d 8a 95 c4 1f a6
       31 70 89 -29 -4 -58 -80 32 -96 -74 125 -118 -107 -60 31 -90
000080 31 97 3a 65 06 14 b3 89 63 5c c5 73 7c da 26 5f
       49 -105 58 101 6 20 -77 -119 99 92 -59 115 124 -38 38 95
000090 6a 0d f8 3d e2 66 07 0c 38 05 a9 07 46 26 18 40
       106 13 -8 61 -30 102 7 12 56 5 -87 7 70 38 24 64
0000a0 e0 e4 c3 a7 f4 51 0e f6 40 04 07 55 24 c4 5d d5
       -32 -28 -61 -89 -12 81 14 -10 64 4 7 85 36 -60 93 -43
0000b0 0a 16 23 20 f1 73 b4 07 4b a2 c6 7d a8 01 91 a4
       10 22 35 32 -15 115 -76 7 75 -94 -58 125 -88 1 -111 -92
0000c0 88 b0 12 53 af 09 5d e9 1a bc 0c 7a c5 3a 01 57
       -120 -80 18 83 -81 9 93 -23 26 -68 12 122 -59 58 1 87
0000d0 e5 a9 39 fc 6f 7a 6b 17 4e 2f 47 d1 c6 50 f3 7f
       -27 -87 57 -4 111 122 107 23 78 47 71 -47 -58 80 -13 127
0000e0 ad 72 eb 2f a5 7e 3b 04 e3 c9 fc 36 a6 d0 f8 7c
       -83 114 -21 47 -91 126 59 4 -29 -55 -4 54 -90 -48 -8 124
0000f0 7e f2 33 5f 70 9e fb aa 18 e7 65 fd a1 a4 5b 61
       126 -14 51 95 112 -98 -5 -86 24 -25 101 -3 -95 -92 91 97

model_1/155/depthwise i1 [1, 3, 3, 192]
000000 e2 85 28 3a 8f 83 9d eb 08 e4 f1 f2 02 24 7c 7f
       -30 -123 40 58 -113 -125 -99 -21 8 -28 -15 -14 2 36 124 127
000010 e1 7f b6 71 6d 81 fa ac b0 36 88 c8 f6 b8 71 c9
       -31 127 -74 113 109 -127 -6 -84 -80 54 -120 -56 -10 -72 113 -55
000020 64 6a 54 81 d7 de 3c fe fa 48 b3 8a 0c 4f 81 7f
       100 106 84 -127 -41 -34 60 -2 -6 72 -77 -118 12 79 -127 127
000030 09 a7 e5 44 76 fe 7f 7f e9 55 70 81 da 2a 83 d6
       9 -89 -27 68 118 -2 127 127 -23 85 112 -127 -38 42 -125 -42
000040 56 c4 66 b3 7f 73 72 3d c9 c3 9d 83 da ce 71 55
       86 -60 102 -77 127 115 114 61 -55 -61 -99 -125 -38 -50 113 85
000050 aa 20 d8 58 cb 26 5b d0 f8 a9 4d 9d 81 bc 32 bc
       -86 32 -40 88 -53 38 91 -48 -8 -87 77 -99 -127 -68 50 -68
000060 81 c9 c5 3b 81 d2 40 2d 03 37 e3 d2 b7 e5 7f 75
       -127 -55 -59 59 -127 -46 64 45 3 55 -29 -46 -73 -27 127 117
000070 c0 7f fa f3 5f 7f c7 b4 57 7f df 1f 1f 8b 36 7f
       -64 127 -6 -13 95 127 -57 -76 87 127 -33 31 31 -117 54 127
000080 c2 88 d8 7f 97 b3 9b 8e 81 0a 49 ec b3 ae ec 7f
       -62 -120 -40 127 -105 -77 -101 -114 -127 10 73 -20 -77 -82 -20 127
000090 08 81 a1 b0 e0 7f 7f db e3 b5 34 b1 43 81 dd ec
       8 -127 -95 -80 -32 127 127 -37 -29 -75 52 -79 67 -127 -35 -20
0000a0 d2 7f c2 4d 62 35 d5 8c 81 22 6e b5 b3 cf 7f b7
       -46 127 -62 77 98 53 -43 -116 -127 34 110 -75 -77 -49 127 -73
0000b0 29 b2 7f 90 7f 1f 81 ef 0d 81 bb 16 f3 fd 6f b9
       41 -78 127 -112 127 31 -127 -17 13 -127 -69 22 -13 -3 111 -71
0000c0 fe 45 81 70 c2 54 95 a0 81 87 54 ac 25 bd 19 ce
       -2 69 -127 112 -62 84 -107 -96 -127 -121 84 -84 37 -67 25 -50
0000d0 eb de a3 7f 1a ef cc e8 8b 6e 1c 57 6b 9a 6f 41
       -21 -34 -93 127 26 -17 -52 -24 -117 110 28 87 107 -102 111 65
0000e0 b1 02 fb fe 0c ec 06 7f bb 8b 95 a0 43 07 29 8f
       -79 2 -5 -2 12 -20 6 127 -69 -117 -107 -96 67 7 41 -113
0000f0 a8 85 29 df 9f a4 ec 45 dc bb 20 97 3f 03 91 81
       -88 -123 41 -33 -97 -92 -20 69 -36 -69 32 -105 63 3 -111 -127

model_1/154/Conv2D i1 [192, 1, 1, 32]
000000 f1 4e a9 b2 0d 92 6a d7 55 b2 17 a4 04 73 7f 7a
       -15 78 -87 -78 13 -110 106 -41 85 -78 23 -92 4 115 127 122
000010 36 93 c4 31 90 3e 41 cd eb d8 99 c0 b6 c3 5c c2
       54 -109 -60 49 -112 62 65 -51 -21 -40 -103 -64 -74 -61 92 -62
000020 05 b2 9f 2c 6e 5e 2e b7 82 c2 34 27 44 86 1b fb
       5 -78 -97 44 110 94 46 -73 -126 -62 52 39 68 -122 27 -5
000030 81 79 ad 3d 73 d4 e8 ee c8 1d bb ba 55 8c 40 66
       -127 121 -83 61 115 -44 -24 -18 -56 29 -69 -70 85 -116 64 102
000040 81 7d 3d 84 31 84 be a9 c3 19 8b 9e 71 12 1b e8
       -127 125 61 -124 49 -124 -66 -87 -61 25 -117 -98 113 18 27 -24
000050 25 e2 e7 59 16 97 a2 b4 32 90 48 45 49 38 bf 29
       37 -30 -25 89 22 -105 -94 -76 50 -112 72 69 73 56 -65 41
000060 6f 2d 6c 81 dc a6 0f 10 16 1f 1a 23 e9 4c 43 df
       111 45 108 -127 -36 -90 15 16 22 31 26 35 -23 76 67 -33
000070 7a e1 ce 41 4c b4 e3 4c 88 e1 61 f2 a8 0a e8 1a
       122 -31 -50 65 76 -76 -29 76 -120 -31 97 -14 -88 10 -24 26
000080 b4 9e 81 e7 7a d0 eb 3a 23 5e 4d 75 aa e9 26 ca
       -76 -98 -127 -25 122 -48 -21 58 35 94 77 117 -86 -23 38 -54
000090 98 c8 38 52 2d 23 04 a0 0a 1a a4 31 c3 7c 94 56
       -104 -56 56 82 45 35 4 -96 10 26 -92 49 -61 124 -108 86
0000a0 dd bd 91 65 7f 5c 41 ed 2f c2 0f 9b 01 df d3 5b
       -35 -67 -111 101 127 92 65 -19 47 -62 15 -101 1 -33 -45 91
0000b0 0e d7 f9 06 2e 81 96 24 2f 89 1a d5 95 e5 d7 2e
       14 -41 -7 6 46 -127 -106 36 47 -119 26 -43 -107 -27 -41 46
0000c0 47 9c 94 ac 6b 52 49 54 b3 77 e4 3f 60 ca 3f c3
       71 -100 -108 -84 107 82 73 84 -77 119 -28 63 96 -54 63 -61
0000d0 cc 27 92 99 04 13 cd c9 12 cc 54 4f 94 f0 81 f7
       -52 39 -110 -103 4 19 -51 -55 18 -52 84 79 -108 -16 -127 -9
0000e0 59 71 2d 1b f7 96 70 54 82 42 7f f6 9f 52 fd 96
       89 113 45 27 -9 -106 112 84 -126 66 127 -10 -97 82 -3 -106
0000f0 fe f8 9d 8a 38 f5 a1 26 56 9f cc 9c 52 dd 9f d8
       -2 -8 -99 -118 56 -11 -95 38 86 -97 -52 -100 82 -35 -97 -40

model_1/152/Conv2D i1 [32, 1, 1, 192]
000000 e0 b3 bb 3b 0d cc df f7 bb d2 23 28 7b b8 af 70
       -32 -77 -69 59 13 -52 -33 -9 -69 -46 35 40 123 -72 -81 112
000010 d7 0b b0 8e f0 21 79 95 9b 29 27 79 cf e5 83 84
       -41 11 -80 -114 -16 33 121 -107 -101 41 39 121 -49 -27 -125 -124
000020 6d 3a 4e 3a dc 51 62 18 f2 2e e4 8c 98 3a b1 ba
       109 58 78 58 -36 81 98 24 -14 46 -28 -116 -104 58 -79 -70
000030 4b ab 00 37 cd 90 42 2a 25 ca 7b 50 de a0 41 eb
       75 -85 0 55 -51 -112 66 42 37 -54 123 80 -34 -96 65 -21
000040 02 21 04 9b 59 6e ab 84 d6 0a 01 13 3a 11 0e e5
       2 33 4 -101 89 110 -85 -124 -42 10 1 19 58 17 14 -27
000050 65 53 c2 dd 44 3e 26 11 2b dd b4 11 94 70 8f df
       101 83 -62 -35 68 62 38 17 43 -35 -76 17 -108 112 -113 -33
000060 b4 ed d4 20 f8 00 44 2f 60 6c 5f 30 67 a9 3f 7d
       -76 -19 -44 32 -8 0 68 47 96 108 95 48 103 -87 63 125
000070 eb f4 02 07 88 e8 d7 be 11 a8 2c 4b fe e9 e7 9c
       -21 -12 2 7 -120 -24 -41 -66 17 -88 44 75 -2 -23 -25 -100
000080 b9 ba ce 83 08 d3 98 ef 38 9c 7e fb 9b 8f ba 15
       -71 -70 -50 -125 8 -45 -104 -17 56 -100 126 -5 -101 -113 -70 21
000090 3a ae be da bf 1c 81 58 27 c2 a2 94 ba 9e b0 4c
       58 -82 -66 -38 -65 28 -127 88 39 -62 -94 -108 -70 -98 -80 76
0000a0 0e 4c 3c 99 60 2b b0 ab b9 68 fb b6 ef 56 de 2c
       14 76 60 -103 96 43 -80 -85 -71 104 -5 -74 -17 86 -34 44
0000b0 4b d6 7a f0 31 8a a8 c7 b3 d8 b8 a4 db 72 7f 21
       75 -42 122 -16 49 -118 -88 -57 -77 -40 -72 -92 -37 114 127 33
0000c0 1e c7 a6 28 ae 29 e8 ec 14 19 8e a1 d4 0b a2 05
       30 -57 -90 40 -82 41 -24 -20 20 25 -114 -95 -44 11 -94 5
0000d0 d5 63 46 b9 d3 bc 16 c7 6e 7c e8 29 dc de 1f 7e
       -43 99 70 -71 -45 -68 22 -57 110 124 -24 41 -36 -34 31 126
0000e0 c5 96 ca fb 42 15 b0 03 bc a8 58 a6 70 dd fa fe
       -59 -106 -54 -5 66 21 -80 3 -68 -88 88 -90 112 -35 -6 -2
0000f0 79 19 7b a3 90 51 fc cf ce 67 79 ec be 16 94 9d
       121 25 123 -93 -112 81 -4 -49 -50 103 121 -20 -66 22 -108 -99

model_1/151/depthwise i1 [1, 3, 3, 192]
000000 44 29 76 7f 16 4d bc 4a 75 fa d8 81 b9 b0 a6 20
       68 41 118 127 22 77 -68 74 117 -6 -40 -127 -71 -80 -90 32
000010 a7 c5 8a 28 66 c0 c8 ae fc ff 8d 8d 7f 36 0e a8
       -89 -59 -118 40 102 -64 -56 -82 -4 -1 -115 -115 127 54 14 -88
000020 c4 c5 8f d6 eb 7f 7f b5 85 a4 82 dc 46 97 f9 35
       -60 -59 -113 -42 -21 127 127 -75 -123 -92 -126 -36 70 -105 -7 53
000030 c2 1c 81 11 7f de 9c ac 8b 81 d6 81 ad f5 88 7f
       -62 28 -127 17 127 -34 -100 -84 -117 -127 -42 -127 -83 -11 -120 127
000040 58 d6 93 7f 7f d9 4d e3 7f 9a 4d 74 15 c3 35 21
       88 -42 -109 127 127 -39 77 -29 127 -102 77 116 21 -61 53 33
000050 0a 03 2e 4a 81 fd b5 a7 55 81 33 d9 66 04 98 08
       10 3 46 74 -127 -3 -75 -89 85 -127 51 -39 102 4 -104 8
000060 e4 34 9d f5 b4 a9 a0 70 33 7f dc 05 66 81 b9 38
       -28 52 -99 -11 -76 -87 -96 112 51 127 -36 5 102 -127 -71 56
000070 84 1b d7 ce 5c 36 53 7f e4 4a b5 7f 35 da fb cd
       -124 27 -41 -50 92 54 83 127 -28 74 -75 127 53 -38 -5 -51
000080 75 84 f0 4f c7 05 b7 4d 61 45 7a 5f aa a2 a3 a2
       117 -124 -16 79 -57 5 -73 77 97 69 122 95 -86 -94 -93 -94
000090 7d a9 5b ee 01 f6 61 9c 08 94 89 fe 02 ff 99 81
       125 -87 91 -18 1 -10 97 -100 8 -108 -119 -2 2 -1 -103 -127
0000a0 77 7f 7f 91 b4 e0 df 2b a0 b1 7f ab 7f 53 88 fb
       119 127 127 -111 -76 -32 -33 43 -96 -79 127 -85 127 83 -120 -5
0000b0 dc 8f fe a1 c0 a6 5b 4b f5 c5 40 7f bb 10 67 7f
       -36 -113 -2 -95 -64 -90 91 75 -11 -59 64 127 -69 16 103 127
0000c0 c8 2b a9 06 7f 7f 02 f9 81 b3 66 01 07 3f 00 2b
       -56 43 -87 6 127 127 2 -7 -127 -77 102 1 7 63 0 43
0000d0 81 12 94 29 b8 03 37 4e 5c a8 17 1f d7 0c b6 6c
       -127 18 -108 41 -72 3 55 78 92 -88 23 31 -41 12 -74 108
0000e0 7f b4 7f f8 31 5c 60 44 5c cd 26 0a d8 ae b1 9b
       127 -76 127 -8 49 92 96 68 92 -51 38 10 -40 -82 -79 -101
0000f0 df aa fd d3 f1 ed 7f e1 19 ec b5 ac e5 39 cb fd
       -33 -86 -3 -45 -15 -19 127 -31 25 -20 -75 -84 -27 57 -53 -3

model_1/150/Conv2D i1 [192, 1, 1, 32]
000000 15 fb 9d 9d a3 e7 b5 b2 5e 31 29 cd bc 73 f0 6d
       21 -5 -99 -99 -93 -25 -75 -78 94 49 41 -51 -68 115 -16 109
000010 79 03 81 28 30 e6 59 75 a9 de 22 f7 a6 e7 02 4c
       121 3 -127 40 48 -26 89 117 -87 -34 34 -9 -90 -25 2 76
000020 be 46 5b da 9f 21 cc 4b f6 94 a1 ba a6 32 23 d3
       -66 70 91 -38 -97 33 -52 75 -10 -108 -95 -70 -90 50 35 -45
000030 9f 3d ac 22 63 38 18 d6 ea 81 90 4c 67 c5 a2 f5
       -97 61 -84 34 99 56 24 -42 -22 -127 -112 76 103 -59 -94 -11
000040 7d 0a 67 b8 09 e1 b1 2b ce 22 28 fc c4 a8 78 77
       125 10 103 -72 9 -31 -79 43 -50 34 40 -4 -60 -88 120 119
000050 b5 d8 69 e3 53 39 fb 82 9a 7f b6 69 39 8c 6c 6a
       -75 -40 105 -29 83 57 -5 -126 -102 127 -74 105 57 -116 108 106
000060 58 42 fa f3 06 1a cf 7d ac db be 4b 7a c4 61 40
       88 66 -6 -13 6 26 -49 125 -84 -37 -66 75 122 -60 97 64
000070 28 ac 81 95 a0 10 72 f4 6e 7c f9 4c 45 13 1b 3d
       40 -84 -127 -107 -96 16 114 -12 110 124 -7 76 69 19 27 61
000080 9e 1b c5 0c 66 4c f8 03 0e 0c 20 0c 98 6c 39 c4
       -98 27 -59 12 102 76 -8 3 14 12 32 12 -104 108 57 -60
000090 5a e5 f1 74 2b ea 79 62 6e ed 0d eb e8 1a 7f ff
       90 -27 -15 116 43 -22 121 98 110 -19 13 -21 -24 26 127 -1
0000a0 ac 8d b7 b6 fc 1f 8f f9 84 ed 76 d5 06 61 bc 94
       -84 -115 -73 -74 -4 31 -113 -7 -124 -19 118 -43 6 97 -68 -108
0000b0 f2 e9 81 d2 8d 5c 4a 14 bf 69 74 00 eb de 6f 23
       -14 -23 -127 -46 -115 92 74 20 -65 105 116 0 -21 -34 111 35
0000c0 da 97 51 e9 41 d6 25 53 18 31 52 a9 97 14 40 69
       -38 -105 81 -23 65 -42 37 83 24 49 82 -87 -105 20 64 105
0000d0 1e 4a 1f 81 f5 b9 2b 64 e7 99 68 5a fa 24 96 6d
       30 74 31 -127 -11 -71 43 100 -25 -103 104 90 -6 36 -106 109
0000e0 e6 07 4f cd 6c 87 3d 86 37 a0 f9 bf 7c 6b bb 47
       -26 7 79 -51 108 -121 61 -122 55 -96 -7 -65 124 107 -69 71
0000f0 41 c8 c0 c5 9c 99 79 4f 03 5b 3f 1f 53 43 81 c7
       65 -56 -64 -59 -100 -103 121 79 3 91 63 31 83 67 -127 -57

model_1/148/Conv2D i1 [32, 1, 1, 192]
000000 89 8a 6a d5 02 b4 61 5d 6c 97 0a 95 c2 eb 31 17
       -119 -118 106 -43 2 -76 97 93 108 -105 10 -107 -62 -21 49 23
000010 47 60 bc fe c8 ef c0 cc 6f f1 cc c0 13 6b 51 ba
       71 96 -68 -2 -56 -17 -64 -52 111 -15 -52 -64 19 107 81 -70
000020 c3 dc 9d e4 5c d4 a0 ae 5e 68 ed 56 28 29 1e cd
       -61 -36 -99 -28 92 -44 -96 -82 94 104 -19 86 40 41 30 -51
000030 ee 2e c9 bd ed 6a 8e c2 ea 3e 73 21 62 45 79 e6
       -18 46 -55 -67 -19 106 -114 -62 -22 62 115 33 98 69 121 -26
000040 20 19 29 5d b6 67 c4 81 7a 45 5d 54 ec b5 dd e9
       32 25 41 93 -74 103 -60 -127 122 69 93 84 -20 -75 -35 -23
000050 cf 3b 61 27 ce 3a e3 a7 32 b7 a6 47 10 e3 8f 96
       -49 59 97 39 -50 58 -29 -89 50 -73 -90 71 16 -29 -113 -106
000060 10 83 c6 8f 81 e5 36 7d a2 fb dd 2a 36 95 00 87
       16 -125 -58 -113 -127 -27 54 125 -94 -5 -35 42 54 -107 0 -121
000070 b0 92 fd 99 22 e7 ff 7e 01 4f 70 67 91 d1 81 f9
       -80 -110 -3 -103 34 -25 -1 126 1 79 112 103 -111 -47 -127 -7
000080 07 c9 e0 57 04 9b 9a a6 90 92 64 34 9c 59 19 01
       7 -55 -32 87 4 -101 -102 -90 -112 -110 100 52 -100 89 25 1
000090 a0 10 ab e6 b7 95 c7 70 59 04 5b 21 86 d4 93 89
       -96 16 -85 -26 -73 -107 -57 112 89 4 91 33 -122 -44 -109 -119
0000a0 ba a5 06 5b df 78 79 11 2b 88 f2 03 fe f3 5c 09
       -70 -91 6 91 -33 120 121 17 43 -120 -14 3 -2 -13 92 9
0000b0 62 66 d4 45 e2 fc 61 17 e7 26 8f 25 60 35 1c ed
       98 102 -44 69 -30 -4 97 23 -25 38 -113 37 96 53 28 -19
0000c0 00 e7 47 03 7b 39 62 c5 31 02 37 da 78 e3 98 f9
       0 -25 71 3 123 57 98 -59 49 2 55 -38 120 -29 -104 -7
0000d0 10 38 7c 2c 99 83 7b 05 ce 39 39 9c 34 54 dc 9f
       16 56 124 44 -103 -125 123 5 -50 57 57 -100 52 84 -36 -97
0000e0 fc 6a a3 7d 39 2b 77 e8 29 9f ea d6 8c a5 1b 71
       -4 106 -93 125 57 43 119 -24 41 -97 -22 -42 -116 -91 27 113
0000f0 0e 89 52 60 2c 3e 3a 07 44 ce 84 9e 23 c1 44 5c
       14 -119 82 96 44 62 58 7 68 -50 -124 -98 35 -63 68 92

model_1/147/depthwise i1 [1, 3, 3, 192]
000000 bc 5e 83 2b 03 d4 1e 79 39 2e d4 42 fa ac c9 2b
       -68 94 -125 43 3 -44 30 121 57 46 -44 66 -6 -84 -55 43
000010 d4 81 b7 81 c6 be 24 81 23 d9 7f 81 a8 e6 8b 3a
       -44 -127 -73 -127 -58 -66 36 -127 35 -39 127 -127 -88 -26 -117 58
000020 be 81 6c 9a 43 ca a6 2c 81 aa 21 21 81 7f 74 7f
       -66 -127 108 -102 67 -54 -90 44 -127 -86 33 33 -127 127 116 127
000030 da 81 eb 06 71 a0 64 1c 68 ae d8 30 d3 18 68 74
       -38 -127 -21 6 113 -96 100 28 104 -82 -40 48 -45 24 104 116
000040 c9 9e 9e f7 7f e4 a8 bf 64 fa 26 da 9b 81 24 e3
       -55 -98 -98 -9 127 -28 -88 -65 100 -6 38 -38 -101 -127 36 -29
000050 90 f6 ae 61 b2 8f 30 d6 12 10 ba 5a 44 15 06 9d
       -112 -10 -82 97 -78 -113 48 -42 18 16 -70 90 68 21 6 -99
000060 5c bc df 44 47 7f 88 30 4f 35 7f e3 6f 91 0b b7
       92 -68 -33 68 71 127 -120 48 79 53 127 -29 111 -111 11 -73
000070 86 4d be ec 8c f0 e9 e7 da 99 70 4d 21 69 e7 73
       -122 77 -66 -20 -116 -16 -23 -25 -38 -103 112 77 33 105 -25 115
000080 78 5c 93 23 b3 96 85 3f 3f e4 63 6a 8b 93 d8 6a
       120 92 -109 35 -77 -106 -123 63 63 -28 99 106 -117 -109 -40 106
000090 f2 9a 6b c5 81 36 81 7f 2b e8 7f 70 03 81 94 48
       -14 -102 107 -59 -127 54 -127 127 43 -24 127 112 3 -127 -108 72
0000a0 e7 09 c4 7f 9d 9f 2e 5d 7f 63 cf 3f 54 64 81 1d
       -25 9 -60 127 -99 -97 46 93 127 99 -49 63 84 100 -127 29
0000b0 35 cf 32 d5 d6 4a 44 43 69 b1 44 fb 01 54 89 cf
       53 -49 50 -43 -42 74 68 67 105 -79 68 -5 1 84 -119 -49
0000c0 40 52 58 11 e8 0c f0 7d d0 3d 27 8f fa 0c 81 e4
       64 82 88 17 -24 12 -16 125 -48 61 39 -113 -6 12 -127 -28
0000d0 5e f4 f2 69 91 8a 7b 5b db f7 82 d8 fb 39 0e 58
       94 -12 -14 105 -111 -118 123 91 -37 -9 -126 -40 -5 57 14 88
0000e0 9d fa fa 76 7f 19 7f d6 3b 70 2a 6a b5 8f 49 10
       -99 -6 -6 118 127 25 127 -42 59 112 42 106 -75 -113 73 16
0000f0 f5 8e 82 33 7c ed 00 40 8d 10 05 ee c0 de 10 50
       -11 -114 -126 51 124 -19 0 64 -115 16 5 -18 -64 -34 16 80

model_1/146/Conv2D i1 [192, 1, 1, 32]
000000 b2 39 a7 4c 1c 44 ba 78 ce 9d d2 bb 3d f7 99 4a
       -78 57 -89 76 28 68 -70 120 -50 -99 -46 -69 61 -9 -103 74
000010 97 99 8f a2 2b d6 7d 85 e3 81 7a eb f2 7f cd 70
       -105 -103 -113 -94 43 -42 125 -123 -29 -127 122 -21 -14 127 -51 112
000020 74 43 ea ef 1a b5 31 82 92 5f 62 fd ed 14 60 d1
       116 67 -22 -17 26 -75 49 -126 -110 95 98 -3 -19 20 96 -47
000030 de 60 64 cb 34 88 c6 af d0 1c 6f 21 a9 81 78 fa
       -34 96 100 -53 52 -120 -58 -81 -48 28 111 33 -87 -127 120 -6
000040 5e af e6 6e 0f db d0 30 c3 42 10 00 c8 dd 68 63
       94 -81 -26 110 15 -37 -48 48 -61 66 16 0 -56 -35 104 99
000050 c3 81 eb 69 62 79 1b 81 dc 35 28 df 7c 17 0a 8f
       -61 -127 -21 105 98 121 27 -127 -36 53 40 -33 124 23 10 -113
000060 ee 12 8e dc 2c d5 67 af a0 81 03 42 4e f3 e3 7f
       -18 18 -114 -36 44 -43 103 -81 -96 -127 3 66 78 -13 -29 127
000070 1e 3e a7 b3 cd fb 28 b7 f6 4b e1 be 3c 46 53 06
       30 62 -89 -77 -51 -5 40 -73 -10 75 -31 -66 60 70 83 6
000080 4c 51 aa 02 82 b4 fd 08 7e 1b 4d f9 78 b1 89 b4
       76 81 -86 2 -126 -76 -3 8 126 27 77 -7 120 -79 -119 -76
000090 9b b8 0d d3 fe 5c bc 34 24 55 81 2a 0d 9c dd 47
       -101 -72 13 -45 -2 92 -68 52 36 85 -127 42 13 -100 -35 71
0000a0 57 81 37 9e 32 ac e3 bb 58 35 cd 4c 3f 87 af f8
       87 -127 55 -98 50 -84 -29 -69 88 53 -51 76 63 -121 -81 -8
0000b0 f3 1a f2 7a 57 ec 8a 9d a0 b8 a5 0e 6a 0a ce a6
       -13 26 -14 122 87 -20 -118 -99 -96 -72 -91 14 106 10 -50 -90
0000c0 35 72 32 26 9f c5 14 36 d8 97 e3 50 72 3a 99 35
       53 114 50 38 -97 -59 20 54 -40 -105 -29 80 114 58 -103 53
0000d0 e0 c2 30 7f 2d ee d5 2f ba f2 48 3e ac f9 e3 69
       -32 -62 48 127 45 -18 -43 47 -70 -14 72 62 -84 -7 -29 105
0000e0 da 25 81 cf 94 04 f8 64 8a a3 34 81 7d 8c 73 ae
       -38 37 -127 -49 -108 4 -8 100 -118 -93 52 -127 125 -116 115 -82
0000f0 8f 06 4d 82 3d e5 0c fe f0 b8 bf f9 c2 3e 0f 1a
       -113 6 77 -126 61 -27 12 -2 -16 -72 -65 -7 -62 62 15 26

model_1/145/Conv2D i1 [32, 1, 1, 144]
000000 65 6c 1d 04 60 ff e4 7a 54 62 b2 ed 7c 82 63 63
       101 108 29 4 96 -1 -28 122 84 98 -78 -19 124 -126 99 99
000010 4d 86 d4 71 55 a4 00 d1 d9 c1 ea fb df d4 a1 6d
       77 -122 -44 113 85 -92 0 -47 -39 -63 -22 -5 -33 -44 -95 109
000020 1d 07 cb b4 0c 44 b5 1a d0 ce 08 fe e2 d2 81 cc
       29 7 -53 -76 12 68 -75 26 -48 -50 8 -2 -30 -46 -127 -52
000030 0b 2b 35 5e b0 5d ee 9d 88 5b ee 4c c0 d1 5a 8c
       11 43 53 94 -80 93 -18 -99 -120 91 -18 76 -64 -47 90 -116
000040 8a 2e 5e fa 91 6c 6e be d7 c8 8b 15 8f 1d b6 e9
       -118 46 94 -6 -111 108 110 -66 -41 -56 -117 21 -113 29 -74 -23
000050 99 8f 54 09 b3 1c 76 36 08 61 6b 7e a0 07 58 b5
       -103 -113 84 9 -77 28 118 54 8 97 107 126 -96 7 88 -75
000060 1f 88 f3 90 6b bc 86 6d f3 7e fe c2 08 d2 a0 31
       31 -120 -13 -112 107 -68 -122 109 -13 126 -2 -62 8 -46 -96 49
000070 86 98 eb e4 49 15 65 2b a9 35 95 cd f8 f9 cb c6
       -122 -104 -21 -28 73 21 101 43 -87 53 -107 -51 -8 -7 -53 -58
000080 ad 10 08 60 06 6e 6c e7 be 2e e5 b4 27 bf b8 78
       -83 16 8 96 6 110 108 -25 -66 46 -27 -76 39 -65 -72 120
000090 81 16 bf b2 46 ea e8 54 14 63 4b 32 11 95 82 71
       -127 22 -65 -78 70 -22 -24 84 20 99 75 50 17 -107 -126 113
0000a0 71 a0 2b ce 3e 02 d8 65 24 1f d1 40 f1 59 1d c3
       113 -96 43 -50 62 2 -40 101 36 31 -47 64 -15 89 29 -61
0000b0 70 c8 05 fd 1e 27 1f 48 ca fb df 4d a2 51 74 c1
       112 -56 5 -3 30 39 31 72 -54 -5 -33 77 -94 81 116 -63
0000c0 92 ac c6 87 8b 48 0c cb ba 04 b8 db 60 83 bc aa
       -110 -84 -58 -121 -117 72 12 -53 -70 4 -72 -37 96 -125 -68 -86
0000d0 48 3e 3b 87 4c 43 e0 6d 76 34 0b dc e6 f7 4f 91
       72 62 59 -121 76 67 -32 109 118 52 11 -36 -26 -9 79 -111
0000e0 7e 69 14 3c 20 8b 3f 3d de c9 bb 59 a5 ee ad cc
       126 105 20 60 32 -117 63 61 -34 -55 -69 89 -91 -18 -83 -52
0000f0 fe 6e ea 6a 7f fb 01 57 49 9a ea ac fe 8e 05 a9
       -2 110 -22 106 127 -5 1 87 73 -102 -22 -84 -2 -114 5 -87

model_1/144/depthwise i1 [1, 3, 3, 144]
000000 22 62 6a 02 8a e6 02 86 84 5b 28 b1 a3 c9 d8 ff
       34 98 106 2 -118 -26 2 -122 -124 91 40 -79 -93 -55 -40 -1
000010 a0 49 a2 81 f8 81 2f 9e 7f 99 7f d6 ea af 95 81
       -96 73 -94 -127 -8 -127 47 -98 127 -103 127 -42 -22 -81 -107 -127
000020 81 72 d7 1b e7 8e ee c9 a9 be 1e 9b a1 c8 10 3f
       -127 114 -41 27 -25 -114 -18 -55 -87 -66 30 -101 -95 -56 16 63
000030 a0 8b 58 b2 4b 61 6b 5b 0d a6 90 81 17 b9 da 84
       -96 -117 88 -78 75 97 107 91 13 -90 -112 -127 23 -71 -38 -124
000040 eb 75 e5 d9 d2 81 35 70 53 23 81 de cd d5 48 ac
       -21 117 -27 -39 -46 -127 53 112 83 35 -127 -34 -51 -43 72 -84
000050 fa 83 59 28 4d 2d 81 f3 7f b9 64 d0 b9 5d 73 02
       -6 -125 89 40 77 45 -127 -13 127 -71 100 -48 -71 93 115 2
000060 a5 7f c4 77 e7 07 af f3 72 82 41 15 eb 7f f3 45
       -91 127 -60 119 -25 7 -81 -13 114 -126 65 21 -21 127 -13 69
000070 cb 2f 7e da e7 5c 74 d7 22 59 42 2b 46 8e 01 71
       -53 47 126 -38 -25 92 116 -41 34 89 66 43 70 -114 1 113
000080 67 3f bf de 4e 7f 28 af c9 02 97 6b 16 40 f9 e6
       103 63 -65 -34 78 127 40 -81 -55 2 -105 107 22 64 -7 -26
000090 06 ec 50 81 fb 75 d5 16 cb d1 5d 8e 81 7f 7f c8
       6 -20 80 -127 -5 117 -43 22 -53 -47 93 -114 -127 127 127 -56
0000a0 94 5d 0b 7e 81 15 54 70 ec b1 8c 76 7f fb c8 fb
       -108 93 11 126 -127 21 84 112 -20 -79 -116 118 127 -5 -56 -5
0000b0 17 70 a6 32 5c f7 60 5e 81 14 8b 63 bc 81 3c 1d
       23 112 -90 50 92 -9 96 94 -127 20 -117 99 -68 -127 60 29
0000c0 5e 7f d0 32 21 73 de 90 d2 59 fb b8 f8 18 85 ca
       94 127 -48 50 33 115 -34 -112 -46 89 -5 -72 -8 24 -123 -54
0000d0 72 f6 7a 95 4c 05 e6 45 e6 2c 18 db 35 81 b0 f3
       114 -10 122 -107 76 5 -26 69 -26 44 24 -37 53 -127 -80 -13
0000e0 7f 07 77 1b e9 7f 90 b1 e8 46 0e d5 81 e3 cb ca
       127 7 119 27 -23 127 -112 -79 -24 70 14 -43 -127 -29 -53 -54
0000f0 55 17 54 00 a4 b9 81 06 54 d1 54 78 c0 38 fc e0
       85 23 84 0 -92 -71 -127 6 84 -47 84 120 -64 56 -4 -32

model_1/143/Conv2D i1 [144, 1, 1, 24]
000000 7f 67 5c c8 bb 4e c7 f3 65 cd 68 2b 59 52 32 c1
       127 103 92 -56 -69 78 -57 -13 101 -51 104 43 89 82 50 -63
000010 9d 01 28 ba 15 7f f6 02 6a f2 07 1b a1 39 ba 6b
       -99 1 40 -70 21 127 -10 2 106 -14 7 27 -95 57 -70 107
000020 08 76 36 f5 8b 06 e1 81 c9 5c 2a 8f c2 6f 40 0e
       8 118 54 -11 -117 6 -31 -127 -55 92 42 -113 -62 111 64 14
000030 74 44 59 bc 7c 06 b2 32 d5 23 1f fe 90 4b 01 db
       116 68 89 -68 124 6 -78 50 -43 35 31 -2 -112 75 1 -37
000040 d8 1f 05 a3 16 4e 81 56 24 88 35 51 af fa 70 d6
       -40 31 5 -93 22 78 -127 86 36 -120 53 81 -81 -6 112 -42
000050 09 29 bf b3 af 7b 10 7f de 92 fd 40 c0 c8 b3 10
       9 41 -65 -77 -81 123 16 127 -34 -110 -3 64 -64 -56 -77 16
000060 45 13 0e 7f 5b 7f 56 10 48 f1 7c 77 c0 f2 fb 65
       69 19 14 127 91 127 86 16 72 -15 124 119 -64 -14 -5 101
000070 79 6f 3d 1a fc f9 56 40 0b 9a 29 76 60 6e 28 61
       121 111 61 26 -4 -7 86 64 11 -102 41 118 96 110 40 97
000080 ba 29 fd ae fe 7e 7f 20 1a e5 3b 5c d0 b5 8c 66
       -70 41 -3 -82 -2 126 127 32 26 -27 59 92 -48 -75 -116 102
000090 ba d5 fe 04 d7 81 e1 14 a2 21 16 3a ca ae 55 51
       -70 -43 -2 4 -41 -127 -31 20 -94 33 22 58 -54 -82 85 81
0000a0 a8 38 be c1 c4 61 45 c8 b1 3a b4 c7 94 5e 09 56
       -88 56 -66 -63 -60 97 69 -56 -79 58 -76 -57 -108 94 9 86
0000b0 81 3f 3d fb 1a 1d b0 9d 4e 09 cd f4 28 66 4e 2d
       -127 63 61 -5 26 29 -80 -99 78 9 -51 -12 40 102 78 45
0000c0 b0 1d 42 0c 7f fb bb 42 13 2a b7 20 7e a9 44 2c
       -80 29 66 12 127 -5 -69 66 19 42 -73 32 126 -87 68 44
0000d0 10 e6 eb a5 e8 7f 06 3f 64 5c 08 2a 8e 3d 55 99
       16 -26 -21 -91 -24 127 6 63 100 92 8 42 -114 61 85 -103
0000e0 db 51 fa 81 b7 a2 81 d2 f0 99 dc 02 79 6d ae 58
       -37 81 -6 -127 -73 -94 -127 -46 -16 -103 -36 2 121 109 -82 88
0000f0 0c 2c eb 33 22 f4 6e b8 ef 19 61 91 a1 7f 6c 47
       12 44 -21 51 34 -12 110 -72 -17 25 97 -111 -95 127 108 71

model_1/141/Conv2D i1 [24, 1, 1, 144]
000000 3c a5 64 da 23 02 2f 65 6c ac c2 f1 78 a1 76 15
       60 -91 100 -38 35 2 47 101 108 -84 -62 -15 120 -95 118 21
000010 c4 3c a4 25 69 9d 03 1b 35 05 7a 95 38 58 19 b2
       -60 60 -92 37 105 -99 3 27 53 5 122 -107 56 88 25 -78
000020 b8 3e 46 a6 64 da b2 d5 6a 3f 2a bf 48 0c b3 f5
       -72 62 70 -90 100 -38 -78 -43 106 63 42 -65 72 12 -77 -11
000030 a3 3a de a0 c4 8e ea 8c 34 26 eb da 5d 83 75 44
       -93 58 -34 -96 -60 -114 -22 -116 52 38 -21 -38 93 -125 117 68
000040 2b 79 10 49 bc 81 f4 62 b4 f8 06 88 7e 58 da af
       43 121 16 73 -68 -127 -12 98 -76 -8 6 -120 126 88 -38 -81
000050 a4 84 7e 4e 2b 62 72 7d 7b 48 48 71 92 d8 e0 49
       -92 -124 126 78 43 98 114 125 123 72 72 113 -110 -40 -32 73
000060 2e 5a d7 38 20 95 28 cc 17 9c c0 8d 77 79 b1 44
       46 90 -41 56 32 -107 40 -52 23 -100 -64 -115 119 121 -79 68
000070 6d 1a f2 0d 62 29 2b 9c ea 6b 23 38 25 41 b1 75
       109 26 -14 13 98 41 43 -100 -22 107 35 56 37 65 -79 117
000080 66 8f a6 ee f5 c9 71 ed b6 ea d0 ec 52 94 0f 10
       102 -113 -90 -18 -11 -55 113 -19 -74 -22 -48 -20 82 -108 15 16
000090 a7 5b 5d 99 78 c6 00 62 01 ef 45 a4 29 74 b7 fa
       -89 91 93 -103 120 -58 0 98 1 -17 69 -92 41 116 -73 -6
0000a0 55 d0 6c 1d ef 1d a7 13 40 10 a0 5e 5d 02 d4 ba
       85 -48 108 29 -17 29 -89 19 64 16 -96 94 93 2 -44 -70
0000b0 15 3d d4 4b 11 89 a0 81 a5 df b2 6c 54 de ae e6
       21 61 -44 75 17 -119 -96 -127 -91 -33 -78 108 84 -34 -82 -26
0000c0 a7 a7 f1 cb a7 92 b9 2a 50 e8 4e 27 ee 8e 72 ab
       -89 -89 -15 -53 -89 -110 -71 42 80 -24 78 39 -18 -114 114 -85
0000d0 9f ae 8d f8 c9 93 c6 07 64 08 66 a3 b0 d3 cd 46
       -97 -82 -115 -8 -55 -109 -58 7 100 8 102 -93 -80 -45 -51 70
0000e0 0a 8d 91 78 a7 8a c0 dd b2 d8 43 94 63 d6 51 6c
       10 -115 -111 120 -89 -118 -64 -35 -78 -40 67 -108 99 -42 81 108
0000f0 55 b7 71 65 ba 1c 0d 6c 25 e7 ef 5d 8b 2b 02 90
       85 -73 113 101 -70 28 13 108 37 -25 -17 93 -117 43 2 -112
