mbv2_r144.tflite (tflite, 965568 bytes, 53 tensors)

model_1/output_0/MatMul i1 [2, 1280] scale=0.00022007179 zero_point=0
0.004841579 -0.004841579 -0.025528327 0.011883876 0.010123302 0.022667393 -0.023107538 -0.0006602154
-0.0044014356 0.026408615 -0.018926173 0.01606524 -0.005941938 -0.010123302 -0.003081005 -0.0026408616
-0.016285311 -0.0063820817 -0.001980646 0.018265959 0.024207896 -0.027949117 0.013864523 -0.010343374
-0.011003589 -0.0171656 0.01848603 0.007922584 -0.007922584 0.0017605743 0.022887466 0.0272889
0.015184953 0.005061651 -0.027949117 -0.007262369 -0.0006602154 -0.025308255 -0.0046215076 0.011443733
0.016285311 -0.01606524 -0.009683158 0.005281723 0.027508974 0.010783518 0.027508974 -0.0006602154
0.015405025 0.010123302 0.015845168 -0.02222725 0.021567035 -0.013424379 0.009022944 -0.01738567
-0.016285311 0.012764163 0.016725456 -0.024427969 0.01848603 0.008142656 -0.0077025127 -0.026848758
-0.0006602154 -0.025748398 -0.014304666 -0.010563446 -0.010783518 0.0022007178 -0.0037412203 -0.0006602154
-0.023107538 0.0035211486 0.0011003589 -0.025088184 -0.020026533 -0.0024207896 0.014964881 0.01848603
-0.009243015 -0.016725456 0.019146245 -0.023107538 0.019366316 -0.025968472 0.0063820817 -0.004841579
-0.00022007179 -0.0033010768 0.025308255 0.01232402 0.0272889 0.024207896 -0.027729046 -0.00088028715
-0.01848603 0.009903231 0.005941938 -0.017605742 0.0066021536 0.003961292 -0.021567035 -0.0037412203
-0.009683158 -0.005061651 0.023987824 -0.022887466 -0.008362728 -0.01738567 0.025968472 0.0011003589
0.011663805 -0.02464804 0.008362728 -0.024868112 0.009022944 0.021126892 0.005941938 0.0037412203
0.016725456 0.01606524 0.008142656 0.013424379 -0.021567035 -0.0037412203 -0.00044014357 0.012544092
0.0028609333 -0.0055017946 -0.01364445 -0.012544092 0.014084594 -0.010123302 0.019806461 0.0033010768
-0.0035211486 0.011663805 -0.0033010768 -0.013864523 -0.020466676 -0.01364445 0.025968472 -0.0057218666
-0.015625097 -0.01848603 0.011223661 0.0011003589 0.020466676 -0.003081005 -0.014084594 -0.007922584
0.026408615 -0.026628686 -0.0017605743 0.025748398 -0.0017605743 -0.01958639 -0.020466676 0.018706102
-0.011663805 -0.016725456 -0.0046215076 0.0063820817 0.024427969 -0.010123302 -0.013204307 -0.010563446
0.020026533 -0.001980646 -0.010783518 -0.007042297 0.0074824407 -0.009683158 0.020026533 -0.01606524
0.005941938 -0.01958639 -0.005941938 -0.021126892 -0.014304666 0.014084594 0.011663805 -0.021126892
0.019806461 0.022007179 0.007922584 0.0171656 -0.024207896 0.027729046 -0.009683158 -0.026408615
0.024868112 0.010563446 0.015184953 0.008362728 0.021346964 0.01958639 0.023547681 0.0026408616
-0.008362728 0.0066021536 -0.026408615 0.020466676 0.01232402 0.00044014357 -0.0026408616 -0.0015405025
0.023987824 -0.017605742 0.01606524 0.025968472 0.020686748 0.021346964 0.0028609333 0.009903231
0.019146245 0.007262369 0.020686748 -0.01364445 -0.02332761 0.016285311 -0.021346964 -0.012764163
-0.004841579 -0.007042297 -0.02222725 -0.01474481 -0.021787107 -0.008142656 -0.009903231 0.0033010768
-0.009243015 0.007922584 0.022887466 0.02464804 -0.012764163 0.025968472 -0.0013204308 -0.024207896
-0.02222725 -0.011883876 -0.0013204308 -0.010563446 0.0015405025 0.0006602154 -0.010123302 0.026408615
-0.02222725 -0.016505385 0.005281723 0.014524738 0.016725456 0.0 0.0077025127 0.02464804
00000000: 16ea 8c36 2e67 97fd ec78 aa49 e5d2 f2f4
00000010: b6e3 f753 6e81 3fd1 ceb2 5424 dc08 687c
00000020: 4517 81df fd8d eb34 4ab7 d418 7d31 7dfd
00000030: 462e 489b 62c3 29b1 b63a 4c91 5425 dd86
00000040: fd8b bfd0 cf0a effd 9710 058e a5f5 4454
00000050: d6b4 5797 588a 1dea fff1 7338 7c6e 82fc
00000060: ac2d 1bb0 1e12 9eef d4e9 6d98 dab1 7605
00000070: 3590 268f 2960 1b11 4c49 253d 9eef fe39
00000080: 0de7 c2c7 40d2 5a0f f035 f1c1 a3c2 76e6
00000090: b9ac 3305 5df2 c0dc 7887 f875 f8a7 a355
000000a0: cbb4 eb1d 6fd2 c4d0 5bf7 cfe0 22d4 5bb7
000000b0: 1ba7 e5a0 bf40 35a0 5a64 244e 927e d488
000000c0: 7130 4526 6159 6b0c da1e 885d 3802 f4f9
000000d0: 6db0 4976 5e61 0d2d 5721 5ec2 964a 9fc6
000000e0: eae0 9bbd 9ddb d30f d624 6870 c676 fa92
000000f0: 9bca fad0 0703 d278 9bb5 1842 4c00 2370

model_1/168/Conv2D i1 [1280, 1, 1, 160]
44 -110 -4 25 -27 -117 -4 -62
-30 -93 -85 -25 -107 -19 28 71
107 34 -102 53 104 2 -91 -51
-96 42 -113 -79 -73 -57 -46 11
-32 -69 41 4 -99 117 -38 -49
-7 -77 106 94 95 -30 -68 63
125 -117 -106 -123 13 -125 -68 -36
67 13 -103 2 -125 -94 -18 117
101 -127 42 124 -62 111 16 -27
11 -71 -81 30 -78 32 -27 46
-3 100 123 -86 -19 11 -57 95
42 92 30 -35 68 114 16 5
-73 -46 14 86 -26 -17 -102 43
35 111 -24 -5 4 -75 76 116
65 -98 -31 32 5 -96 96 -113
-65 -80 116 -81 -121 -18 75 36
-101 113 47 28 -91 -93 84 -111
108 19 -123 -109 -98 -14 36 -78
-93 -88 72 5 68 100 -114 -28
-103 9 -88 16 80 -66 -5 -61
37 -98 -16 97 26 78 -88 -75
-116 -110 2 110 -125 78 -13 57
63 -54 111 -34 91 -113 0 -106
19 -100 126 -89 -72 -31 -42 120
91 93 28 -89 116 -85 -112 -55
38 40 -86 -120 -97 103 -116 30
-14 -74 120 -91 82 46 -8 -76
109 111 -44 -97 75 102 68 -114
-88 61 -54 103 39 -40 100 -71
-67 126 -126 74 72 25 -88 93
49 -20 120 30 -72 -29 107 86
38 5 -88 -117 107 -71 1 -45
00000000: 2c92 fc19 e58b fcc2 e2a3 abe7 95ed 1c47
00000010: 6b22 9a35 6802 a5cd a02a 8fb1 b7c7 d20b
00000020: e0bb 2904 9d75 dacf f9b3 6a5e 5fe2 bc3f
00000030: 7d8b 9685 0d83 bcdc 430d 9902 83a2 ee75
00000040: 6581 2a7c c26f 10e5 0bb9 af1e b220 e52e
00000050: fd64 7baa ed0b c75f 2a5c 1edd 4472 1005
00000060: b7d2 0e56 e6ef 9a2b 236f e8fb 04b5 4c74
00000070: 419e e120 05a0 608f bfb0 74af 87ee 4b24
00000080: 9b71 2f1c a5a3 5491 6c13 8593 9ef2 24b2
00000090: a3a8 4805 4464 8ee4 9909 a810 50be fbc3
000000a0: 259e f061 1a4e a8b5 8c92 026e 834e f339
000000b0: 3fca 6fde 5b8f 0096 139c 7ea7 b8e1 d678
000000c0: 5b5d 1ca7 74ab 90c9 2628 aa88 9f67 8c1e
000000d0: f2b6 78a5 522e f8b4 6d6f d49f 4b66 448e
000000e0: a83d ca67 27d8 64b9 bd7e 824a 4819 a85d
000000f0: 31ec 781e b8e3 6b56 2605 a88b 6bb9 01d3

model_1/167/Conv2D i1 [160, 1, 1, 480]
41 102 -53 48 -51 16 120 109
70 -118 50 49 -18 -49 -78 -78
14 46 15 115 37 68 82 12
43 118 42 92 -46 34 -101 -43
98 -21 -10 70 -81 -119 68 65
22 22 -56 -52 30 -113 -116 -70
4 29 60 66 -2 78 -102 42
-31 9 122 -42 -112 -63 78 37
-29 -119 52 60 -43 110 77 125
121 58 -6 -29 -56 -25 58 -10
118 120 104 117 119 -95 -57 -113
71 -95 118 -10 -70 -79 50 -12
-123 60 100 -117 58 -59 49 9
-5 -57 47 -96 117 108 92 101
124 -101 34 43 -28 -29 -47 98
101 -44 -97 -15 77 -92 -95 -37
75 84 62 71 -11 39 -119 -90
-43 -83 -43 35 91 -52 55 -54
116 -122 28 7 -14 68 -13 12
123 60 125 -63 -55 34 -18 -31
5 69 -124 -8 5 -46 80 80
-84 105 -47 6 -43 -108 87 -54
113 -84 86 6 47 2 -80 110
-72 42 -84 61 -63 107 -33 39
-114 -108 -15 64 -122 49 25 -84
-81 -18 121 -13 1 62 61 -42
-65 107 -118 105 -48 -113 -97 63
52 -124 96 -54 -124 45 106 22
112 57 -88 76 -17 10 95 -66
43 -14 53 -91 -112 87 126 -50
52 88 -19 -32 -51 -34 -20 -70
94 -54 -54 41 -17 -84 -2 42
00000000: 2966 cb30 cd10 786d 468a 3231 eecf b2b2
00000010: 0e2e 0f73 2544 520c 2b76 2a5c d222 9bd5
00000020: 62eb f646 af89 4441 1616 c8cc 1e8f 8cba
00000030: 041d 3c42 fe4e 9a2a e109 7ad6 90c1 4e25
00000040: e389 343c d56e 4d7d 793a fae3 c8e7 3af6
00000050: 7678 6875 77a1 c78f 47a1 76f6 bab1 32f4
00000060: 853c 648b 3ac5 3109 fbc7 2fa0 756c 5c65
00000070: 7c9b 222b e4e3 d162 65d4 9ff1 4da4 a1db
00000080: 4b54 3e47 f527 89a6 d5ad d523 5bcc 37ca
00000090: 7486 1c07 f244 f30c 7b3c 7dc1 c922 eee1
000000a0: 0545 84f8 05d2 5050 ac69 d106 d594 57ca
000000b0: 71ac 5606 2f02 b06e b82a ac3d c16b df27
000000c0: 8e94 f140 8631 19ac afee 79f3 013e 3dd6
000000d0: bf6b 8a69 d08f 9f3f 3484 60ca 842d 6a16
000000e0: 7039 a84c ef0a 5fbe 2bf2 35a5 9057 7ece
000000f0: 3458 ede0 cdde ecba 5eca ca29 efac fe2a

model_1/166/depthwise i1 [1, 3, 3, 480]
-126 21 127 -126 31 -47 -105 20
-127 -50 -126 -127 -52 -15 -124 44
-127 71 -117 72 -82 63 37 57
-73 25 -34 -67 -70 76 41 127
-34 9 -127 -127 102 -7 10 -87
-60 38 81 20 -72 77 127 127
-15 114 78 96 -83 -9 87 -6
-119 16 -49 -91 67 26 -51 79
-115 98 -116 127 20 72 -51 -127
-25 -127 -102 41 -127 127 1 121
-8 50 -67 127 30 -69 127 107
-19 -127 24 106 -97 -33 100 54
46 14 83 45 -39 -4 -16 -43
-69 -78 -12 -127 -107 23 -27 14
4 -106 -112 127 44 62 114 62
127 89 104 30 -8 38 -58 -113
-15 80 -62 -36 -113 5 -85 -59
101 64 66 80 127 102 -123 28
-76 96 -59 -35 99 71 50 -55
-52 120 -127 35 -67 -127 -127 106
83 29 92 125 122 75 -35 55
37 106 127 27 0 66 127 -8
56 105 -68 51 39 -13 127 -119
-100 4 -47 -51 127 127 27 -127
96 76 121 49 80 17 3 -86
-5 90 127 127 -11 -59 45 21
-67 74 27 -60 -87 -25 -40 -53
-53 127 -92 127 69 93 103 -4
-81 93 62 108 23 31 91 15
127 23 -72 124 127 -79 -126 23
0 -91 118 38 -126 -125 97 -14
75 80 49 79 127 84 11 41
00000000: 8215 7f82 1fd1 9714 81ce 8281 ccf1 842c
00000010: 8147 8b48 ae3f 2539 b719 debd ba4c 297f
00000020: de09 8181 66f9 0aa9 c426 5114 b84d 7f7f
00000030: f172 4e60 adf7 57fa 8910 cfa5 431a cd4f
00000040: 8d62 8c7f 1448 cd81 e781 9a29 817f 0179
00000050: f832 bd7f 1ebb 7f6b ed81 186a 9fdf 6436
00000060: 2e0e 532d d9fc f0d5 bbb2 f481 9517 e50e
00000070: 0496 907f 2c3e 723e 7f59 681e f826 c68f
00000080: f150 c2dc 8f05 abc5 6540 4250 7f66 851c
00000090: b460 c5dd 6347 32c9 cc78 8123 bd81 816a
000000a0: 531d 5c7d 7a4b dd37 256a 7f1b 0042 7ff8
000000b0: 3869 bc33 27f3 7f89 9c04 d1cd 7f7f 1b81
000000c0: 604c 7931 5011 03aa fb5a 7f7f f5c5 2d15
000000d0: bd4a 1bc4 a9e7 d8cb cb7f a47f 455d 67fc
000000e0: af5d 3e6c 171f 5b0f 7f17 b87c 7fb1 8217
000000f0: 00a5 7626 8283 61f2 4b50 314f 7f54 0b29

model_1/165/Conv2D i1 [480, 1, 1, 80]
-28 12 -51 77 -108 -58 18 -80
-121 118 -24 37 -11 83 -96 44
90 -85 58 64 -78 17 -103 35
104 105 -27 -20 -48 -65 -42 104
23 -16 -86 95 98 22 -82 29
-120 -7 -32 -52 -55 117 -10 14
-107 -78 16 109 -121 72 -11 -91
-80 48 73 -118 122 -16 -107 48
20 -127 87 -50 -59 82 -61 113
74 98 120 20 19 24 -78 -13
8 -47 90 126 -11 -4 -98 70
115 6 -96 -8 -65 22 -85 90
-108 112 108 127 -55 75 97 11
-22 114 -89 24 -123 44 -94 103
-10 -99 73 -94 -41 -118 46 104
68 -51 61 -83 -4 -11 -94 121
-98 97 -49 -110 70 15 -73 29
-80 94 -54 -97 -108 99 8 -46
-43 -87 -27 -112 86 -33 -38 106
-51 122 115 37 83 -47 -34 88
-52 -75 71 31 65 19 35 -112
-79 110 101 -68 48 53 6 77
-77 113 105 50 47 -62 50 -12
-127 -97 -21 -82 -119 -78 -96 -76
-6 11 120 -121 -121 18 -82 113
75 -36 98 70 -14 10 79 85
-10 -85 36 70 49 62 -6 9
78 9 26 -3 4 -70 121 120
-98 -80 -57 -86 54 -79 -53 -55
-16 -85 -117 24 82 -111 33 -75
-71 101 36 -57 120 -64 -2 104
-94 42 -85 -8 52 -31 104 -74
00000000: e40c cd4d 94c6 12b0 8776 e825 f553 a02c
00000010: 5aab 3a40 b211 9923 6869 e5ec d0bf d668
00000020: 17f0 aa5f 6216 ae1d 88f9 e0cc c975 f60e
00000030: 95b2 106d 8748 f5a5 b030 498a 7af0 9530
00000040: 1481 57ce c552 c371 4a62 7814 1318 b2f3
00000050: 08d1 5a7e f5fc 9e46 7306 a0f8 bf16 ab5a
00000060: 9470 6c7f c94b 610b ea72 a718 852c a267
00000070: f69d 49a2 d78a 2e68 44cd 3dad fcf5 a279
00000080: 9e61 cf92 460f b71d b05e ca9f 9463 08d2
00000090: d5a9 e590 56df da6a cd7a 7325 53d1 de58
000000a0: ccb5 471f 4113 2390 b16e 65bc 3035 064d
000000b0: b371 6932 2fc2 32f4 819f ebae 89b2 a0b4
000000c0: fa0b 7887 8712 ae71 4bdc 6246 f20a 4f55
000000d0: f6ab 2446 313e fa09 4e09 1afd 04ba 7978
000000e0: 9eb0 c7aa 36b1 cbc9 f0ab 8b18 5291 21b5
000000f0: b965 24c7 78c0 fe68 a22a abf8 34e1 68b6

model_1/163/Conv2D i1 [80, 1, 1, 480]
120 -76 42 -30 41 76 -3 54
62 119 -62 125 -23 -24 116 -124
53 -29 17 106 27 -3 100 76
-7 99 -36 -32 50 12 108 116
-80 6 -37 -58 -100 -19 -78 -8
44 -86 -104 -28 62 5 0 121
-120 6 19 110 121 -96 72 87
127 92 80 79 67 117 45 78
64 -19 -97 0 77 -87 108 77
-86 -16 42 -13 -15 4 16 -21
59 -47 56 -82 88 120 -67 -41
-41 -74 32 39 -8 -48 64 114
-39 -30 -77 -113 95 -3 -49 43
-59 85 -85 104 121 116 -79 47
72 26 -13 -61 60 127 99 -100
35 -55 123 -82 -28 34 79 -66
-11 69 18 120 -65 -26 116 -8
65 25 -52 90 -27 105 66 -18
-40 18 -15 112 110 -5 -41 116
-101 38 -125 -5 118 61 -22 -46
-54 -57 20 -59 108 103 -90 12
-108 -66 69 -21 107 81 -44 24
-68 38 -91 102 79 -113 -18 -30
-6 101 -95 -51 99 127 77 73
15 -24 -61 -34 0 -43 101 50
-36 23 25 -33 84 109 12 93
109 -5 -16 122 -85 116 3 -37
-55 79 -57 -44 -127 21 67 -70
4 -112 -86 14 125 -24 25 94
17 -51 -88 -70 -52 -16 -117 2
18 -113 -40 86 120 -112 -20 -99
67 -18 -49 -99 -102 -123 51 32
00000000: 78b4 2ae2 294c fd36 3e77 c27d e9e8 7484
00000010: 35e3 116a 1bfd 644c f963 dce0 320c 6c74
00000020: b006 dbc6 9ced b2f8 2caa 98e4 3e05 0079
00000030: 8806 136e 79a0 4857 7f5c 504f 4375 2d4e
00000040: 40ed 9f00 4da9 6c4d aaf0 2af3 f104 10eb
00000050: 3bd1 38ae 5878 bdd7 d7b6 2027 f8d0 4072
00000060: d9e2 b38f 5ffd cf2b c555 ab68 7974 b12f
00000070: 481a f3c3 3c7f 639c 23c9 7bae e422 4fbe
00000080: f545 1278 bfe6 74f8 4119 cc5a e569 42ee
00000090: d812 f170 6efb d774 9b26 83fb 763d ead2
000000a0: cac7 14c5 6c67 a60c 94be 45eb 6b51 d418
000000b0: bc26 a566 4f8f eee2 fa65 a1cd 637f 4d49
000000c0: 0fe8 c3de 00d5 6532 dc17 19df 546d 0c5d
000000d0: 6dfb f07a ab74 03db c94f c7d4 8115 43ba
000000e0: 0490 aa0e 7de8 195e 11cd a8ba ccf0 8b02
000000f0: 128f d856 7890 ec9d 43ee cf9d 9a85 3320

model_1/162/depthwise i1 [1, 3, 3, 480]
-51 -103 -2 -60 -71 127 98 -95
18 52 -102 -127 60 127 127 -94
2 127 64 -25 60 -30 10 127
2 124 -3 -127 18 -96 98 118
-67 -67 -20 -102 -22 -127 -58 122
-127 122 -45 113 -27 80 -52 101
-127 127 -16 17 -4 54 -127 107
-80 -107 91 7 120 -90 31 -98
127 -98 -77 -11 -117 -102 -12 -89
-79 30 -68 -89 -77 86 42 118
-127 -127 19 18 55 38 33 -105
-125 4 55 -38 -1 -36 -37 109
-111 65 17 -82 -127 -71 119 107
100 -80 -64 22 104 -81 -5 -5
-60 81 32 -69 67 -25 -68 43
55 -22 -127 -113 68 -35 -8 5
-107 -117 4 7 -58 -17 107 -41
-11 81 -106 127 11 127 -6 -63
-104 122 20 -72 86 40 94 22
-34 -44 -24 82 -125 16 43 -3
-112 53 70 23 36 23 -23 7
-64 74 -58 -63 11 93 60 96
29 -121 3 108 -81 -127 -127 103
-35 -83 53 -73 32 -39 -62 118
-39 -127 -16 -37 30 13 -62 -66
-11 -52 127 -81 -60 -10 -30 109
94 -110 3 98 -110 -38 -52 -15
15 -127 -18 -110 99 -90 41 57
30 89 -119 -53 -12 116 2 22
38 37 106 72 -22 -81 88 127
8 -75 127 -43 -115 116 -97 103
127 68 -30 127 -2 74 127 -8
00000000: cd99 fec4 b97f 62a1 1234 9a81 3c7f 7fa2
00000010: 027f 40e7 3ce2 0a7f 027c fd81 12a0 6276
00000020: bdbd ec9a ea81 c67a 817a d371 e550 cc65
00000030: 817f f011 fc36 816b b095 5b07 78a6 1f9e
00000040: 7f9e b3f5 8b9a f4a7 b11e bca7 b356 2a76
00000050: 8181 1312 3726 2197 8304 37da ffdc db6d
00000060: 9141 11ae 81b9 776b 64b0 c016 68af fbfb
00000070: c451 20bb 43e7 bc2b 37ea 818f 44dd f805
00000080: 958b 0407 c6ef 6bd7 f551 967f 0b7f fac1
00000090: 987a 14b8 5628 5e16 ded4 e852 8310 2bfd
000000a0: 9035 4617 2417 e907 c04a c6c1 0b5d 3c60
000000b0: 1d87 036c af81 8167 ddad 35b7 20d9 c276
000000c0: d981 f0db 1e0d c2be f5cc 7faf c4f6 e26d
000000d0: 5e92 0362 92da ccf1 0f81 ee92 63a6 2939
000000e0: 1e59 89cb f474 0216 2625 6a48 eaaf 587f
000000f0: 08b5 7fd5 8d74 9f67 7f44 e27f fe4a 7ff8

model_1/161/Conv2D i1 [480, 1, 1, 80]
-37 -16 -13 -25 -72 -51 50 3
101 98 80 -46 46 31 26 9
46 92 -117 -113 -18 59 -9 -52
110 -112 36 35 -34 -108 -50 48
107 -83 122 -103 28 -121 -48 67
-104 -2 -66 95 -40 114 -101 86
-127 -112 81 6 -93 74 -78 2
76 -85 41 90 -77 54 -51 -108
16 -51 38 119 0 -71 -53 -45
-58 96 -76 -40 38 -78 59 -100
-92 -112 -42 66 44 -19 111 39
52 32 -66 -99 35 -6 57 103
-48 18 -16 -80 26 19 -111 -41
36 -100 53 62 105 -24 62 73
75 110 52 -127 88 -110 105 109
-83 -28 -23 91 93 124 -37 -34
-91 38 -124 -95 -17 -70 35 7
120 -12 -21 -94 -51 -15 -62 -94
80 117 -4 49 92 107 113 90
-118 -60 1 23 93 -18 116 31
58 -83 7 -116 -39 1 -89 2
122 33 104 57 82 57 -2 124
70 61 36 74 72 112 126 122
-127 101 91 32 56 -71 -10 -67
-30 -82 29 64 42 -7 -113 123
-51 -100 127 84 -71 -123 5 95
66 -114 120 -115 -1 3 -95 -103
87 7 -95 104 -97 -7 -96 -35
34 97 98 52 -39 52 62 -115
2 122 52 -4 98 93 -115 126
-49 -111 -111 14 -95 79 -19 73
106 -72 52 -11 -81 -95 93 93
00000000: dbf0 f3e7 b8cd 3203 6562 50d2 2e1f 1a09
00000010: 2e5c 8b8f ee3b f7cc 6e90 2423 de94 ce30
00000020: 6bad 7a99 1c87 d043 98fe be5f d872 9b56
00000030: 8190 5106 a34a b202 4cab 295a b336 cd94
00000040: 10cd 2677 00b9 cbd3 c660 b4d8 26b2 3b9c
00000050: a490 d642 2ced 6f27 3420 be9d 23fa 3967
00000060: d012 f0b0 1a13 91d7 249c 353e 69e8 3e49
00000070: 4b6e 3481 5892 696d ade4 e95b 5d7c dbde
00000080: a526 84a1 efba 2307 78f4 eba2 cdf1 c2a2
00000090: 5075 fc31 5c6b 715a 8ac4 0117 5dee 741f
000000a0: 3aad 078c d901 a702 7a21 6839 5239 fe7c
000000b0: 463d 244a 4870 7e7a 8165 5b20 38b9 f6bd
000000c0: e2ae 1d40 2af9 8f7b cd9c 7f54 b985 055f
000000d0: 428e 788d ff03 a199 5707 a168 9ff9 a0dd
000000e0: 2261 6234 d934 3e8d 027a 34fc 625d 8d7e
000000f0: cf91 910e a14f ed49 6ab8 34f5 afa1 5d5d

model_1/159/Conv2D i1 [80, 1, 1, 480]
23 -108 69 -98 125 61 63 87
-84 50 33 -97 52 32 -106 -53
-60 -55 -72 28 113 118 -63 112
-21 -47 86 -71 42 46 23 79
37 71 118 98 -121 56 -24 -114
35 71 -67 -100 1 87 114 -43
-106 55 -33 118 -5 -110 91 -114
34 60 -121 -86 123 76 -103 -122
55 39 -31 41 64 -59 -107 -58
-23 94 45 -59 -22 46 12 -43
89 -19 67 5 -124 29 80 -85
-47 -93 -83 110 -98 43 105 -126
-84 120 -56 77 -70 32 -7 -55
-75 -110 87 -12 47 -13 34 76
-60 -3 -48 -11 -25 76 33 -83
65 -61 -39 -2 111 -34 50 4
51 107 -75 -86 -33 104 36 80
61 -89 125 19 37 26 91 88
-109 57 -1 -9 -53 -34 -11 40
122 -82 95 11 83 123 -51 42
-25 88 72 -58 53 -58 -84 38
13 -30 114 -95 -119 -73 118 9
122 -67 119 -99 23 27 66 91
8 -55 127 61 50 -109 7 -21
-47 3 94 54 86 4 -117 34
-62 -121 -21 119 18 -104 117 63
-93 -119 32 82 59 -41 121 108
68 57 -72 69 -97 -57 125 84
3 54 123 28 98 -36 -103 -13
57 83 100 80 -41 113 -26 -116
62 -112 -13 119 56 107 119 88
76 46 43 -43 -119 -105 127 114
00000000: 1794 459e 7d3d 3f57 ac32 219f 3420 96cb
00000010: c4c9 b81c 7176 c170 ebd1 56b9 2a2e 174f
00000020: 2547 7662 8738 e88e 2347 bd9c 0157 72d5
00000030: 9637 df76 fb92 5b8e 223c 87aa 7b4c 9986
00000040: 3727 e129 40c5 95c6 e95e 2dc5 ea2e 0cd5
00000050: 59ed 4305 841d 50ab d1a3 ad6e 9e2b 6982
00000060: ac78 c84d ba20 f9c9 b592 57f4 2ff3 224c
00000070: c4fd d0f5 e74c 21ad 41c3 d9fe 6fde 3204
00000080: 336b b5aa df68 2450 3da7 7d13 251a 5b58
00000090: 9339 fff7 cbde f528 7aae 5f0b 537b cd2a
000000a0: e758 48c6 35c6 ac26 0de2 72a1 89b7 7609
000000b0: 7abd 779d 171b 425b 08c9 7f3d 3293 07eb
000000c0: d103 5e36 5604 8b22 c287 eb77 1298 753f
000000d0: a389 2052 3bd7 796c 4439 b845 9fc7 7d54
000000e0: 0336 7b1c 62dc 99f3 3953 6450 d771 e68c
000000f0: 3e90 f377 386b 7758 4c2e 2bd5 8997 7f72

model_1/158/depthwise i1 [1, 3, 3, 480]
58 86 117 -60 -65 96 117 -93
-99 -127 -63 75 57 -43 47 88
91 -22 111 -97 39 -69 -65 127
-127 58 -76 119 12 107 -86 -100
-60 101 -4 5 55 -127 6 -127
-78 63 48 89 -49 -104 -40 -118
10 89 -127 114 -100 71 56 111
-82 -49 122 -91 72 -40 62 125
-127 127 -29 -31 -29 58 2 -20
45 14 108 -12 77 2 39 2
62 81 8 -82 -127 -127 23 127
-69 73 -6 -33 -54 -14 -124 73
-11 -28 -113 16 84 79 110 47
21 38 73 98 -93 -20 -127 -43
-79 -76 9 18 127 49 74 70
-48 -21 88 96 21 66 99 16
-119 46 -56 -76 15 -37 20 -39
-25 1 32 65 -48 66 -94 127
76 108 127 -32 53 3 -127 127
98 34 -93 -79 -127 30 127 -74
-96 124 127 -64 109 127 113 -127
43 -124 -96 -98 107 28 -66 8
-26 67 -127 61 71 -45 -71 -31
30 59 -41 19 -75 127 30 121
16 23 3 92 -48 25 -102 -87
71 43 104 -77 79 -32 -127 81
98 49 78 -127 59 -101 109 9
-21 37 -127 -16 -44 -66 -11 40
27 -102 -4 -50 -86 -94 21 127
-100 69 3 -116 -127 -70 -42 103
103 -73 45 -15 26 -68 103 -103
-113 -121 -46 15 66 10 -63 39
00000000: 3a56 75c4 bf60 75a3 9d81 c14b 39d5 2f58
00000010: 5bea 6f9f 27bb bf7f 813a b477 0c6b aa9c
00000020: c465 fc05 3781 0681 b23f 3059 cf98 d88a
00000030: 0a59 8172 9c47 386f aecf 7aa5 48d8 3e7d
00000040: 817f e3e1 e33a 02ec 2d0e 6cf4 4d02 2702
00000050: 3e51 08ae 8181 177f bb49 fadf caf2 8449
00000060: f5e4 8f10 544f 6e2f 1526 4962 a3ec 81d5
00000070: b1b4 0912 7f31 4a46 d0eb 5860 1542 6310
00000080: 892e c8b4 0fdb 14d9 e701 2041 d042 a27f
00000090: 4c6c 7fe0 3503 817f 6222 a3b1 811e 7fb6
000000a0: a07c 7fc0 6d7f 7181 2b84 a09e 6b1c be08
000000b0: e643 813d 47d3 b9e1 1e3b d713 b57f 1e79
000000c0: 1017 035c d019 9aa9 472b 68b3 4fe0 8151
000000d0: 6231 4e81 3b9b 6d09 eb25 81f0 d4be f528
000000e0: 1b9a fcce aaa2 157f 9c45 038c 81ba d667
000000f0: 67b7 2df1 1abc 6799 8f87 d20f 420a c127

model_1/157/Conv2D i1 [480, 1, 1, 80]
-64 53 -7 118 57 -100 120 47
-13 41 54 -80 -52 -94 96 126
69 -64 -119 -115 -48 -116 118 113
-66 -119 -46 -60 72 -63 -123 -39
108 -12 12 -122 -48 -30 87 121
48 8 -19 2 17 -97 -58 69
-15 122 -108 -127 37 -32 37 84
67 -58 -124 54 -67 126 -39 94
-19 -7 115 -63 58 -28 116 5
-80 34 -108 -46 -121 102 -59 -103
106 118 44 49 -44 -55 -102 -113
-103 -72 19 76 -69 64 61 -95
-64 106 -122 -111 -36 10 -104 -30
55 121 119 -36 117 83 44 74
51 63 65 -109 0 -28 -36 -96
65 35 -66 76 -45 -92 51 24
-39 117 93 -114 58 109 32 -37
124 109 -71 34 -121 -5 -34 111
72 -104 40 45 -25 127 70 55
-56 118 51 38 -14 -100 -93 112
-55 54 1 -65 125 105 -90 -124
65 100 -46 -82 -73 -13 94 53
-38 -12 28 -127 -10 17 -28 113
-86 54 -114 43 -87 -105 58 -1
-76 116 -72 -3 -104 14 -103 -72
-3 -106 107 -76 -94 -94 -96 -79
14 -32 70 -80 -37 -88 -43 3
-54 -109 110 94 31 -95 26 107
73 -31 11 -103 -111 38 -25 -65
-46 -49 0 -74 -67 114 -123 39
-31 -22 -73 -16 -127 -8 -88 -115
-78 56 -27 -71 -1 93 -47 -108
00000000: c035 f976 399c 782f f329 36b0 cca2 607e
00000010: 45c0 898d d08c 7671 be89 d2c4 48c1 85d9
00000020: 6cf4 0c86 d0e2 5779 3008 ed02 119f c645
00000030: f17a 9481 25e0 2554 43c6 8436 bd7e d95e
00000040: edf9 73c1 3ae4 7405 b022 94d2 8766 c599
00000050: 6a76 2c31 d4c9 9a8f 99b8 134c bb40 3da1
00000060: c06a 8691 dc0a 98e2 3779 77dc 7553 2c4a
00000070: 333f 4193 00e4 dca0 4123 be4c d3a4 3318
00000080: d975 5d8e 3a6d 20db 7c6d b922 87fb de6f
00000090: 4898 282d e77f 4637 c876 3326 f29c a370
000000a0: c936 01bf 7d69 a684 4164 d2ae b7f3 5e35
000000b0: daf4 1c81 f611 e471 aa36 8e2b a997 3aff
000000c0: b474 b8fd 980e 99b8 fd96 6bb4 a2a2 a0b1
000000d0: 0ee0 46b0 dba8 d503 ca93 6e5e 1fa1 1a6b
000000e0: 49e1 0b99 9126 e7bf d2cf 00b6 bd72 8527
000000f0: e1ea b7f0 81f8 a88d b238 e5b9 ff5d d194

model_1/156/Conv2D i1 [80, 1, 1, 288]
71 81 -107 -90 -12 104 -96 -78
-123 -2 120 -114 -103 52 38 -47
-105 -72 102 -46 83 34 71 -56
11 -56 21 -16 -1 51 -109 43
74 -95 106 54 -110 -101 -74 -8
-43 -98 -9 37 -37 -80 -81 -29
85 50 -77 -39 -109 -55 47 27
57 101 35 -16 51 76 48 -40
120 64 -107 11 -106 38 31 48
5 -123 -13 32 69 46 94 -52
-28 -115 42 -99 12 60 93 106
47 -26 -113 -5 108 -67 -43 -43
42 25 -34 -42 49 -79 112 55
-70 -84 -102 -71 -20 39 86 120
-32 -41 -63 -84 90 23 -28 -11
21 57 73 33 23 107 -64 35
119 110 60 -88 -91 97 -38 -55
84 -58 98 -102 -7 118 11 99
-10 114 -83 -62 -97 -60 80 -88
26 82 -125 -84 36 -84 -11 -58
45 22 83 83 -5 91 -69 -22
81 43 -62 -61 -112 -97 -41 -40
87 -103 -97 44 100 -31 -7 -49
100 -2 -63 -98 57 115 -38 -24
-102 18 12 -60 -10 -96 -28 -38
89 99 13 -112 -35 6 3 55
-101 -36 29 37 43 -61 -56 28
77 -93 -95 -127 -38 92 32 99
-8 121 -71 22 31 60 -56 114
0 88 21 -31 -31 -44 75 -112
-36 56 -72 82 27 -26 54 -29
127 -127 -95 -14 107 -113 -45 -74
00000000: 4751 95a6 f468 a0b2 85fe 788e 9934 26d1
00000010: 97b8 66d2 5322 47c8 0bc8 15f0 ff33 932b
00000020: 4aa1 6a36 929b b6f8 d59e f725 dbb0 afe3
00000030: 5532 b3d9 93c9 2f1b 3965 23f0 334c 30d8
00000040: 7840 950b 9626 1f30 0585 f320 452e 5ecc
00000050: e48d 2a9d 0c3c 5d6a 2fe6 8ffb 6cbd d5d5
00000060: 2a19 ded6 31b1 7037 baac 9ab9 ec27 5678
00000070: e0d7 c1ac 5a17 e4f5 1539 4921 176b c023
00000080: 776e 3ca8 a561 dac9 54c6 629a f976 0b63
00000090: f672 adc2 9fc4 50a8 1a52 83ac 24ac f5c6
000000a0: 2d16 5353 fb5b bbea 512b c2c3 909f d7d8
000000b0: 5799 9f2c 64e1 f9cf 64fe c19e 3973 dae8
000000c0: 9a12 0cc4 f6a0 e4da 5963 0d90 dd06 0337
000000d0: 9bdc 1d25 2bc3 c81c 4da3 a181 da5c 2063
000000e0: f879 b916 1f3c c872 0058 15e1 e1d4 4b90
000000f0: dc38 b852 1be6 36e3 7f81 a1f2 6b8f d3b6

model_1/155/depthwise i1 [1, 3, 3, 288]
-121 -46 -100 -124 -127 -62 87 25
57 -104 -96 22 -77 -94 -86 -58
0 -74 98 95 -76 89 -44 28
39 101 -102 -8 -16 127 50 127
127 84 -52 42 -24 41 -60 91
127 -71 -127 -122 -102 -104 -45 -62
-68 -30 127 -4 -127 89 44 59
77 -45 -44 29 -65 34 -25 99
-21 92 -127 -110 -29 -120 -87 -22
102 -2 104 -61 -121 127 70 57
-112 -55 127 -127 91 -26 -60 -11
93 -45 81 55 -32 52 -36 71
73 24 -11 57 111 -102 57 -32
76 67 83 -95 67 -62 -12 35
89 127 24 50 -67 -5 -93 -21
127 -36 3 126 10 43 -82 -127
-127 97 40 -127 -21 -68 41 24
-39 -35 84 41 54 88 118 100
110 93 -84 124 -36 79 -97 125
113 -82 127 66 20 -92 44 -127
97 -35 90 -114 104 -84 -36 -73
-110 -98 125 -21 -98 25 46 -8
-19 -33 12 -87 127 -71 66 -104
127 -19 -46 -30 -88 114 104 48
9 0 -4 -60 65 12 99 1
-31 11 68 -10 13 32 38 -62
-16 -15 -6 -1 102 -60 86 77
-5 91 -127 127 -105 127 -90 -75
-20 -119 10 -35 -47 87 63 47
-66 80 -119 5 -102 19 24 0
-127 103 94 -48 126 -68 115 -58
-41 105 96 -5 -23 127 -70 -127
00000000: 87d2 9c84 81c2 5719 3998 a016 b3a2 aac6
00000010: 00b6 625f b459 d41c 2765 9af8 f07f 327f
00000020: 7f54 cc2a e829 c45b 7fb9 8186 9a98 d3c2
00000030: bce2 7ffc 8159 2c3b 4dd3 d41d bf22 e763
00000040: eb5c 8192 e388 a9ea 66fe 68c3 877f 4639
00000050: 90c9 7f81 5be6 c4f5 5dd3 5137 e034 dc47
00000060: 4918 f539 6f9a 39e0 4c43 53a1 43c2 f423
00000070: 597f 1832 bdfb a3eb 7fdc 037e 0a2b ae81
00000080: 8161 2881 ebbc 2918 d9dd 5429 3658 7664
00000090: 6e5d ac7c dc4f 9f7d 71ae 7f42 14a4 2c81
000000a0: 61dd 5a8e 68ac dcb7 929e 7deb 9e19 2ef8
000000b0: eddf 0ca9 7fb9 4298 7fed d2e2 a872 6830
000000c0: 0900 fcc4 410c 6301 e10b 44f6 0d20 26c2
000000d0: f0f1 faff 66c4 564d fb5b 817f 977f a6b5
000000e0: ec89 0add d157 3f2f be50 8905 9a13 1800
000000f0: 8167 5ed0 7ebc 73c6 d769 60fb e97f ba81

model_1/154/Conv2D i1 [288, 1, 1, 48]
13 -51 -121 40 -50 23 66 -8
-45 58 -57 -120 -74 24 66 18
94 68 -117 -127 49 -96 67 -62
-85 -81 39 -71 -24 42 115 4
30 -38 -8 10 -104 -121 -101 96
32 -41 85 -10 -11 -30 112 62
-26 -5 -22 84 -44 -114 -14 -21
92 -77 -6 95 72 33 127 14
92 -30 116 -54 26 -15 123 112
-10 4 -67 54 113 89 -108 5
-58 73 61 -16 -9 -83 109 49
-23 56 -53 20 70 36 -31 116
-81 -7 -108 105 41 -1 -2 100
54 60 26 -126 28 88 105 -45
-24 77 -12 -50 2 6 -104 90
127 47 2 110 -5 -75 -20 105
-127 8 -55 17 -125 -81 -115 -126
-116 76 -6 -65 -117 -11 -16 20
-28 -5 -8 -62 87 -63 47 -93
-85 45 38 -20 -98 33 25 63
79 71 -9 99 2 -53 13 109
62 -90 92 -127 -59 73 101 98
47 -123 -115 -52 93 119 -120 -80
-54 -125 -47 -86 112 -118 -53 83
127 4 59 9 72 -125 -63 -6
19 88 124 81 -36 -107 73 74
-92 -9 -106 32 99 -10 85 -120
85 -70 -15 31 -14 -71 -46 14
5 -84 54 -33 61 -101 -88 -61
-60 -69 -47 -106 -90 -39 65 122
8 -81 72 -65 -66 -125 -104 89
-101 62 9 11 92 119 50 63
00000000: 0dcd 8728 ce17 42f8 d33a c788 b618 4212
00000010: 5e44 8b81 31a0 43c2 abaf 27b9 e82a 7304
00000020: 1eda f80a 9887 9b60 20d7 55f6 f5e2 703e
00000030: e6fb ea54 d48e f2eb 5cb3 fa5f 4821 7f0e
00000040: 5ce2 74ca 1af1 7b70 f604 bd36 7159 9405
00000050: c649 3df0 f7ad 6d31 e938 cb14 4624 e174
00000060: aff9 9469 29ff fe64 363c 1a82 1c58 69d3
00000070: e84d f4ce 0206 985a 7f2f 026e fbb5 ec69
00000080: 8108 c911 83af 8d82 8c4c fabf 8bf5 f014
00000090: e4fb f8c2 57c1 2fa3 ab2d 26ec 9e21 193f
000000a0: 4f47 f763 02cb 0d6d 3ea6 5c81 c549 6562
000000b0: 2f85 8dcc 5d77 88b0 ca83 d1aa 708a cb53
000000c0: 7f04 3b09 4883 c1fa 1358 7c51 dc95 494a
000000d0: a4f7 9620 63f6 5588 55ba f11f f2b9 d20e
000000e0: 05ac 36df 3d9b a8c3 c4bb d196 a6d9 417a
000000f0: 08af 48bf be83 9859 9b3e 090b 5c77 323f

model_1/152/Conv2D i1 [48, 1, 1, 288]
-44 -69 26 78 102 0 -12 -4
-97 40 98 -63 -11 62 107 100
18 22 87 -9 5 12 -68 -121
103 47 -114 -52 -108 -80 127 -58
2 -54 35 -77 -13 95 -125 31
-95 -85 -55 28 -10 66 -104 -83
47 -98 -24 65 77 -78 28 -115
-31 -34 -57 -117 105 -3 -72 -5
-117 25 106 -10 -88 -44 6 40
-1 -98 115 -67 -1 104 -120 60
-87 116 -13 -20 -70 -82 101 -119
-77 -86 97 37 44 43 -76 103
53 25 -104 92 101 -73 -79 -55
16 -20 34 1 -38 -30 47 54
-118 108 -70 -86 -15 4 15 71
41 51 -2 98 51 109 87 9
19 98 -24 -59 -57 92 60 -59
18 -11 49 61 -21 95 89 112
-6 4 -44 79 32 23 1 126
81 -34 74 -23 -111 0 39 -30
58 -39 20 -26 -78 -8 0 59
47 9 -89 -102 -12 -88 -90 14
-50 127 -22 -61 100 -117 -82 -69
36 82 107 -25 65 -31 -66 -18
83 -36 -53 -118 -121 -87 -82 -52
13 -118 -123 70 48 -123 -43 11
18 -43 111 103 -98 -54 -101 78
31 -44 14 1 36 -36 -114 -75
116 81 49 -115 -80 19 27 -116
-77 -93 109 51 -111 -59 19 95
62 -88 -114 -63 -26 103 -90 83
122 -62 60 -64 125 -56 -25 82
00000000: d4bb 1a4e 6600 f4fc 9f28 62c1 f53e 6b64
00000010: 1216 57f7 050c bc87 672f 8ecc 94b0 7fc6
00000020: 02ca 23b3 f35f 831f a1ab c91c f642 98ad
00000030: 2f9e e841 4db2 1c8d e1de c78b 69fd b8fb
00000040: 8b19 6af6 a8d4 0628 ff9e 73bd ff68 883c
00000050: a974 f3ec baae 6589 b3aa 6125 2c2b b467
00000060: 3519 985c 65b7 b1c9 10ec 2201 dae2 2f36
00000070: 8a6c baaa f104 0f47 2933 fe62 336d 5709
00000080: 1362 e8c5 c75c 3cc5 12f5 313d eb5f 5970
00000090: fa04 d44f 2017 017e 51de 4ae9 9100 27e2
000000a0: 3ad9 14e6 b2f8 003b 2f09 a79a f4a8 a60e
000000b0: ce7f eac3 648b aebb 2452 6be7 41e1 beee
000000c0: 53dc cb8a 87a9 aecc 0d8a 8546 3085 d50b
000000d0: 12d5 6f67 9eca 9b4e 1fd4 0e01 24dc 8eb5
000000e0: 7451 318d b013 1b8c b3a3 6d33 91c5 135f
000000f0: 3ea8 8ec1 e667 a653 7ac2 3cc0 7dc8 e752

model_1/151/depthwise i1 [1, 3, 3, 288]
2 -18 -58 -64 -127 83 -78 -106
-2 94 -127 -43 127 -44 -22 -21
-54 -127 48 121 48 66 -127 127
-92 -117 60 -127 -6 127 120 -121
121 -37 3 37 -118 -83 -127 91
25 35 35 -95 -32 111 89 43
29 -121 -26 -118 -72 127 81 -123
49 35 105 -90 -113 -113 -4 127
57 -70 -74 -76 36 -106 22 -32
0 -37 92 7 65 82 86 -42
64 88 10 64 89 -120 -37 -21
45 -25 0 0 -70 -119 64 -116
-65 -36 -57 28 -89 12 -71 64
-95 83 -127 -45 -11 -124 37 -127
103 -127 -77 -7 -53 34 -85 -69
127 -97 -81 -127 116 -63 -52 -94
127 111 74 -114 -38 -81 -10 -18
-83 -14 -116 21 -110 -61 -37 -43
-84 52 -127 127 108 127 -127 -94
99 98 -70 26 -49 94 -34 -127
96 75 127 104 -84 127 123 -99
-27 53 75 -23 95 -120 38 -21
-21 78 20 -9 100 81 29 -114
-56 -53 63 8 99 120 127 31
7 105 -67 127 -85 -94 -55 -87
-94 2 -73 -127 -70 13 -127 97
-90 -111 -68 -82 -52 116 60 121
-80 41 87 -82 -47 -43 -127 111
110 -1 -5 -7 72 77 -112 45
127 -117 64 -2 25 -20 5 50
-103 33 -109 -75 62 -31 -5 -116
-88 45 57 127 93 45 -122 19
00000000: 02ee c6c0 8153 b296 fe5e 81d5 7fd4 eaeb
00000010: ca81 3079 3042 817f a48b 3c81 fa7f 7887
00000020: 79db 0325 8aad 815b 1923 23a1 e06f 592b
00000030: 1d87 e68a b87f 5185 3123 69a6 8f8f fc7f
00000040: 39ba b6b4 2496 16e0 00db 5c07 4152 56d6
00000050: 4058 0a40 5988 dbeb 2de7 0000 ba89 408c
00000060: bfdc c71c a70c b940 a153 81d3 f584 2581
00000070: 6781 b3f9 cb22 abbb 7f9f af81 74c1 cca2
00000080: 7f6f 4a8e daaf f6ee adf2 8c15 92c3 dbd5
00000090: ac34 817f 6c7f 81a2 6362 ba1a cf5e de81
000000a0: 604b 7f68 ac7f 7b9d e535 4be9 5f88 26eb
000000b0: eb4e 14f7 6451 1d8e c8cb 3f08 6378 7f1f
000000c0: 0769 bd7f aba2 c9a9 a202 b781 ba0d 8161
000000d0: a691 bcae cc74 3c79 b029 57ae d1d5 816f
000000e0: 6eff fbf9 484d 902d 7f8b 40fe 19ec 0532
000000f0: 9921 93b5 3ee1 fb8c a82d 397f 5d2d 8613

model_1/150/Conv2D i1 [288, 1, 1, 48]
106 95 87 69 97 -43 3 8
127 -94 98 -7 51 77 -58 0
-124 44 115 -69 -106 90 61 -87
-50 56 49 25 22 1 -69 -37
-5 -21 -25 -125 -38 -60 28 -65
46 47 -58 -63 31 -86 -104 68
32 -40 43 -60 -42 -69 -28 127
-85 -11 23 -34 89 -46 -110 50
-36 -87 -127 28 66 -120 91 -68
10 42 82 -93 -112 2 44 34
-52 -40 71 -110 85 88 64 -57
43 6 -102 42 9 -98 6 -3
121 -6 -86 46 41 108 -5 127
75 111 118 1 -123 38 118 12
-110 13 43 34 45 -2 -106 -47
82 64 46 -6 -56 80 97 100
25 4 84 -91 -18 -117 82 98
17 -18 42 -67 -98 -103 64 -38
91 8 -35 -89 -125 44 -42 -33
91 -23 10 -47 -41 -41 9 -44
-23 15 -26 -85 13 -107 -82 21
-103 36 -123 -20 -121 2 -5 119
78 -114 102 101 4 4 50 -110
14 104 -5 -96 127 -15 84 -86
-69 43 -9 -45 52 -94 -124 -52
-68 28 -41 -124 58 88 -88 -101
-127 -62 29 -44 69 98 66 -4
-15 -58 -31 -63 77 -70 -4 -109
-53 -44 -93 -17 -50 -69 87 -50
-13 95 79 21 32 -19 82 -103
-23 32 -79 -127 -107 31 -83 3
-2 -42 19 -31 99 21 107 -27
00000000: 6a5f 5745 61d5 0308 7fa2 62f9 334d c600
00000010: 842c 73bb 965a 3da9 ce38 3119 1601 bbdb
00000020: fbeb e783 dac4 1cbf 2e2f c6c1 1faa 9844
00000030: 20d8 2bc4 d6bb e47f abf5 17de 59d2 9232
00000040: dca9 811c 4288 5bbc 0a2a 52a3 9002 2c22
00000050: ccd8 4792 5558 40c7 2b06 9a2a 099e 06fd
00000060: 79fa aa2e 296c fb7f 4b6f 7601 8526 760c
00000070: 920d 2b22 2dfe 96d1 5240 2efa c850 6164
00000080: 1904 54a5 ee8b 5262 11ee 2abd 9e99 40da
00000090: 5b08 dda7 832c d6df 5be9 0ad1 d7d7 09d4
000000a0: e90f e6ab 0d95 ae15 9924 85ec 8702 fb77
000000b0: 4e8e 6665 0404 3292 0e68 fba0 7ff1 54aa
000000c0: bb2b f7d3 34a2 84cc bc1c d784 3a58 a89b
000000d0: 81c2 1dd4 4562 42fc f1c6 e1c1 4dba fc93
000000e0: cbd4 a3ef cebb 57ce f35f 4f15 20ed 5299
000000f0: e920 b181 951f ad03 fed6 13e1 6315 6be5

model_1/148/Conv2D i1 [48, 1, 1, 288]
-2 8 -47 43 79 87 -119 34
-37 24 -11 78 44 50 116 -87
73 -70 -105 -43 53 -9 -75 -81
-57 123 18 64 57 -9 -81 27
-85 112 -72 -29 -79 -1 -47 116
-81 67 -105 -31 109 -74 -106 -83
83 -118 31 -116 9 60 -79 43
-49 23 -27 105 -34 86 -28 21
70 -126 5 17 52 28 -31 47
-56 26 10 -38 105 49 -29 -30
-9 -48 -119 -63 77 43 -59 -121
-16 84 53 35 -67 -25 -15 -88
52 -57 125 34 -77 -105 -69 36
14 53 58 102 -3 -55 46 -123
-9 -126 -97 -27 -124 119 11 -33
66 82 26 -67 -14 39 -20 106
-47 113 70 -116 11 -96 -126 4
-106 15 124 93 57 118 -50 89
76 15 83 12 84 47 -116 99
125 114 -98 -103 15 90 -77 -94
105 16 -82 99 -86 64 23 -110
57 33 -94 -122 -79 -52 94 -24
99 35 102 39 -127 10 100 27
-22 -55 44 -114 13 118 70 -91
-97 -14 45 -87 34 -3 44 38
110 63 103 -100 -105 0 -5 101
28 84 -17 118 101 27 26 -86
94 93 -15 -108 -4 -121 26 -99
-51 -107 99 99 -47 71 -93 95
53 -83 80 -125 -22 35 51 119
-110 -97 92 54 52 -76 32 -3
-62 91 -17 -40 -14 -62 91 -46
00000000: fe08 d12b 4f57 8922 db18 f54e 2c32 74a9
00000010: 49ba 97d5 35f7 b5af c77b 1240 39f7 af1b
00000020: ab70 b8e3 b1ff d174 af43 97e1 6db6 96ad
00000030: 538a 1f8c 093c b12b cf17 e569 de56 e415
00000040: 4682 0511 341c e12f c81a 0ada 6931 e3e2
00000050: f7d0 89c1 4d2b c587 f054 3523 bde7 f1a8
00000060: 34c7 7d22 b397 bb24 0e35 3a66 fdc9 2e85
00000070: f782 9fe5 8477 0bdf 4252 1abd f227 ec6a
00000080: d171 468c 0ba0 8204 960f 7c5d 3976 ce59
00000090: 4c0f 530c 542f 8c63 7d72 9e99 0f5a b3a2
000000a0: 6910 ae63 aa40 1792 3921 a286 b1cc 5ee8
000000b0: 6323 6627 810a 641b eac9 2c8e 0d76 46a5
000000c0: 9ff2 2da9 22fd 2c26 6e3f 679c 9700 fb65
000000d0: 1c54 ef76 651b 1aaa 5e5d f194 fc87 1a9d
000000e0: cd95 6363 d147 a35f 35ad 5083 ea23 3377
000000f0: 929f 5c36 34b4 20fd c25b efd8 f2c2 5bd2

model_1/147/depthwise i1 [1, 3, 3, 288]
-78 11 87 105 -13 -127 72 15
-35 -122 -5 59 -28 -3 -123 127
-38 82 21 -127 115 -61 15 -75
42 -102 41 -28 127 -111 114 45
127 -100 127 -62 -69 69 79 -81
-33 106 69 -105 109 63 -23 -76
66 93 0 45 -122 90 -96 -25
-115 22 127 127 -125 73 127 17
119 30 -15 70 109 -56 127 11
38 28 75 -69 0 -127 -14 -78
99 119 116 117 -64 49 -9 0
-7 58 -102 -97 35 -90 -127 27
32 99 -5 -10 -64 -111 -27 122
-8 -70 123 -125 28 15 104 -50
101 127 33 84 -61 -41 -112 -73
127 -7 -14 81 20 26 65 -47
-104 -87 110 -127 51 103 -102 126
-94 113 -94 117 -52 127 51 -123
-8 23 79 66 27 71 -16 -10
61 85 17 45 -20 -54 -44 -107
-12 96 127 50 -3 126 85 120
114 -5 68 70 100 58 -53 76
115 -23 -57 -21 40 -85 122 -40
-81 -51 127 -103 99 40 -82 60
54 -1 -2 121 58 -93 93 -127
-127 32 -38 112 127 -36 41 26
90 -2 20 -51 -127 -107 -85 -67
63 111 127 87 -33 97 -98 115
-14 -38 109 -98 1 -45 -24 -127
-96 122 114 91 -2 -27 -111 70
-15 -127 82 -11 65 99 -5 -2
-46 99 -67 127 42 -18 17 -94
00000000: b20b 5769 f381 480f dd86 fb3b e4fd 857f
00000010: da52 1581 73c3 0fb5 2a9a 29e4 7f91 722d
00000020: 7f9c 7fc2 bb45 4faf df6a 4597 6d3f e9b4
00000030: 425d 002d 865a a0e7 8d16 7f7f 8349 7f11
00000040: 771e f146 6dc8 7f0b 261c 4bbb 0081 f2b2
00000050: 6377 7475 c031 f700 f93a 9a9f 23a6 811b
00000060: 2063 fbf6 c091 e57a f8ba 7b83 1c0f 68ce
00000070: 657f 2154 c3d7 90b7 7ff9 f251 141a 41d1
00000080: 98a9 6e81 3367 9a7e a271 a275 cc7f 3385
00000090: f817 4f42 1b47 f0f6 3d55 112d ecca d495
000000a0: f460 7f32 fd7e 5578 72fb 4446 643a cb4c
000000b0: 73e9 c7eb 28ab 7ad8 afcd 7f99 6328 ae3c
000000c0: 36ff fe79 3aa3 5d81 8120 da70 7fdc 291a
000000d0: 5afe 14cd 8195 abbd 3f6f 7f57 df61 9e73
000000e0: f2da 6d9e 01d3 e881 a07a 725b fee5 9146
000000f0: f181 52f5 4163 fbfe d263 bd7f 2aee 11a2

model_1/146/Conv2D i1 [288, 1, 1, 48]
56 73 5 18 -66 -11 127 -96
91 80 -44 -59 82 70 47 87
17 13 35 -59 17 -119 -55 127
119 -73 -126 17 -122 90 48 123
87 -27 9 -104 85 -9 -86 -27
25 18 64 -109 -78 71 -124 -38
-111 -63 -15 103 -35 -51 4 86
-119 1 -39 -21 124 -127 21 125
-49 91 -98 3 8 90 113 8
-29 23 11 -11 124 -108 76 -92
-123 -79 68 -116 -91 -67 111 51
-46 78 79 53 -102 -5 -109 17
-63 125 -25 -118 33 92 -42 -41
5 -52 -74 -14 -127 -45 70 20
-116 117 46 -28 120 125 -22 -17
38 -77 63 3 14 114 73 -70
71 -118 -113 -90 -91 85 -81 -120
112 56 21 68 16 -10 53 102
-35 -98 -65 2 -114 -35 29 100
-110 64 -88 -125 4 -50 -88 -67
12 -42 26 -112 60 -62 -73 84
60 -42 59 115 -52 70 -125 -60
-14 112 -125 -118 -25 -86 18 -85
-16 -45 49 -44 -116 42 110 -127
67 -88 6 18 -111 43 83 -62
-12 54 36 -75 -84 72 63 -30
82 78 68 -38 -113 -42 39 39
64 -116 -47 -55 -94 26 -27 -109
14 96 21 127 -31 -35 98 -115
72 63 -1 -81 15 -21 59 -3
-55 -66 -95 -64 -37 -105 -99 87
-122 -61 30 -64 -19 -124 -102 40
00000000: 3849 0512 bef5 7fa0 5b50 d4c5 5246 2f57
00000010: 110d 23c5 1189 c97f 77b7 8211 865a 307b
00000020: 57e5 0998 55f7 aae5 1912 4093 b247 84da
00000030: 91c1 f167 ddcd 0456 8901 d9eb 7c81 157d
00000040: cf5b 9e03 085a 7108 e317 0bf5 7c94 4ca4
00000050: 85b1 448c a5bd 6f33 d24e 4f35 9afb 9311
00000060: c17d e78a 215c d6d7 05cc b6f2 81d3 4614
00000070: 8c75 2ee4 787d eaef 26b3 3f03 0e72 49ba
00000080: 478a 8fa6 a555 af88 7038 1544 10f6 3566
00000090: dd9e bf02 8edd 1d64 9240 a883 04ce a8bd
000000a0: 0cd6 1a90 3cc2 b754 3cd6 3b73 cc46 83c4
000000b0: f270 838a e7aa 12ab f0d3 31d4 8c2a 6e81
000000c0: 43a8 0612 912b 53c2 f436 24b5 ac48 3fe2
000000d0: 524e 44da 8fd6 2727 408c d1c9 a21a e593
000000e0: 0e60 157f e1dd 628d 483f ffaf 0feb 3bfd
000000f0: c9be a1c0 db97 9d57 86c3 1ec0 ed84 9a28

model_1/145/Conv2D i1 [48, 1, 1, 192]
-49 -99 8 -22 19 -87 72 37
60 22 54 -107 24 -19 65 40
93 40 -40 55 18 -34 -14 -69
46 -5 101 79 59 -95 62 16
103 -93 -127 -105 98 -39 8 -93
-62 -81 122 -86 -99 51 -49 22
-86 -87 -83 -27 75 -39 -41 39
-13 -24 75 28 22 -63 -53 -39
-97 84 -31 -90 2 -51 92 -94
-23 -99 11 -32 36 8 28 37
42 -98 111 -78 54 119 -5 43
65 77 -122 -70 -97 94 -48 -82
-117 60 70 126 101 34 53 -115
41 -76 18 -59 41 -7 88 48
-35 1 20 122 -22 -76 36 -15
94 -1 -74 -62 -37 122 -19 88
78 -1 -124 -117 -76 -127 58 51
-5 -39 30 -93 65 -120 104 -1
92 32 31 -28 -39 65 99 -99
-34 -99 73 27 93 49 33 -80
46 95 -111 92 -100 98 -57 79
29 90 21 -64 -103 -44 -104 -33
-37 -76 122 -69 -37 -24 44 69
78 -126 -19 23 -75 91 -110 -88
35 -93 30 43 -69 -106 -102 -65
-95 17 5 39 -17 106 -32 61
81 -40 -7 7 7 6 74 -70
-112 103 94 86 -117 31 -83 -22
118 -107 -111 122 3 -110 -109 69
-43 -13 90 -48 -120 -50 -121 58
-32 -68 48 -110 61 63 111 -66
-103 13 59 110 -101 58 49 29
00000000: cf9d 08ea 13a9 4825 3c16 3695 18ed 4128
00000010: 5d28 d837 12de f2bb 2efb 654f 3ba1 3e10
00000020: 67a3 8197 62d9 08a3 c2af 7aaa 9d33 cf16
00000030: aaa9 ade5 4bd9 d727 f3e8 4b1c 16c1 cbd9
00000040: 9f54 e1a6 02cd 5ca2 e99d 0be0 2408 1c25
00000050: 2a9e 6fb2 3677 fb2b 414d 86ba 9f5e d0ae
00000060: 8b3c 467e 6522 358d 29b4 12c5 29f9 5830
00000070: dd01 147a eab4 24f1 5eff b6c2 db7a ed58
00000080: 4eff 848b b481 3a33 fbd9 1ea3 4188 68ff
00000090: 5c20 1fe4 d941 639d de9d 491b 5d31 21b0
000000a0: 2e5f 915c 9c62 c74f 1d5a 15c0 99d4 98df
000000b0: dbb4 7abb dbe8 2c45 4e82 ed17 b55b 92a8
000000c0: 23a3 1e2b bb96 9abf a111 0527 ef6a e03d
000000d0: 51d8 f907 0706 4aba 9067 5e56 8b1f adea
000000e0: 7695 917a 0392 9345 d5f3 5ad0 88ce 873a
000000f0: e0bc 3092 3d3f 6fbe 990d 3b6e 9b3a 311d

model_1/144/depthwise i1 [1, 3, 3, 192]
63 18 96 -42 -21 116 -105 127
98 22 -116 28 81 35 73 -28
-41 61 43 -127 11 -17 -127 91
-127 86 -59 127 4 113 -84 -46
120 72 -121 -41 53 78 -2 44
117 -49 -14 118 13 43 120 -127
48 67 -124 -50 -98 6 -4 -72
63 49 127 72 76 127 -27 -57
127 68 -55 124 127 -127 -84 -56
-16 -80 -93 -116 -91 -43 -74 -17
52 46 -114 -27 35 -73 11 -94
27 90 48 -118 60 -91 85 -101
4 -96 -43 70 106 77 -112 85
127 1 -31 -3 21 70 73 127
-49 -48 54 -25 53 -66 82 10
12 121 -124 -49 -51 84 -32 54
-119 40 78 92 -127 43 -13 122
53 -51 -127 -67 -77 -12 -55 20
127 127 -31 -48 25 -89 -15 -37
32 -93 92 52 43 68 127 -91
127 -70 41 70 -91 -50 50 8
102 127 127 -49 122 -94 31 48
-31 118 72 -11 -127 41 -127 85
-87 127 47 -70 -6 -93 82 44
77 -111 11 -84 -19 69 71 7
124 1 -86 9 46 -12 -58 -30
-43 36 -2 89 -107 13 14 127
62 -82 49 -107 -117 127 -2 -127
120 -60 25 -39 -113 -96 7 7
50 -64 -77 -84 88 -37 -127 -14
62 -66 55 -124 -127 84 -97 1
-41 73 -32 -62 -116 24 127 -28
00000000: 3f12 60d6 eb74 977f 6216 8c1c 5123 49e4
00000010: d73d 2b81 0bef 815b 8156 c57f 0471 acd2
00000020: 7848 87d7 354e fe2c 75cf f276 0d2b 7881
00000030: 3043 84ce 9e06 fcb8 3f31 7f48 4c7f e5c7
00000040: 7f44 c97c 7f81 acc8 f0b0 a38c a5d5 b6ef
00000050: 342e 8ee5 23b7 0ba2 1b5a 308a 3ca5 559b
00000060: 04a0 d546 6a4d 9055 7f01 e1fd 1546 497f
00000070: cfd0 36e7 35be 520a 0c79 84cf cd54 e036
00000080: 8928 4e5c 812b f37a 35cd 81bd b3f4 c914
00000090: 7f7f e1d0 19a7 f1db 20a3 5c34 2b44 7fa5
000000a0: 7fba 2946 a5ce 3208 667f 7fcf 7aa2 1f30
000000b0: e176 48f5 8129 8155 a97f 2fba faa3 522c
000000c0: 4d91 0bac ed45 4707 7c01 aa09 2ef4 c6e2
000000d0: d524 fe59 950d 0e7f 3eae 3195 8b7f fe81
000000e0: 78c4 19d9 8fa0 0707 32c0 b3ac 58db 81f2
000000f0: 3ebe 3784 8154 9f01 d749 e0c2 8c18 7fe4

model_1/143/Conv2D i1 [192, 1, 1, 32]
-35 60 -127 16 -68 -38 -17 -73
59 116 -53 20 90 36 107 11
-57 90 64 -37 -35 71 -119 -21
-52 -127 119 -79 -81 50 110 -78
-35 -12 -6 -37 127 -6 7 -58
-125 8 -58 -77 -29 53 -104 -36
16 -122 35 109 -17 78 75 -124
12 40 26 -11 -68 -57 73 -121
7 120 -14 50 -10 -109 -99 -57
-112 -100 95 81 96 7 21 1
107 21 -45 -32 -95 -104 -61 -20
-121 -98 127 109 34 -41 -110 -106
102 17 114 -125 -112 -79 92 -113
-20 7 41 103 84 -103 -120 73
127 124 0 -109 -26 27 121 -26
75 92 -34 -29 -21 -53 -8 -109
110 -112 -10 54 76 -39 -7 -111
-51 -115 -29 -24 115 94 47 -83
24 22 127 -37 -10 -62 8 -36
-67 -110 -80 -45 127 -95 56 42
-111 121 101 105 102 -39 48 -10
-20 -99 127 -87 105 93 -56 -126
34 -52 16 -24 -122 -33 -105 114
4 -16 41 -78 -8 76 125 29
-94 -34 -66 68 119 -82 -112 -48
-75 49 18 48 3 -22 -10 94
-9 81 106 -1 127 105 29 -2
4 -64 -14 -43 -63 51 -55 63
68 -6 -50 61 -84 71 -71 37
-61 -106 -55 -62 -127 -124 -115 -34
-110 -94 -97 -123 29 -30 28 -106
91 86 -30 19 -64 20 -126 115
00000000: dd3c 8110 bcda efb7 3b74 cb14 5a24 6b0b
00000010: c75a 40db dd47 89eb cc81 77b1 af32 6eb2
00000020: ddf4 fadb 7ffa 07c6 8308 c6b3 e335 98dc
00000030: 1086 236d ef4e 4b84 0c28 1af5 bcc7 4987
00000040: 0778 f232 f693 9dc7 909c 5f51 6007 1501
00000050: 6b15 d3e0 a198 c3ec 879e 7f6d 22d7 9296
00000060: 6611 7283 90b1 5c8f ec07 2967 5499 8849
00000070: 7f7c 0093 e61b 79e6 4b5c dee3 ebcb f893
00000080: 6e90 f636 4cd9 f991 cd8d e3e8 735e 2fad
00000090: 1816 7fdb f6c2 08dc bd92 b0d3 7fa1 382a
000000a0: 9179 6569 66d9 30f6 ec9d 7fa9 695d c882
000000b0: 22cc 10e8 86df 9772 04f0 29b2 f84c 7d1d
000000c0: a2de be44 77ae 90d0 b531 1230 03ea f65e
000000d0: f751 6aff 7f69 1dfe 04c0 f2d5 c133 c93f
000000e0: 44fa ce3d ac47 b925 c396 c9c2 8184 8dde
000000f0: 92a2 9f85 1de2 1c96 5b56 e213 c014 8273

model_1/141/Conv2D i1 [32, 1, 1, 192]
-67 86 87 57 76 -17 -91 -96
3 -106 64 -120 -126 -68 -71 -98
-30 47 68 88 61 47 -21 -24
71 83 72 74 -118 -26 66 -3
-11 -120 -97 97 -109 -13 -5 -94
-52 30 -23 -46 -42 36 98 -73
23 -11 80 61 111 14 21 -28
-89 101 117 -5 -55 56 -91 112
-95 -118 -44 119 -87 25 98 -15
46 -28 123 -71 -109 -90 -34 -117
121 29 16 25 123 -6 -12 -112
76 -116 -120 -89 105 -20 117 6
-5 -110 63 -70 75 -23 -86 70
-91 -40 -94 -60 -75 27 21 49
47 -3 73 -29 90 111 -64 109
80 -18 23 77 41 90 126 -106
-11 -14 -88 -109 -93 -91 109 -63
-93 -103 31 -37 72 83 -6 -1
-11 -123 104 61 -4 -4 -74 -99
-50 92 105 -25 -19 -48 -37 -3
-24 -9 -127 -92 -25 55 64 -120
48 84 70 -125 -115 53 -118 -77
86 -124 4 53 -35 52 -84 -4
-115 54 -24 33 -45 117 -24 98
54 -16 24 -86 -16 26 6 117
-93 -38 -3 66 64 -99 32 -43
26 20 -80 -95 -112 47 107 59
99 -104 -41 51 36 59 36 -27
-73 -124 -81 -115 -116 127 -24 103
13 24 -51 -50 -114 65 -77 83
27 -34 97 126 112 103 36 26
-2 -30 5 125 -32 87 -3 122
00000000: bd56 5739 4cef a5a0 0396 4088 82bc b99e
00000010: e22f 4458 3d2f ebe8 4753 484a 8ae6 42fd
00000020: f588 9f61 93f3 fba2 cc1e e9d2 d624 62b7
00000030: 17f5 503d 6f0e 15e4 a765 75fb c938 a570
00000040: a18a d477 a919 62f1 2ee4 7bb9 93a6 de8b
00000050: 791d 1019 7bfa f490 4c8c 88a7 69ec 7506
00000060: fb92 3fba 4be9 aa46 a5d8 a2c4 b51b 1531
00000070: 2ffd 49e3 5a6f c06d 50ee 174d 295a 7e96
00000080: f5f2 a893 a3a5 6dc1 a399 1fdb 4853 faff
00000090: f585 683d fcfc b69d ce5c 69e7 edd0 dbfd
000000a0: e8f7 81a4 e737 4088 3054 4683 8d35 8ab3
000000b0: 5684 0435 dd34 acfc 8d36 e821 d375 e862
000000c0: 36f0 18aa f01a 0675 a3da fd42 409d 20d5
000000d0: 1a14 b0a1 902f 6b3b 6398 d733 243b 24e5
000000e0: b784 af8d 8c7f e867 0d18 cdce 8e41 b353
000000f0: 1bde 617e 7067 241a fee2 057d e057 fd7a

model_1/140/depthwise i1 [1, 3, 3, 192]
-64 127 -127 123 87 -25 47 -40
-90 127 89 68 57 123 127 59
-61 127 110 25 -79 1 97 5
48 62 34 -95 -24 43 -81 127
-15 -9 -51 88 -30 -35 6 103
127 -91 60 39 112 108 64 -127
-99 68 -20 68 69 -17 -61 -127
100 -29 53 120 -19 122 -127 -123
-104 126 -4 -12 30 -95 112 -76
61 -71 -42 80 56 127 -124 2
48 -75 -125 9 -112 -102 54 -82
-81 73 -60 -21 127 -121 -36 21
-87 53 35 43 -127 -24 -73 -86
66 5 -90 -93 -127 127 124 -29
127 -127 36 -99 105 55 117 -98
121 -109 -99 42 -28 14 66 -50
43 27 91 -83 63 121 -8 -73
127 13 -93 29 123 42 127 -127
-122 -2 127 127 118 -91 -40 -51
61 -1 -82 56 21 38 -58 -2
-81 -14 -121 127 -76 106 74 -111
-38 -63 14 70 -107 24 62 -8
22 52 4 -124 103 87 16 44
-52 -82 -60 43 -117 88 -127 71
59 52 57 102 -15 -16 -44 26
66 -32 -74 -74 -36 9 -50 -43
-90 -121 -127 120 -74 8 45 -107
123 68 -64 8 -8 55 -80 -69
44 45 55 -6 -127 -127 -1 0
-97 -75 59 -80 1 -31 9 87
17 43 -14 52 78 79 45 -94
-29 127 -20 -85 83 26 0 122
00000000: c07f 817b 57e7 2fd8 a67f 5944 397b 7f3b
00000010: c37f 6e19 b101 6105 303e 22a1 e82b af7f
00000020: f1f7 cd58 e2dd 0667 7fa5 3c27 706c 4081
00000030: 9d44 ec44 45ef c381 64e3 3578 ed7a 8185
00000040: 987e fcf4 1ea1 70b4 3db9 d650 387f 8402
00000050: 30b5 8309 909a 36ae af49 c4eb 7f87 dc15
00000060: a935 232b 81e8 b7aa 4205 a6a3 817f 7ce3
00000070: 7f81 249d 6937 759e 7993 9d2a e40e 42ce
00000080: 2b1b 5bad 3f79 f8b7 7f0d a31d 7b2a 7f81
00000090: 86fe 7f7f 76a5 d8cd 3dff ae38 1526 c6fe
000000a0: aff2 877f b46a 4a91 dac1 0e46 9518 3ef8
000000b0: 1634 0484 6757 102c ccae c42b 8b58 8147
000000c0: 3b34 3966 f1f0 d41a 42e0 b6b6 dc09 ced5
000000d0: a687 8178 b608 2d95 7b44 c008 f837 b0bb
000000e0: 2c2d 37fa 8181 ff00 9fb5 3bb0 01e1 0957
000000f0: 112b f234 4e4f 2da2 e37f ecab 531a 007a

model_1/139/Conv2D i1 [192, 1, 1, 32]
47 -29 -63 9 120 -97 -25 -70
10 26 109 -48 47 -7 -18 -68
113 -55 -113 -127 45 -66 0 32
-115 116 10 82 -103 -62 -90 103
113 -92 74 -58 113 61 -94 10
-63 -110 21 30 75 -95 125 13
-89 7 -62 60 32 80 53 116
-98 -23 127 -51 96 123 -122 94
15 26 65 112 -69 -125 -118 -50
105 -99 -80 -96 -115 -66 -51 127
63 79 -85 126 38 -73 -35 -76
-28 54 83 85 -106 -117 71 94
82 52 -104 63 101 -30 123 76
-4 -120 83 -77 28 -127 -42 57
-94 -120 -7 60 8 32 39 118
45 42 -74 49 27 33 70 87
61 -76 -26 -58 -85 121 56 70
-122 55 -7 -68 71 -98 56 -25
20 32 24 -44 127 105 98 -52
-84 64 -45 -6 75 1 -48 29
46 52 -67 11 -111 -123 76 -13
-100 52 -20 102 -69 87 87 -18
-127 26 122 -7 -121 4 -26 -62
8 115 57 -99 -121 55 -81 32
82 101 77 -53 8 89 10 27
-14 -34 51 73 -61 20 -33 -127
23 114 -120 -126 -36 23 -87 -33
32 115 19 63 -62 19 -34 36
-10 124 -105 28 -123 40 -122 -74
-22 19 -68 67 -13 -116 -96 91
-60 -48 59 71 -27 100 91 84
-116 -37 -96 -127 -2 -117 -123 126
00000000: 2fe3 c109 789f e7ba 0a1a 6dd0 2ff9 eebc
00000010: 71c9 8f81 2dbe 0020 8d74 0a52 99c2 a667
00000020: 71a4 4ac6 713d a20a c192 151e 4ba1 7d0d
00000030: a707 c23c 2050 3574 9ee9 7fcd 607b 865e
00000040: 0f1a 4170 bb83 8ace 699d b0a0 8dbe cd7f
00000050: 3f4f ab7e 26b7 ddb4 e436 5355 968b 475e
00000060: 5234 983f 65e2 7b4c fc88 53b3 1c81 d639
00000070: a288 f93c 0820 2776 2d2a b631 1b21 4657
00000080: 3db4 e6c6 ab79 3846 8637 f9bc 479e 38e7
00000090: 1420 18d4 7f69 62cc ac40 d3fa 4b01 d01d
000000a0: 2e34 bd0b 9185 4cf3 9c34 ec66 bb57 57ee
000000b0: 811a 7af9 8704 e6c2 0873 399d 8737 af20
000000c0: 5265 4dcb 0859 0a1b f2de 3349 c314 df81
000000d0: 1772 8882 dc17 a9df 2073 133f c213 de24
000000e0: f67c 971c 8528 86b6 ea13 bc43 f38c a05b
000000f0: c4d0 3b47 e564 5b54 8cdb a081 fe8b 857e

model_1/137/Conv2D i1 [32, 1, 1, 192]
10 -93 -4 6 30 -74 52 101
7 109 -62 64 -20 -35 -42 -36
33 -114 -41 123 -116 -102 123 -83
-42 -26 66 18 1 24 -52 -100
73 1 -38 -115 -17 15 15 93
-41 -99 27 -55 29 21 117 41
-109 -54 102 108 41 -40 26 35
26 -53 10 -48 73 123 -92 -117
-73 104 -60 1 121 -127 -57 32
-77 6 81 101 106 -45 -110 34
45 57 -24 101 -74 44 -82 -51
-92 -18 108 -34 -65 110 -31 -30
13 98 79 5 -58 -41 92 25
64 98 54 -4 -48 -92 -69 -82
-93 46 49 79 122 36 -73 114
7 18 101 76 33 65 -81 -11
11 -103 111 23 -116 122 -48 -16
-80 53 118 32 17 52 83 84
-111 -69 77 -90 -90 -122 -101 -63
79 88 69 93 79 6 106 -30
27 -1 98 97 -92 85 68 42
120 -47 -8 100 42 -82 118 -99
87 -38 -9 -77 41 8 97 29
-111 81 -31 -19 6 39 37 63
84 110 -11 -72 124 -88 -18 -93
99 30 45 -95 109 17 -85 -116
-13 47 -76 -36 -24 83 -123 -13
81 -116 -104 -49 -116 -8 -27 17
107 -35 -15 76 -73 -115 22 89
-122 28 26 -73 125 103 -10 -110
60 127 20 -40 28 115 -28 -32
-25 -110 -52 64 65 125 -72 15
00000000: 0aa3 fc06 1eb6 3465 076d c240 ecdd d6dc
00000010: 218e d77b 8c9a 7bad d6e6 4212 0118 cc9c
00000020: 4901 da8d ef0f 0f5d d79d 1bc9 1d15 7529
00000030: 93ca 666c 29d8 1a23 1acb 0ad0 497b a48b
00000040: b768 c401 7981 c720 b306 5165 6ad3 9222
00000050: 2d39 e865 b62c aecd a4ee 6cde bf6e e1e2
00000060: 0d62 4f05 c6d7 5c19 4062 36fc d0a4 bbae
00000070: a32e 314f 7a24 b772 0712 654c 2141 aff5
00000080: 0b99 6f17 8c7a d0f0 b035 7620 1134 5354
00000090: 91bb 4da6 a686 9bc1 4f58 455d 4f06 6ae2
000000a0: 1bff 6261 a455 442a 78d1 f864 2aae 769d
000000b0: 57da f7b3 2908 611d 9151 e1ed 0627 253f
000000c0: 546e f5b8 7ca8 eea3 631e 2da1 6d11 ab8c
000000d0: f32f b4dc e853 85f3 518c 98cf 8cf8 e511
000000e0: 6bdd f14c b78d 1659 861c 1ab7 7d67 f692
000000f0: 3c7f 14d8 1c73 e4e0 e792 cc40 417d b80f
